models/decoder-trained.pth (torch, 490660 bytes, 22 tensors)

mlp.0.weight f4 [128, 32]
00000000: 2a4d 01bf 09c0 853e 19fe f2be d956 bc3e
00000010: 5197 d83e 5f40 a0be 3ad6 abbe f9b0 853e
00000020: f251 12bf 48c0 f03e 9dc0 763e bdd2 6d3e
00000030: 3f1f 70be 2bb8 d3be bf53 c53e a7ac dc3e
00000040: 5ba8 d73e 7270 993e d875 1b3f 8520 c7be
00000050: eead e8be 15ea afbe a4d6 23bf 6c33 b23e
00000060: c056 12bf 1db6 d23e 7c41 823e 1f13 f2be
00000070: c659 143f 5bc7 f4be 3781 083f 6f12 fabe
00000080: 78e9 06bf 9142 433e 243f 16bf 9a19 643e
00000090: 41bc d23e 1da0 80be 96a6 b7be 168b a93e
000000a0: dbc0 e6be 8abe 763e 031c 6c3e 166e 813e
000000b0: 496e 35be 5fa6 9fbe 08d6 963e 715f c43e
000000c0: b095 703e 350c 673e eef7 083f efce 07bf
000000d0: c8bc 90be 0df1 c6be 9e59 17bf ffa6 e53e
000000e0: 94d1 bebe 2a4f f73e eb6d 613e eed4 f0be
000000f0: ddec 0c3f d244 dabe 0c09 083f 881c d4be
00000100: b03b 29be 0ab1 7d3d 50b2 72bd c23a a2bd
00000110: 7728 3c3b ccbc 0cbe 6191 a4bd fe32 d6bd
00000120: 9a04 6fbc 2e8f d4bd 4a19 18be dfa5 c2bd
00000130: 845b 13be 05db 063e eded 153e 0899 ec3d
00000140: 23e8 babd c5e3 47bd 95dd 9dbd 5043 30bb
00000150: 0dd2 103c 7c6a c23d 8e5b c93c 0ef1 5b3d
00000160: eba2 2dbd eff5 dc3d 3b05 eb3d 761c 25be
00000170: 0536 21be 0648 c43c ee07 7d3c 0ee4 a2bd
00000180: fddd b4be 5bd6 dd3e a22b fabe aaa5 c13e
00000190: 9aac 753e a309 82be e282 1bbe 3499 303e
000001a0: 72f1 93be 7d10 d63e 130b 463e 6606 613e
000001b0: 4766 c5be f0c6 e0be f178 dd3e 24f9 113f
000001c0: aec9 d33e 9f42 673e 61b7 043f 8a8f c8be
000001d0: 8978 aabe b513 dabe d4be bebe 63bc e03e
000001e0: e68d efbe 071b f93e 4a3f ca3e 1e4d 91be
000001f0: 9f6f b43e 75a1 c4be 62e3 493e bf9f 13bf
00000200: f8f2 93be fb73 4e3e d764 efbe 7f73 f93e
00000210: b636 a23e 2e8e 84be ba71 fabe b914 733e
00000220: e839 f2be 9efc e93e 6da4 453e 9a29 b83e
00000230: 239a 45be 6dbe 16bf cc5b c83e d341 f53e
00000240: d06e 7d3e 860b ee3e aa75 2c3f 9c80 aabe
00000250: da0f 09bf 5066 d3be cfaa afbe 628e ae3e
00000260: edff 05bf f91d 0c3f bb58 f13e 5863 dabe
00000270: de5e f63e f0ac e7be be2a d13e ad44 bbbe
00000280: 10ef b4be 7649 8b3e 44f2 24bf 9218 083f
00000290: 99e1 1a3f cdc3 96be fd58 87be e88f fc3e
000002a0: 729e d3be 3d00 9f3e a677 9f3e 01d5 1b3f
000002b0: ec34 83be f3e9 d9be 1ff1 cb3e ae50 fb3e
000002c0: d78a c83e f6b0 c53e a42a ca3e 79e0 c0be
000002d0: 2051 1cbf 592a 13bf 910f e4be e3ea 0e3f
000002e0: 86cf 19bf f8ca 0f3f 34d9 a73e 3676 0abf
000002f0: 64bd 1c3f 2d4a 24bf 7df7 203f bccc c2be
00000300: 315d debe 3491 8f3e 4d33 e0be f4f9 553e
00000310: a210 ea3e 36ec e3be 72d1 3abe 8052 c33e
00000320: 7c73 28bf 4bf8 c03e 8ceb f23e ff2c ca3e
00000330: 504d 06bf 5f71 bebe 7b85 9c3e 0cbf 8e3e
00000340: 323c b23e a01e e83e c7f9 f83e 8f87 cbbe
00000350: 3950 14bf e753 82be 6f9e 00bf b9b1 0e3f
00000360: f6ca 88be 8a3d d13e be0f 923e cc4e fcbe
00000370: 506a 1b3f 2b0a a0be f2f2 0f3f 37ce 06bf
00000380: e28f dcbe c825 b03e 0a48 1cbf 4122 ce3e
00000390: caba fe3e 6d2a 85be a393 6cbe b0a5 d03e
000003a0: 9f19 29bf 21ca 013f 9aa5 973e 0c99 d63e
000003b0: a709 8bbe 7ffd 08bf 4e0c 173f d9af 283f
000003c0: 3c0e 893e 3f57 e83e 1ca6 243f 9b3c 10bf
000003d0: b1ad e7be 5cfc ebbe 663d e2be db56 123f
000003e0: 9bc8 fcbe ae0f ee3e ae04 7a3e 7d30 65be
000003f0: 42f1 d83e 4f3f 25bf 2b5a f63e 17b5 9bbe
-0.5050837 0.26123074 -0.47459486 0.3678501 0.42302945 -0.3129911 -0.3356188 0.26111582
-0.5715629 0.470217 0.24096914 0.23224922 -0.2344942 -0.41351447 0.38540456 0.43100473
0.42120633 0.299686 0.6072669 -0.38891998 -0.45445198 -0.34358278 -0.6399939 0.34804857
-0.5716362 0.41154566 0.25440586 -0.47280213 0.57949483 -0.47808346 0.53322166 -0.4884219
-0.52699995 0.19068362 -0.58690095 0.22275391 0.4115925 -0.25122157 -0.35869282 0.33113927
-0.45069012 0.24096122 0.2305756 0.252793 -0.17717852 -0.3118162 0.29460168 0.38354066
0.23494601 0.2256325 0.5350331 -0.5305013 -0.2826903 -0.38855782 -0.5912112 0.4485397
-0.3726927 0.48302585 0.22014587 -0.47037452 0.55048925 -0.4263063 0.53138804 -0.41428018
-0.16526675 0.061936416 -0.059252083 -0.079213634 0.0028710642 -0.13743895 -0.08035541 -0.10458945
-0.014588499 -0.10378872 -0.14853397 -0.09504294 -0.14390379 0.13169487 0.14641543 0.11552626
-0.09126308 -0.048801202 -0.07708279 -0.002689559 0.0088391425 0.094929665 0.02457979 0.053696685
-0.0423917 0.107890956 0.11475607 -0.16124138 -0.15743263 0.023960125 0.015443785 -0.07953654
-0.35325614 0.43327603 -0.48861414 0.37821704 0.23991624 -0.25397977 -0.15186647 0.17245942
-0.28895146 0.41809455 0.19340162 0.21975097 -0.38554594 -0.43901777 0.43256333 0.57020783
0.41364807 0.22584008 0.51842314 -0.39172012 -0.33295086 -0.4259316 -0.37254965 0.43893728
-0.46787947 0.48653433 0.3950141 -0.28379148 0.3524141 -0.38404432 0.19715646 -0.5766563
-0.28896308 0.2016143 -0.46756622 0.4872093 0.31682366 -0.25889724 -0.4891489 0.23738374
-0.47309804 0.45700544 0.19301005 0.3596924 -0.1929708 -0.58884317 0.39132535 0.47901782
0.24749303 0.46493167 0.6736704 -0.33301246 -0.5353981 -0.41288996 -0.34310004 0.34093004
-0.52343637 0.54733235 0.47138008 -0.42653918 0.48119253 -0.45249128 0.40852922 -0.36575833
-0.3533864 0.27204484 -0.6443217 0.5316249 0.60500485 -0.2944626 -0.2643508 0.49328542
-0.41331822 0.3105487 0.31145972 0.60871893 -0.25626314 -0.42561302 0.39832398 0.4908499
0.39168426 0.38611573 0.39485657 -0.3767126 -0.61061287 -0.5748649 -0.44543126 0.5582716
-0.6008228 0.5616908 0.327829 -0.54086626 0.6122649 -0.64175683 0.6287764 -0.38046825
-0.43430474 0.2804047 -0.4378914 0.20896131 0.45715815 -0.44516152 -0.1824396 0.3814888
-0.65801215 0.37689433 0.47445333 0.39487454 -0.5246172 -0.3719587 0.30570588 0.27880132
0.3481155 0.45335865 0.48628065 -0.3975186 -0.5793491 -0.25454637 -0.5024175 0.55739933
-0.26717347 0.40867263 0.28527635 -0.49278867 0.60709095 -0.31257758 0.5623008 -0.5265841
-0.43078524 0.34403825 -0.6104742 0.4026051 0.49751884 -0.2600893 -0.23103194 0.4075141
-0.6605472 0.5069905 0.2961853 0.4191364 -0.27155802 -0.53511804 0.5900315 0.6589332
0.26768672 0.45379063 0.6431596 -0.56342477 -0.45249704 -0.46090972 -0.44187468 0.5716378
-0.493718 0.46496338 0.24415848 -0.22381778 0.42371565 -0.64549726 0.48115668 -0.30411598

mlp.0.bias f4 [128]
00000000: ff75 0ebf 6e11 0ebf 7b83 2fbe 5743 00bf
00000010: dc01 0bbf 3849 e6be 00e8 d9be c8ea 08bf
00000020: ccbc 1abf c335 2fbe ad44 0bbf 44cf 4fbd
00000030: c700 debd 6d23 00bf 59e7 28be 7fd5 24be
00000040: a992 39bd ee35 1abf 983c 45bd bc94 0fbf
00000050: 6005 dcbe 793d 0fbf 50b9 0dbe af0d bcbd
00000060: 3b96 80bd 149c e4be e81d b5bd 1b44 12bf
00000070: 79b7 10bf 12dc 10be 8d98 7abd 1745 ebbe
00000080: b3eb dfbd 95b2 9bbd 996c f0be 68cc 77bd
00000090: 0bb1 00bf 389c 99bd fa06 6dbd f30b 27be
000000a0: 576c 0ebf 701b c9bd 8b04 69bd 3872 91bd
000000b0: 71c0 14bf 8994 bcbe 4997 2dbe 8fd0 02bf
000000c0: cd6f 22be 966e 03bf b76c 64bd be02 13be
000000d0: 003d 2dbe bb95 11bf f647 0ebe 7d03 afbd
000000e0: 7b63 b9bd 95f4 cebd 073e 03bf f475 1cbe
000000f0: 7c2f d8be abd4 f3be b74c 6dbf 97bc febd
00000100: de1c 13be 5631 10bf 7c8e b2bd 05a2 febe
00000110: ab6f 60bf 0ded 05bf 7023 1cbe be96 00bf
00000120: 43c6 03bf 3ed2 1ebd ece0 d3bc 3fbd dcbe
00000130: 9034 cfbe 3c9b 0bbf d597 1cbf c7ea f0be
00000140: ed9c dbbe 4ff1 eebd 7fda 78bd 4b05 14be
00000150: 7669 1cbf 988d f8be 5fcd 82bd 828a 49bd
00000160: 0119 05bf 93fd d9be bc96 c8bd d562 80bd
00000170: 1e8f 3abd 6076 07bf a063 c6be 563d bcbd
00000180: 30e8 0dbf 999e 21bf b9a8 15bf 7bd2 b7be
00000190: 41e3 06be 0401 06be 3024 28bf 2fa6 dfbe
000001a0: 5673 fabe 0f87 14bf 82bb 80bc 2a50 42bd
000001b0: 350d 04bf b387 a0bd 44d1 55bd 06f5 08bf
000001c0: 6acf 07bf 43c6 ffbe 52a3 02be c6b2 2cbe
000001d0: 4659 f9be 2f05 03bf b81d e6be 549f e1be
000001e0: 0c23 fabe 7326 ebbe 3362 20be 522c 0fbe
000001f0: 6527 36bf 4d67 b1bd 2c7f 52bd da6e 22bd
-0.556488 -0.55495346 -0.1714 -0.5010275 -0.5429971 -0.44977736 -0.42559814 -0.5348325
-0.6044433 -0.17110352 -0.54401666 -0.050734773 -0.10839992 -0.50054055 -0.16494502 -0.16097067
-0.04530588 -0.6023854 -0.04815349 -0.56086326 -0.4297285 -0.55953175 -0.13840222 -0.091822974
-0.06278654 -0.44650328 -0.08843595 -0.5713517 -0.5652996 -0.1414645 -0.06118064 -0.4595115
-0.10933628 -0.07602421 -0.46957853 -0.06049767 -0.50270146 -0.075004995 -0.05786798 -0.16313152
-0.55634063 -0.098196864 -0.0568891 -0.071018636 -0.5810614 -0.36832073 -0.16952242 -0.51099485
-0.15862961 -0.51340616 -0.05576774 -0.14356515 -0.16917801 -0.56869096 -0.13894638 -0.08545587
-0.090521775 -0.10105244 -0.5126652 -0.1527937 -0.42223728 -0.4762319 -0.9269518 -0.124383144
-0.1436648 -0.5632528 -0.08718583 -0.49732986 -0.8767039 -0.52314836 -0.15247893 -0.50230014
-0.514744 -0.03877472 -0.025864087 -0.43113133 -0.4046979 -0.54533744 -0.6116918 -0.4705412
-0.42893162 -0.1166712 -0.06075525 -0.14455144 -0.6109842 -0.48545527 -0.06386828 -0.049204357
-0.5199128 -0.42576274 -0.09794375 -0.06268851 -0.045546643 -0.52915 -0.38747883 -0.091913864
-0.55432415 -0.63132626 -0.58460575 -0.3590277 -0.13172628 -0.13086325 -0.6568022 -0.43681476
-0.4891612 -0.58018583 -0.01571441 -0.04743973 -0.5158265 -0.078383826 -0.052201524 -0.53498876
-0.53050864 -0.4995595 -0.12757614 -0.16865072 -0.48700923 -0.51179785 -0.4494455 -0.4406687
-0.48854864 -0.45927772 -0.1566246 -0.1398175 -0.7115386 -0.08662281 -0.05139081 -0.039656498

mlp.2.weight f4 [128, 128]
00000000: 08d5 edbe 5713 ccbe 14ea 34ba fa6c 03bf
00000010: 2cb4 05bf 5d6b e8be 4629 e6be 2e72 00bf
00000020: 31e9 1fbf a50e 4b3c 3234 f4be 8bc8 b33d
00000030: 5030 9dbd 5d62 e0be c354 9c3c 0c6e 71bd
00000040: c772 6dbd 0cf8 133f 7691 abbd d765 babe
00000050: a646 02bf 97c7 053f 3268 59bc 3793 103d
00000060: 5ff9 473d 3b77 08bf 33aa 923c 8ba2 19bf
00000070: a21c 03bf 040a dabc 70ad c63c 4ace ddbe
00000080: 60ac 293d f425 a1bd de55 e5be 90bb 50bd
00000090: cad0 f4be 1f85 873d 2b96 0e3d a713 a73d
000000a0: 64bf 0abf 2b23 9ebc 8032 293d ad82 473d
000000b0: 1dda 1bbf 6361 ddbe 1f3e a73d 5961 0cbf
000000c0: 340d 3bbd c613 0fbf dd65 183c 8861 32bc
000000d0: a189 ff3c 9e6d f9be 65ef 38bd 37a8 63bd
000000e0: 9938 aabd 831c 82bd 8c5c eebe ec94 863d
000000f0: ae56 14bf 48f1 d1be b206 ccbe 222f 88bd
00000100: 75bb 3ebd 5e91 c33c fff7 f0bc 887e f3be
00000110: 0a5f f9be 15b1 f4be 9276 be3c 33b0 fbbe
00000120: 23d1 f6be 6845 07bd 9f91 d2bc 0499 debe
00000130: c258 dbbe e8fa 08bf 04fc b2bd c14a e7be
00000140: a391 eabe e0bb a73c 65d4 2fbd 4cc9 0a3d
00000150: 3edb 1b3f 9364 05bf 92c6 23bc 7196 a5bd
00000160: 5af4 07bf d2d3 09bf 6a18 e43c d029 9bbd
00000170: e0a9 8e3d 983a 0ebf a9f1 e0be ac9b 7fbd
00000180: ac6d e5be bb91 233f bba4 f7be ee3f d7be
00000190: 5abf 2a3c 5220 ab3d a298 193f ab99 e4be
000001a0: f2d4 10bf 2219 ebbe f3ef 01bd 8cef 19bd
000001b0: 3b28 01bf f4db 42bd 138b 933d 14ec 0cbf
000001c0: 0f28 09bf 1e72 ffbe 4706 d63c 0d0a b13d
000001d0: 6c81 f3be 5a04 fabe 3806 c2be 15e0 ecbe
000001e0: 681e c0be 0966 01bf 7973 913d fc3b 6bbd
000001f0: 1d00 08bf 260a bcbc d7f1 b3bc 14f3 33bd
00000200: 614e 04bf 45dc 26bf b270 373d 3d9f 19bf
00000210: e266 0fbf 7c6e 18bf 6241 0abf 1224 07bf
00000220: 9bae 4f3d 8858 a2bd 576a 2abf 9ab6 b23c
00000230: d561 5b3d 4b35 06bf fba8 2e3d a0b6 963d
00000240: 8365 98bd fcf3 b2bd 65a8 02bd 500b 1abf
00000250: 4804 04bf 570c fabe 5a07 433c 22de 6dbd
00000260: 7666 79bd 6a02 22bf 81b3 85ba 512b 17bf
00000270: ce97 00bf d5c1 a63d 929c 00bc 96e7 1cbf
00000280: 8d47 35bc c17c b63c 3d26 26bf 9f6f 9e3d
00000290: a597 20bf 11af 803d 1ecc c9bc dba5 94bc
000002a0: 694a 1dbf c9fd a43c f6db 943d 1140 81bd
000002b0: bde4 1fbf 1d26 16bf 8392 eabb 369d 1dbf
000002c0: 2f7d 45bd be4c 19bf 4bba 693d 2d15 0e3c
000002d0: 17d7 3c3d c29d 2cbf 7ad4 243d 0ff6 ffbc
000002e0: 8f50 a03d 7b48 b9bc 9699 27bf da0a 0fbd
000002f0: bcf1 28bf e880 25bf 84b4 2dbf 054f d2bb
00000300: 0e3d b3bd 744f a8bd e569 6f3c d1df 12bf
00000310: 9fae 1ebf f3f2 ffbe 38a3 1ebd 41a3 18bf
00000320: e38c 11bf 1ba8 4e3d 42e5 fc3c 4517 1fbf
00000330: f28a 20bf 1262 20bf 9139 1bbd 7ea7 24bf
00000340: 920a 03bf 1981 a1bd c7b9 3cba e7b6 e2bc
00000350: 3bc3 ac3c dbba 04bf e9bd 97bd 4f19 273c
00000360: 198c 09bf 1c67 09bf 2a31 a03c dd50 a03d
00000370: 9895 183d de53 0fbf 5155 0abf 9089 31bd
00000380: 82db 1cbf cba0 0abd 7f4e 05bf 6129 0cbf
00000390: 912d adbd b95c 963d 5925 af3d 6893 24bf
000003a0: 4d64 27bf e27d 1bbf 6fe8 293c 6956 37bd
000003b0: 834e 10bf 9a56 c1bc 2a00 893c f91d fdbe
000003c0: 6d72 1cbf 3a63 23bf b9d0 7ebd 9471 59bd
000003d0: ccf3 1fbf ed60 1cbf 56d1 24bf 27bf 0abf
000003e0: 1414 1fbf df4f 0bbf b888 34bd af6c 72bd
000003f0: 051b 08bf 7bb5 31bc b185 233d e7f3 9fbd
-0.46451592 -0.39858505 -0.00069013354 -0.5133816 -0.52228045 -0.45394412 -0.44953364 -0.50174224
-0.62465197 0.012393628 -0.47696072 0.08778485 -0.076752305 -0.43825045 0.019083386 -0.05894284
-0.05797079 0.57800364 -0.08377354 -0.36405823 -0.5088905 0.52257675 -0.013269471 0.035296645
0.048821803 -0.5330693 0.017903423 -0.60013646 -0.51215565 -0.026616104 0.024252623 -0.4332145
0.041424155 -0.07868567 -0.44792074 -0.050960124 -0.47815543 0.06617188 0.03481118 0.08158045
-0.5419829 -0.019303879 0.041307926 0.048708607 -0.6087969 -0.43238363 0.081661455 -0.5483604
-0.04566689 -0.55889547 0.00930163 -0.010887511 0.031193556 -0.48716444 -0.04515018 -0.055580344
-0.083115764 -0.063530944 -0.46554983 0.06571373 -0.5794476 -0.41004395 -0.39848858 -0.06649615
-0.04656549 0.023873027 -0.029415129 -0.47557473 -0.48705322 -0.47791353 0.023249898 -0.49157867
-0.48206434 -0.033025175 -0.025704203 -0.43476117 -0.42841154 -0.5350785 -0.087394744 -0.4517422
-0.45814237 0.020475328 -0.042927165 0.033883378 0.6088141 -0.5210659 -0.009996073 -0.08085335
-0.53107226 -0.5383884 0.027843673 -0.075763345 0.06965995 -0.55558157 -0.43934372 -0.06240432
-0.44810236 0.6389424 -0.48367867 -0.42040962 0.010421598 0.08355774 0.59998524 -0.4464849
-0.5657493 -0.45917612 -0.031722974 -0.037581965 -0.5045201 -0.047573045 0.07204261 -0.55047727
-0.5357675 -0.49891752 0.02612604 0.08644495 -0.4755968 -0.48831445 -0.3789537 -0.4626471
-0.37523198 -0.5054632 0.07102103 -0.057430252 -0.5312517 -0.022954058 -0.021965904 -0.04393299
-0.51682097 -0.65179855 0.04478521 -0.60008603 -0.5601636 -0.59543586 -0.54006016 -0.52789414
0.050703626 -0.07927042 -0.6656851 0.021815587 0.053560097 -0.5242507 0.04264162 0.07359052
-0.07441237 -0.087379426 -0.031898875 -0.6017351 -0.5156903 -0.4883754 0.011903608 -0.05807317
-0.06088873 -0.63284934 -0.0010200591 -0.5905047 -0.50231636 0.08142439 -0.007849829 -0.6129087
-0.011064422 0.022276284 -0.64902097 0.07736134 -0.6273139 0.06283391 -0.024633463 -0.018145492
-0.61441666 0.020140545 0.07268517 -0.06311048 -0.624584 -0.58651906 -0.007158579 -0.6156801
-0.048215088 -0.59882724 0.05706243 0.008672041 0.046103563 -0.6742822 0.040241696 -0.03124526
0.07827865 -0.02261757 -0.6546873 -0.03492246 -0.6599386 -0.6464982 -0.6785357 -0.0064181113
-0.0875188 -0.082182795 0.01461265 -0.57372767 -0.619852 -0.49990043 -0.038729876 -0.59624106
-0.568556 0.050453287 0.030871037 -0.6214488 -0.62712014 -0.62649643 -0.037896696 -0.6431807
-0.51188004 -0.078859515 -0.0007199314 -0.027675105 0.021089187 -0.5184762 -0.07409269 0.010198905
-0.537294 -0.5367296 0.019554693 0.078279234 0.03725204 -0.55987346 -0.5403643 -0.04334408
-0.6127244 -0.03384475 -0.520729 -0.5475064 -0.08455957 0.07341904 0.085520454 -0.64287424
-0.6538742 -0.60738957 0.010370358 -0.04476014 -0.563698 -0.023600865 0.016723711 -0.4943693
-0.611121 -0.6382328 -0.062210772 -0.053086832 -0.6248138 -0.61085397 -0.6438192 -0.54197925
-0.6214001 -0.5441875 -0.044075698 -0.05918568 -0.5316623 -0.010846491 0.03992242 -0.078101926

mlp.2.bias f4 [128]
00000000: 18eb 06bf 77d7 05bf ff62 0cbf ef39 a5bd
00000010: 0d87 f7be 014e 4cbd ca48 f7be 8a72 f9be
00000020: a2c4 03bf edc4 80bd 689b fabe 75fe d0be
00000030: 4574 6cbf 2704 0abf 253c 05bf 6bc6 e8be
00000040: a423 11bf 6e74 dfbc 7aaf 16bf 726b 9ebc
00000050: 520f b6be 8bb1 23bf a435 ebbe eb40 2dbf
00000060: 07ff 92be 2098 0bbf 8924 12bf 0831 c6be
00000070: 3fe3 c2be da6a 29bf 113e 14bf f4bf 24bf
00000080: 2dd0 09bf 1a68 d7be d869 e4be d5e0 11bf
00000090: 967f d5be 6660 26bf 61f7 09bf 8f3d 1dbf
000000a0: aa19 59bd ced8 d6be c1ac 9dbd 1ae3 0abf
000000b0: e1e9 20bf 2aac 00bf 5150 0abf 3630 16bf
000000c0: 702f 10bd 15de 01bf 76d3 02bd d9be 08bf
000000d0: 250a 19bf 9757 14bf 062c cbbe 4301 13bf
000000e0: 956b 19bf 8241 0cbf 7d24 13bf 9c46 98bd
000000f0: 1e51 02bf a16d e7be 695f 29bf 67f6 c0be
00000100: a6f6 c5be 08ea 19bf 5569 60bd e71a 9abe
00000110: 9658 aabe a6e4 57bd f22b 10bf 794d b0be
00000120: 8c21 0bbf bba3 e1bc 914a 00bf ef48 f4be
00000130: 0f01 8cbd ee5a e9be 93e4 96bd 3104 edbe
00000140: c4f6 9ebe fea5 cbbe 8797 27bf eb1a e7be
00000150: 1881 05bf 2fb7 72bd 1bed acbe 54a1 6cbd
00000160: c7a4 17bf f6f0 99be 0344 ebbe d76e 29bf
00000170: 3cc0 e9be 0e5a 00bf f1c7 2cbf ea34 2bbf
00000180: 88c1 6fbd 4dfb 1dbf 687a 2dbf dcdb cdbe
00000190: ff65 20bf 3f73 1ebf c08f 2fbd ce1c 03bf
000001a0: c1e2 1cbf bb2f 0ebf 22db 12bd 3407 b9be
000001b0: 51aa e9be 600d d8be a55f 16bf 777d f1be
000001c0: 303e debe 8146 96bd edc7 26bf b0ab 25bf
000001d0: 61a6 bcbd 6abf f3be 9865 0bbf 4b68 58bf
000001e0: 2083 0cbf fbc1 fabe 0c0d 23bf 7c9e e9be
000001f0: f0fd 8bbc 16b1 20bd 2397 9ebd 61c3 1dbf
-0.52702475 -0.522819 -0.54838556 -0.080676906 -0.48345223 -0.049879078 -0.4829772 -0.487202
-0.5147191 -0.062875606 -0.4894669 -0.40819135 -0.92364913 -0.53912586 -0.520449 -0.4546388
-0.5669501 -0.027277198 -0.58861506 -0.019338343 -0.35558563 -0.63942784 -0.45939362 -0.6767718
-0.28710195 -0.54529 -0.57087 -0.38709283 -0.38064 -0.6617867 -0.57907206 -0.643554
-0.53833276 -0.4207161 -0.44612002 -0.5698369 -0.41698903 -0.6499084 -0.53893095 -0.61422056
-0.05300299 -0.41962284 -0.07698966 -0.5425278 -0.6285687 -0.502627 -0.54028803 -0.58667314
-0.03520149 -0.50729495 -0.031939946 -0.5341621 -0.59781104 -0.5794615 -0.39682025 -0.574238
-0.5992978 -0.54787457 -0.5747755 -0.07435343 -0.50905025 -0.45200828 -0.6616121 -0.3768799
-0.3866474 -0.6012273 -0.054787952 -0.3009865 -0.3327071 -0.05270829 -0.56317055 -0.34434107
-0.54348063 -0.027543893 -0.5011378 -0.47711894 -0.068361394 -0.45577186 -0.07367816 -0.4629226
-0.31047642 -0.3977508 -0.6546559 -0.45137724 -0.52150106 -0.05925673 -0.33774647 -0.057771042
-0.59235805 -0.3006665 -0.45950326 -0.66184753 -0.45654476 -0.5013741 -0.67492586 -0.66877615
-0.058534175 -0.6171158 -0.677649 -0.40206802 -0.62655634 -0.618946 -0.0428617 -0.5121583
-0.612835 -0.5554158 -0.035853513 -0.36138308 -0.45637754 -0.42197704 -0.5873969 -0.47166035
-0.4340682 -0.07337666 -0.6514881 -0.647151 -0.09211422 -0.47606975 -0.54451895 -0.8453414
-0.5488758 -0.4897612 -0.6369178 -0.45628726 -0.01708886 -0.039231382 -0.07743671 -0.6162625

x_fc.0.weight f4 [128, 128]
00000000: f44f 17bf be2e 0e3d df5f 173d 6377 e8bc
00000010: 2480 30bf 5107 50bd 6ace f33c f527 8a3d
00000020: bea1 08ba b872 65bd 1493 1ebf 4edb 23bf
00000030: c51c 2ebf 43e9 9fbc f9cc 08bf 9d11 2bbf
00000040: c227 0fbf 57a5 ae3d 8cf7 0ebf bed4 9cbd
00000050: cf05 12bf 9d43 acbd d99c 0cbf 0c8c 0fbf
00000060: 49d0 29bd 0071 29bf 6858 253d 2b08 1fbf
00000070: c4c6 0abf 918e 1cbf ebed 763d 065f a8bd
00000080: c965 0e3c 825d 18bf f05f 34bf f4e9 a9bd
00000090: 0930 21bf 3991 763d 3bfd 99bd bba8 973d
000000a0: eba5 963d 3671 1abf 7117 3e3c 0893 143d
000000b0: 9f7c a3bd 1afb 0ebf 8199 99bd 3799 ed3c
000000c0: c428 923d aaf9 2ebf 02d3 32bd fa37 a0bd
000000d0: ba7a 393d 22dd e23c 7748 0ebf 02d5 883d
000000e0: c45b afbd ce45 c63c f618 febb 6c8c b2bd
000000f0: 2abd 2bbf 6524 19bf b940 24bd 1ba0 14bf
00000100: f364 31bf ba33 703d d5d0 7a3a bda0 b03b
00000110: acfa 0bbf c549 af3c 106f 67ba 2348 94bd
00000120: 5bd3 773d 1f52 68bd 5a78 dd3c b064 2cbf
00000130: e87b 843d 01ce 34bf fa23 52bb 6660 0bbf
00000140: c84d 0fbf fa25 23bf 7891 acbb d27d 0fbf
00000150: bf80 5b3d 8c97 863c 86ce 363d 60ac 73bd
00000160: 2611 953d 4223 84bc 4b28 20bf a81d 52bd
00000170: bea6 a03b d6a0 7abc 4c7d 11bf 11a8 10bd
00000180: d060 afbd 3681 b33d e50e 353c 5ee9 2cbf
00000190: 8b82 36bd e51f afbb a129 59bd e23d 11bd
000001a0: 3f64 15bd d195 293d 1bf6 9a3a 838b 2fbf
000001b0: 79eb 13bf f3ac 1dbf 442c a1bd 1fc6 0abf
000001c0: 47f6 24bf ff0d 57bd fa5b fbbc d6ae 9cbd
000001d0: a921 9fbd 030e 11bf 882e 35bf c247 2abf
000001e0: 2825 613d bd66 1cbf fbd4 82bd 6abe 13bf
000001f0: 921e a0bd 54ab 44bd 119d 333d 2696 48bd
00000200: d1f1 17bf 3f33 18bf 35f9 2b3f f64b 58bd
00000210: 0570 f2be c79c b33d 3b91 943e 9919 2cbf
00000220: 9e18 14bf 4036 dfbc bdd2 f7be ddb0 f3be
00000230: adc0 24bf fa89 06bf fcd6 1cbf ea53 03bf
00000240: ab6a 01bf f553 f6bb 660e 20bf 5264 72bd
00000250: 51df 7abf b2c5 2e3f d532 eabe cf3d 2cbf
00000260: 5567 91bd 0c26 0fbf 623e 0e3f bba5 1cbf
00000270: abac 11bf b461 143f 8140 103f 4b1c 553b
00000280: be96 18bf f250 1bbf 6ecc f4be 754c 2d3f
00000290: b086 18bf 9f25 233f 41d2 203f 780c 283f
000002a0: 1b55 b43d 8e44 e6be 7864 9ebd e25b 263f
000002b0: a5bf 303f 0ec1 19bf 0485 11bf 5989 1a3f
000002c0: 89b5 96bc 8281 15bf 640b 5fbd 5d1a eb3b
000002d0: 2e42 253f 20c7 1dbf c06c 0dbf 85d0 233f
000002e0: 77a3 13bf 7fd2 393d 974e 143f d6bd 873c
000002f0: bddf 15bf e2aa 0ebf f737 28bf a805 1fbf
00000300: 5e08 0fbf 754d 0dbf 41d6 35b9 30ac 9abc
00000310: c572 08bf 90bd b33d c356 1a3f b6b0 2a3d
00000320: 55bb 1f3f 6648 92bc af7d 01bf 74ae 19bf
00000330: 080b 193d bbe7 09bf f2a8 d4bb 3b5a e9be
00000340: fe72 e6be 0bf3 fdbe 7553 0dbf 29c1 17bf
00000350: 53c9 19bf 413b 3b3d ced7 493d 91f8 59bd
00000360: 6b72 153f 928a c6bb 495f 07bf e930 1dbf
00000370: 1288 17bf a305 61be a257 153f 02ee 06bf
00000380: fe4e cb3c 7c23 263f d7be 2b3f 9d61 17bf
00000390: e3a7 1b3f 660a 1cbf 5cee afbd bd33 01bf
000003a0: 7e26 323f 0ede 08bf 0291 8ebd 65a9 27bf
000003b0: 21b5 fabe 9498 18bf d9e3 153f 4df8 1bbf
000003c0: 222e fdbe a5f6 2b3d f21d 263f d7b0 10bf
000003d0: 15ad 53bc 5a2e 1cbf 5cf0 19bf 1373 15bf
000003e0: ca2f e5be 886a 18bf 770f 1a3f 6030 f5be
000003f0: 9804 87bc 413a abbb 4739 a73d 722d 243f
-0.59106374 0.034712546 0.036956664 -0.02837724 -0.6894553 -0.050788227 0.029761512 0.067459024
-0.000521209 -0.056017607 -0.61943173 -0.6400651 -0.6801265 -0.019520408 -0.53437763 -0.6682375
-0.5592004 0.0852763 -0.55846477 -0.07657765 -0.57040113 -0.08411334 -0.5492683 -0.5607307
-0.0414584 -0.6618805 0.040367514 -0.6212184 -0.5420954 -0.6115504 0.06028549 -0.08221249
0.00869126 -0.5951768 -0.7045889 -0.08296576 -0.6296392 0.06019709 -0.07519003 0.0740523
0.07355865 -0.60328996 0.011602269 0.036273032 -0.07982754 -0.558519 -0.07499982 0.029003723
0.07136682 -0.6834971 -0.043658264 -0.07823177 0.045283057 0.027693335 -0.5557932 0.06681253
-0.08562425 0.024203207 -0.0077544404 -0.087181896 -0.67085516 -0.5982116 -0.040100787 -0.580568
-0.6929466 0.05864308 0.00095678616 0.0053902552 -0.5467937 0.02139748 -0.00088285 -0.072403215
0.0605043 -0.05671894 0.027034927 -0.67341137 0.06468946 -0.70626837 -0.00320649 -0.5444397
-0.5597806 -0.6372982 -0.0052663647 -0.5605136 0.05358958 0.016429685 0.04463055 -0.05949056
0.072786614 -0.016130093 -0.6256148 -0.051297814 0.0049026897 -0.015297135 -0.5683181 -0.03531653
-0.085633874 0.087648794 0.011050914 -0.6754359 -0.04455809 -0.0053443783 -0.053018216 -0.035459407
-0.036472555 0.04140264 0.0011822613 -0.68572253 -0.5778118 -0.61592025 -0.07869771 -0.5420856
-0.6443829 -0.052503582 -0.030683506 -0.07650535 -0.07770092 -0.56662005 -0.70774126 -0.66515744
0.054967076 -0.61094266 -0.06388279 -0.57712424 -0.07818331 -0.048014954 0.043850962 -0.048971318
-0.5935336 -0.59453195 0.67177135 -0.052806817 -0.4735109 0.08770137 0.29017052 -0.6722656
-0.5785006 -0.027247548 -0.48402968 -0.47595873 -0.643565 -0.52554286 -0.6126554 -0.5129992
-0.5055339 -0.0075173327 -0.6252197 -0.059177704 -0.97997004 0.6827041 -0.45741907 -0.6728181
-0.07099787 -0.5591743 0.5556394 -0.61190385 -0.56904095 0.57961583 0.56348425 0.0032518085
-0.59605014 -0.6067039 -0.47812217 0.6769479 -0.59580517 0.6372928 0.6282082 0.65644026
0.08805295 -0.44974178 -0.07734007 0.6498395 0.69042426 -0.60060203 -0.5684359 0.60365826
-0.01839711 -0.5840074 -0.054454222 0.0071747736 0.6455411 -0.61631966 -0.55244064 0.6399005
-0.576713 0.04536676 0.5793242 0.016570013 -0.5854452 -0.55729496 -0.65710396 -0.62118006
-0.5587214 -0.55196315 -0.00017341321 -0.018880934 -0.53300124 0.087763906 0.6028864 0.04167243
0.6239522 -0.017856788 -0.505824 -0.6003182 0.037364036 -0.5386922 -0.0064898664 -0.45576653
-0.45009607 -0.4959949 -0.5520547 -0.59279114 -0.6007282 0.045710806 0.049278073 -0.053215567
0.5837771 -0.0060589993 -0.5287977 -0.61402756 -0.59192 -0.21974806 0.5833684 -0.5270692
0.02481794 0.64897895 0.67088073 -0.5913332 0.6080305 -0.60953367 -0.08590385 -0.5046957
0.69589984 -0.5346383 -0.06961252 -0.6549285 -0.48966315 -0.59607816 0.5855079 -0.6092575
-0.4944926 0.041983265 0.6488944 -0.56519836 -0.012919684 -0.61008227 -0.60132384 -0.58378714
-0.44763023 -0.59537554 0.6017985 -0.4788847 -0.016481683 -0.0052254503 0.08165222 0.64131844

x_fc.0.bias f4 [128]
00000000: 9e08 2fbf 06bf 9bbe 8e77 28bf b0ce 4ebe
00000010: 2fa9 0ebf 97db 2dbf ce73 31bf 0d06 ddbe
00000020: 8c34 1abf f3fb 09bd 860c 31bd 23de 13bf
00000030: c434 44bd aa15 35bf 8e25 16bf a850 90be
00000040: b4ab 13bf e177 2fbf f2b1 c1be 8389 18be
00000050: b0d8 7abd dda3 13bf 5079 20bf 4f54 54be
00000060: 7f2e 19bf 0a2a 0fbf 0942 c7be 9996 a0be
00000070: a93c 23bf 8aba 2ebf ddf3 a1be fab4 23bf
00000080: 1d8b 10bf ef16 10bf dd2b 4cbe ee57 0abf
00000090: 64ac 91bd 7bc7 1cbd 3664 13bd 94af 67be
000000a0: e808 14bf 5de1 14bf e1ff 7abd 076e 1bbf
000000b0: 8400 fbbe ae67 33bf 2120 85bd aacb 8bbd
000000c0: 2fca 26bf 7aed cfbe 9d1f 47bd 83d4 02bf
000000d0: 5bf6 0fbf 6edb 92bd 226c 0bbf 40f5 12bf
000000e0: 73bd 88bd 2368 b1be 3418 a0be 9cef efbd
000000f0: 5d4d 5fbd 6324 75bd ebbd 75bc 9256 2ebf
00000100: e948 24bf 2da6 0bbf 52f4 0cbf ecd6 16bf
00000110: fc9d 64be c0cd 45bd 5178 1cbe 4eb5 33bf
00000120: 741b 00bf ca93 b0be 5a73 a5bd a98c 16bf
00000130: 718b 13bf a091 11bf b4e8 37bd a45e 5cbe
00000140: b192 c0be fe9a 0dbf edfa 33bf 0fcb a4be
00000150: e1e0 05bf 10b1 0bbf 3e14 09bf aef1 20bf
00000160: 107c 46bd a176 12bf f790 a5bd 3f07 48bd
00000170: 5db9 1cbf 7e6e 05bf efec afbe 5361 7abe
00000180: 2b77 19bf f8b1 92be 948e a6be 936c 18bf
00000190: e522 b3bd 6d3a 6fbd e9b1 1fbf 6519 68bd
000001a0: 4382 19bf 3d6f 25bf 2b67 0dbf d28f d7be
000001b0: dc1a 1ebf 6723 0dbf a796 1bbf 8d22 1cbf
000001c0: d5ef 4abe 20c6 c5bd b61c 96bd 9a7e 0cbf
000001d0: a87e 37be 53ad 5ebe 8b5f b4be 2e33 18bf
000001e0: 963b 16bf 29e0 56be e1b0 e4be e41f b2bd
000001f0: 17ca fdbc 8a4d c73e 24c5 70bd edcf 9fbd
-0.68372524 -0.30419177 -0.65807426 -0.20196033 -0.55726904 -0.6791319 -0.6931733 -0.4316868
-0.6023643 -0.033687543 -0.043224834 -0.5776083 -0.047901884 -0.7073618 -0.58651054 -0.28186536
-0.57683873 -0.68542296 -0.37831074 -0.14896207 -0.061241806 -0.5767191 -0.6268511 -0.20735286
-0.5983657 -0.5592352 -0.38917568 -0.31364897 -0.63764435 -0.68253386 -0.31631365 -0.63948023
-0.5646227 -0.56284994 -0.19938608 -0.5404042 -0.07112959 -0.038276177 -0.03598424 -0.22625571
-0.5782609 -0.5815638 -0.06127918 -0.60714763 -0.4902383 -0.7008008 -0.06500269 -0.06825955
-0.6515226 -0.40610868 -0.048614133 -0.5110552 -0.56235284 -0.07170759 -0.5446187 -0.5740547
-0.066767596 -0.34649763 -0.31268466 -0.11715624 -0.05451714 -0.059849154 -0.014998893 -0.68100846
-0.6417375 -0.5455044 -0.55060303 -0.58921695 -0.22325891 -0.04829192 -0.15280272 -0.70198524
-0.5004189 -0.34487754 -0.08078642 -0.5880838 -0.57634646 -0.5686283 -0.044899657 -0.21520478
-0.37611917 -0.55314624 -0.7030476 -0.3218617 -0.5229626 -0.5456705 -0.5354651 -0.62868774
-0.04845816 -0.57212263 -0.080842905 -0.048835035 -0.6122034 -0.5212172 -0.34360453 -0.24451189
-0.5994746 -0.28651404 -0.32530653 -0.5954067 -0.0874689 -0.05840533 -0.62380844 -0.056664843
-0.5996439 -0.6462286 -0.55235547 -0.42101914 -0.61759734 -0.55132145 -0.6077675 -0.6099022
-0.19818051 -0.0965693 -0.07329695 -0.5488068 -0.1791941 -0.21745805 -0.35229144 -0.59453094
-0.5868467 -0.20983948 -0.44666198 -0.08697489 -0.030980153 0.38926345 -0.058781758 -0.078033306

x_fc.2.weight f4 [64, 128]
00000000: 140b 183f ef23 18bf b0f9 25bf ddf7 2cbf
00000010: 5074 dc3a 3b36 233f c493 283f 2968 493d
00000020: 9a16 29bb abf0 2fbd 6062 11bf 6a9c a0bd
00000030: 42bb 02bf 5927 173f b077 d5ba 3840 51bf
00000040: b49d 163d 4fce 0a3f a9e0 dfbe 90d6 eebe
00000050: ceb3 3dbd daa2 983c ae9c 6ebd e2ca 0dbc
00000060: f13d 2c3d 3569 413c 4dec 2bbf 75b8 abbd
00000070: cebb 4cbd b5a3 1b3f d8d6 aebc 9a54 323f
00000080: 1ab3 1fbc 409f 1cbd 0d21 e5be 7da8 2dbd
00000090: 7271 22bd db41 eabe 92e1 6f3b 4c0b 5dbf
000000a0: 1fde 96bd 739a 263d 33bf 0ebf 871a 053f
000000b0: 9f6c 193d 81e5 10bf 1cdf e7be 0e86 0dbf
000000c0: 06a0 1e3f 132a 52bf 81ec f0bc cc59 10bf
000000d0: 6369 a7bb 0f6e fcbe cc3f 543d 85ec 32bc
000000e0: 2e40 14bf 3ab3 fbbd b2d6 03bf f63d 10bf
000000f0: d8bf 1bbf fc5f 95bd e65f 3a3c c05f 183f
00000100: 32db 2f3f ae51 ffbe 3c3f b3bd e8ee 05bf
00000110: 7057 883d 5303 053d a7bc 42bf 1e34 0c3f
00000120: 7188 3b3c c4ae 05bf 1773 d5bb 8369 fdbc
00000130: c25f a0bd 1ef3 883d 76e3 873d 31d2 16bf
00000140: d24f 70bf 5a64 13bf 236f 0bbd 2ee0 343d
00000150: edd6 063f 2bcb a83d ca28 57bd 0619 2bbf
00000160: 48fc 2dbd 617f aabd 51bf 783d 3319 013c
00000170: 4377 32bd d8ba 13bd aa45 5cbf 7bfa f8be
00000180: 9c73 9c3c d40b dbbe 1dce 57bf fbe3 06bd
00000190: 8809 f7bc 1857 e8be 5199 91bd 2085 e7be
000001a0: 37a8 763d 9fb9 2dbf a18b 463d 3b16 41bd
000001b0: 384f db3b 6ff2 fe3e fefd 403d 7f90 6f3d
000001c0: 7132 aabf da1a 7ebf 998b f5be 8cfa b03d
000001d0: ea94 22bf 2541 febe 5057 fdbe e982 97bd
000001e0: d778 d43c 6554 1fbf aa46 20bf a728 873d
000001f0: e3cc 14bf 8478 89bf a0ba 9db9 5034 ddbe
00000200: df65 7ebd 99f5 19bf ca53 a5bc 1c3f 34bf
00000210: 47fe 8d3d 92a9 82bd cbfc 3f3d 924c 8c3d
00000220: ec7e a7bd 98da d5bb d58e 29bf 6be8 2abf
00000230: 94e7 0dbf 9dd9 543d 2d44 5eba 20f0 2bbf
00000240: 4521 fe3c 2d8c a8bd 217f 33bf 29a6 1bbf
00000250: 2123 b1bd dbee b33c 7731 b43d 154d 853c
00000260: f4de 2fbf fa16 793d a050 1bbf fac0 a73d
00000270: 5ac9 c1bc 7ab7 b4bd c593 8b3d 9858 0c3d
00000280: de87 d43c 231b 29bf b7ca 1bbf 8c04 8f3d
00000290: 13ef 0e3d fa0d 1cbf 74ef a2bd 6110 2cbf
000002a0: 0690 10bd 0b00 0fbd 52fd 21bf ea0e b13c
000002b0: 6762 0abd bad8 1cbd bce8 29bf f62d 31bf
000002c0: 9c2d 56bd 2231 2bbf 69e7 8cbd c2fa 18bf
000002d0: 6e52 403b b2f7 11bf 2fa5 e63a 6af1 24bf
000002e0: fa86 0ebf 9007 0fbf 48f4 22bd a8bb 13bf
000002f0: 8488 15bf b259 5abd b0fa 3ebc bb6a 953d
00000300: 2388 75b9 ba5d 0fbf 5bc4 18bf 81f5 b23d
00000310: 0e31 353d 45b4 d6bc 2d0b 0cbf 09df 44bb
00000320: b5d4 17bd 3d1d 14bf 560a 603d edfb 26bf
00000330: 6136 af3d 0b81 1bbf a1c6 183d 7979 17bf
00000340: b392 13bf 4158 983d 1900 703d 6fe5 df3c
00000350: dff5 af3d 5bdc 993d 7fe2 81bd 507c 94bc
00000360: 70ba afbd 9691 9e37 3155 fb3c e136 98bd
00000370: 9687 a0bd 96e7 81bc c6e6 10bf 004c 13bf
00000380: b3f7 633d 7c29 25bf 532e 17bf 76af 15bf
00000390: 1a94 233b 2518 20bf 6df0 6abd 58eb 11bf
000003a0: 9cf7 5fbd 4686 48bd 906f 923d ec86 893d
000003b0: 8ca1 82bd bd1a 653d 1811 22bc 9e74 fa3c
000003c0: e249 25bf b506 35bf 1bc6 0cbf ef1f 17bb
000003d0: e2eb 15bf 7a32 383b 3bc4 eebc 592f 35bf
000003e0: 856b dcbc 085b 32bf 71cf 793d 4b9c 39bd
000003f0: c3ce 11bf 2d64 98bd 5f1a 073d 44c7 18bf
0.59391904 -0.5942983 -0.6483412 -0.6756571 0.0016819332 0.63754624 0.6585047 0.0491716
-0.0025800825 -0.04295413 -0.56790733 -0.078423336 -0.5106698 0.59044415 -0.001628628 -0.81738615
0.03677149 0.5422105 -0.4372609 -0.46648073 -0.046314053 0.018632341 -0.05825489 -0.008654328
0.04205126 0.0118048685 -0.6715744 -0.08384792 -0.049983792 0.6079667 -0.02134268 0.6966034
-0.009747291 -0.03823781 -0.44751778 -0.04239701 -0.03965897 -0.4575337 0.0036602956 -0.8634536
-0.07366585 0.040674638 -0.55760497 0.519936 0.037457105 -0.56600195 -0.45287406 -0.55282676
0.61962926 -0.8209545 -0.029409649 -0.5638702 -0.0051089986 -0.49302718 0.051818654 -0.010920648
-0.5791043 -0.12290044 -0.51499474 -0.56344545 -0.60839605 -0.07293698 0.011375403 0.595211
0.6869384 -0.49867004 -0.087522954 -0.52317667 0.066573024 0.032473873 -0.7606911 0.54767025
0.011446104 -0.52219796 -0.006513964 -0.030934101 -0.07830764 0.06686996 0.066351816 -0.58914477
-0.93871796 -0.57575 -0.034041535 0.044159107 0.526717 0.08241876 -0.052529134 -0.6683506
-0.042476922 -0.08325077 0.06072933 0.007879543 -0.043570768 -0.03606686 -0.860438 -0.486286
0.019098096 -0.42782462 -0.8429888 -0.032932263 -0.030155912 -0.45378947 -0.07109321 -0.45218754
0.060219016 -0.6786136 0.048473004 -0.04714034 0.006692793 0.49794337 0.047117226 0.05848741
-1.3296643 -0.9925972 -0.47958067 0.08641538 -0.63508475 -0.49659076 -0.49480677 -0.07398016
0.025936527 -0.6223815 -0.62607825 0.06599551 -0.5812513 -1.0739903 -0.0003008442 -0.43203974
-0.06210887 -0.6014038 -0.020181555 -0.704088 0.06933265 -0.06379999 0.04687194 0.06850542
-0.08178505 -0.0065263025 -0.6623357 -0.6676089 -0.55431485 0.051965345 -0.0008478787 -0.67163277
0.031021724 -0.082298614 -0.7011586 -0.60800415 -0.086492784 0.021964481 0.08798497 0.016272107
-0.68699574 0.060812928 -0.606699 0.08191104 -0.023655582 -0.08824058 0.06815294 0.034264177
0.025943693 -0.6605703 -0.60856193 0.06983289 0.034895968 -0.60958827 -0.07955828 -0.6721249
-0.0352936 -0.03491215 -0.6327716 0.021613557 -0.03378525 -0.038292624 -0.6637075 -0.69210756
-0.05228959 -0.66871846 -0.068800755 -0.59757626 0.0029346007 -0.5701858 0.0017596836 -0.6443087
-0.5567471 -0.55870914 -0.039783746 -0.57708216 -0.5841143 -0.053308196 -0.011656448 0.07295748
-0.00023415736 -0.5600239 -0.59674615 0.087382324 0.044236235 -0.026209006 -0.5470455 -0.0030040166
-0.037068088 -0.57857114 0.054697357 -0.6522816 0.08555294 -0.6074378 0.037298802 -0.5916973
-0.5764572 0.07438708 0.058593843 0.027331082 0.08591818 0.075127326 -0.06342029 -0.018125683
-0.08580482 1.8902861e-05 0.03068027 -0.07432342 -0.07838361 -0.0158575 -0.5660213 -0.5753784
0.055656146 -0.64516425 -0.5905506 -0.5847086 0.0024960102 -0.6253684 -0.057358194 -0.5699973
-0.054679498 -0.048956178 0.07150185 0.067151874 -0.06378469 0.055933703 -0.009891771 0.030573186
-0.6456586 -0.7071336 -0.54989785 -0.0023059805 -0.58563054 0.0028106258 -0.029146304 -0.7077537
-0.026906738 -0.6967015 0.060988847 -0.04531507 -0.5695612 -0.07440982 0.032984134 -0.59679055

x_fc.2.bias f4 [64]
00000000: 3ca1 a3be 9f8d 23bf 6f3e 0fbf 553e 6bbd
00000010: 7a42 20bf fdcf 1bbf 3c37 16bf 78a1 8bbe
00000020: c439 30bf 3fec ecbe 3827 a4bd 61ee 423f
00000030: 76f9 33bf 4de7 f1be ece3 0cbf 09f5 2fbf
00000040: fe65 e0be 1366 16bf a02d 0abf 28b7 29bf
00000050: 1008 34bf 612a 7a3e 9e9c 1dbf 55c1 aabe
00000060: 0755 1dbf c8c7 3f3f 26d3 2ebf 775d 1ebf
00000070: 10ec 74bd 08d2 98be 9f69 2abf 9423 23bf
00000080: f841 11bf c1d9 3ebd f919 9fbd d8f6 39be
00000090: 3b45 0bbf 398c 31bf b19c 62be 6a83 72be
000000a0: 440b 9fbe 0327 20bf 9a57 713f b389 0fbf
000000b0: 498e 30bf dcff 9abd bb0a 20bf 05a3 16bf
000000c0: 576c d2bd 62a9 febd 8671 cebe 532f 9ebd
000000d0: 6ba7 bd3e 932c 95be e7aa 17bf 43b8 edbe
000000e0: 448d 2abf bcf9 51bd c517 8ebe 9970 92be
000000f0: 4d8b a1be 3f69 23bf 6604 5d3f bd3c 1bbf
-0.3195895 -0.6388797 -0.5595464 -0.05743249 -0.62601435 -0.6086424 -0.5867803 -0.27271628
-0.68838143 -0.4627399 -0.08015293 0.7614499 -0.7030252 -0.4724678 -0.5503528 -0.6873327
-0.43827814 -0.587495 -0.5397587 -0.662951 -0.703248 0.24430229 -0.61567104 -0.33350626
-0.61457866 0.74914217 -0.68290937 -0.61861366 -0.05979544 -0.2984774 -0.66567415 -0.6372616
-0.56741285 -0.046594385 -0.07768626 -0.1816057 -0.5440251 -0.6935459 -0.22130086 -0.23682943
-0.31063282 -0.6255953 0.94274294 -0.5606949 -0.6896711 -0.075683326 -0.62516373 -0.588425
-0.102745704 -0.12434651 -0.40320987 -0.0772387 0.37041792 -0.2913557 -0.5924515 -0.46429643
-0.66621804 -0.051263556 -0.2775251 -0.2860153 -0.3155159 -0.6383247 0.86334836 -0.60639554

x_fc.4.weight f4 [132, 64]
00000000: 56e3 aebe 8074 143f f7da 333f c421 ea3e
00000010: b287 263f 9366 27bf dfea cb3e b721 9cbe
00000020: 36f8 0d3f 9ce5 1cbf 0083 193d f021 ea3f
00000030: 2f7b 2c3f b2dc 10bf 35d7 303f 968f 003f
00000040: e005 1bbb eda2 043f b057 0c3f 6d8c 1e3f
00000050: 3822 263f 7e6d c23e ee00 243f 4ccf 73be
00000060: dafe 003f 6ecc 7f3f 7678 3b3f 1129 223f
00000070: 9476 cbbd 7108 35be 861b 0ebf 40f1 083f
00000080: cf89 2d3f 5655 e13d 789a f73e f2fb 62be
00000090: b267 223f 995d 123f 675c bcbe b3b7 76be
000000a0: 8d8c b93e 8584 363f 7d80 fd3f 903c e0be
000000b0: df95 003f 0ec3 f33d 9ee5 193f 3a43 3c3f
000000c0: ebbc 253f 50ad b03d 5055 903f a8f0 d6bd
000000d0: f1fc 4bbe 941b 3bbf c05e 6d3f 199a 32be
000000e0: 0205 0f3f 9648 3c3f 02d0 133f 54fd 7ebe
000000f0: ac60 96bd 6af4 173f e84e 763f f6cf 003f
00000100: a96c 803f cf2f 083f 8f64 123f 1832 203f
00000110: c3a9 063f c64c edbe 81ec 23bf 66b3 25bf
00000120: 85e3 1f3f 29b9 0f3f 0c04 0f3d 2e5b 243f
00000130: 5b62 6d3e d607 1bbf 057d 25bf 279b 293f
00000140: 1897 253e 22ed 313f ab82 263f 95f5 1abf
00000150: 09b0 003f b236 c3bd c067 053f 3b25 823e
00000160: b621 0a3f c5e7 b9be 74c3 053f 5f05 313f
00000170: 2441 d8bd d05d 50be dad1 0abf c2ce 353f
00000180: 5f66 113f 70ba 8ebd f8bd b83e 80e3 b03d
00000190: 0fe6 813e e8ae 043f a62c c83e f4e8 d13d
000001a0: be07 53be ec4f 153f 54b6 8b3f de02 003f
000001b0: f310 383f 00a7 de3a 2eea 12bf 6b4b 123f
000001c0: de58 aa3e d0a5 dabb d51c db3d 223e a13d
000001d0: 840d 0d3b b78b 6b3f d2c2 ce3e dabe 8a3e
000001e0: f591 2d3f 7bf0 a03e 8db2 cc3e b10e bfbc
000001f0: 727d 813f 693e 1e3f 02a3 513f 3721 293f
00000200: 49f4 553f f943 1a3f cb4d 2a3f 4927 b63e
00000210: 2f07 1b3f 3599 21bf 328f 1bbf 6c24 dbbe
00000220: 3abb 203f c21e e73e 0a36 95bd a00f b33f
00000230: 1917 e83e 8271 12bf b0b5 0dbf bbbf 173f
00000240: ecbb b3be 448b 103f 2902 203f c859 12bf
00000250: 03d5 143f 8e25 e63c 3545 063f 6868 c6be
00000260: ddc6 143f 744f b8be ac92 383f 86e3 0b3f
00000270: 38e5 603d 58de 35be 29d3 0fbf ff29 123f
00000280: b99c 3d3f 6cc4 113d fc41 e1bb 6390 36be
00000290: b099 6d3e 0f33 263f fbb5 a43d 7b1e 413e
000002a0: 9b74 44be 6a70 033f 481f bf3f 1389 173f
000002b0: 216b 143f e676 c5bd f2c5 02bf fd81 3b3f
000002c0: 4e18 913e 896d 29be 219c a23e 2c23 4b3d
000002d0: 7b4c debd b42c 733f cc44 0bbd 9936 bc3e
000002e0: 688e 123f 9e81 d73e d85b 8c3f 7a21 33bf
000002f0: 37f1 6e3f e54e 1c3f 19d7 303f e743 0a3f
00000300: f2d3 743e 9d3f 033f 4e8e 223f 3882 453f
00000310: 3405 033f 3992 2a3f 49f1 203f 3302 e63d
00000320: 28ad 223f 5ec7 323e 0e06 c13d 023f ea3f
00000330: e0e5 963e ed09 203f a23f 2c3f 19b8 0b3f
00000340: 24d3 55bf 1c4e 323f 7530 053f 838e 0bbf
00000350: e27d 0c3f 77ed 523d 8249 2c3f dc3e a3be
00000360: 42cf 0e3f 7177 13be e327 2f3f e571 023f
00000370: aa70 b1bd 6dba 7ebe 4ed8 1f3f b748 293f
00000380: f4aa 2e3f 1095 64bd 6aff bf3e 8447 47be
00000390: b59c 1f3f 52c1 023f 7c96 50bd 36ca 633e
000003a0: 17b6 7cbe 3425 273f 6be3 0c40 e26d 1c3f
000003b0: 1fe4 003f 684d 3abd 6482 88be b5ee 213f
000003c0: aaa8 423f e0ec cabd 9da0 d23f e03c 30bd
000003d0: 4253 3a3e 1a01 373e 5bd8 493f 9bd1 2c3f
000003e0: 6257 393f 9f8b 163f e1ce e93e f242 41bf
000003f0: 3247 e73d 4f48 373f 0cb0 8e3f 8c77 363f
-0.3415782 0.57990265 0.7025599 0.45728886 0.65050805 -0.6539089 0.3982763 -0.30494472
0.55456865 -0.61287856 0.037478447 1.8291607 0.67375463 -0.56586754 0.6907838 0.50219095
-0.0023654625 0.51811105 0.548213 0.6193302 0.64895964 0.3797416 0.6406392 -0.23809546
0.5038887 0.9992131 0.73230684 0.6334391 -0.09934726 -0.17679001 -0.5551075 0.5349312
0.67788404 0.11002605 0.48360038 -0.22166422 0.63439476 0.5717407 -0.36789247 -0.24093513
0.36240044 0.7129596 1.9804837 -0.43796206 0.50228685 0.11902438 0.60115993 0.7354008
0.6474139 0.08626807 1.1276035 -0.1049512 -0.19920708 -0.73088956 0.927227 -0.17441596
0.55867016 0.7354826 0.5773927 -0.24901325 -0.073426574 0.5935732 0.9621415 0.50317323
1.003316 0.5319795 0.5718469 0.62576437 0.52602786 -0.46347636 -0.6403275 -0.64726865
0.6245654 0.56141907 0.03491597 0.6420163 0.23182051 -0.6055883 -0.6464389 0.6625237
0.16170919 0.6950246 0.65043133 -0.6053098 0.5026861 -0.09531917 0.52111435 0.2541903
0.5395769 -0.3630964 0.5225136 0.6914882 -0.105592996 -0.20348287 -0.5422646 0.7101861
0.5679683 -0.06969154 0.36082435 0.08637142 0.25370833 0.51829386 0.39096564 0.102495104
-0.20608422 0.58325076 1.0915017 0.50004375 0.7190086 0.0016987026 -0.5738858 0.5714633
0.33270925 -0.0066725984 0.10698859 0.07873179 0.0021522949 0.9201006 0.4038301 0.27098733
0.6780084 0.31433472 0.39979973 -0.023322435 1.0116408 0.6181398 0.81889355 0.66066307
0.83575875 0.6025997 0.6652495 0.35576847 0.60557836 -0.631244 -0.60765374 -0.42801225
0.62785685 0.45140654 -0.07285698 1.3989143 0.45330122 -0.5720445 -0.5535536 0.5927693
-0.3510431 0.564625 0.62503296 -0.57168245 0.5813753 0.02809408 0.5244935 -0.3875153
0.5811594 -0.35998118 0.72098804 0.5464405 0.0549061 -0.17760599 -0.5618158 0.5709533
0.74067265 0.035587713 -0.006874321 -0.17828517 0.23203158 0.6492166 0.080425225 0.18859284
-0.19185106 0.51343405 1.4931421 0.59193534 0.57975966 -0.09641819 -0.5108329 0.7324522
0.28338856 -0.1654569 0.31759742 0.04959409 -0.10854431 0.94990087 -0.034001157 0.36760405
0.57248545 0.42091078 1.0965528 -0.69972956 0.93336815 0.61057884 0.6907821 0.5400986
0.23908976 0.5126894 0.6349839 0.77151823 0.51179814 0.6662937 0.6286817 0.11230888
0.63545465 0.17458865 0.09424983 1.8300478 0.29472256 0.62515146 0.67284596 0.54577786
-0.835253 0.69650435 0.52027065 -0.5451433 0.5487958 0.051495995 0.67299664 -0.31883895
0.55785 -0.14401032 0.6842024 0.5095504 -0.08664067 -0.24875803 0.6243943 0.6612658
0.68229604 -0.05580622 0.37499553 -0.19460875 0.6234849 0.51076233 -0.050924763 0.22245106
-0.24678837 0.6529114 2.2013805 0.6110517 0.50348085 -0.045483977 -0.2666198 0.63254863
0.7603861 -0.099084616 1.6455265 -0.043026805 0.18195823 0.17871514 0.7884576 0.6750733
0.7239896 0.58806795 0.4566565 -0.75492775 0.11292876 0.7159471 1.1147475 0.71276164

x_fc.4.bias f4 [132]
00000000: 47b9 2440 eaa5 0540 d77c 2140 3e76 2f40
00000010: 382e f43f 96c7 1d40 f402 3940 902f e83f
00000020: ae03 2440 873c 4140 06b8 be3f 1658 2d40
00000030: 6b76 3740 41e6 b53f f8b1 2340 f4dd 2e40
00000040: a577 ff3f 2697 2640 8c2d 2640 7a72 f93f
00000050: 1d82 2640 6bcb 1940 0c08 df3f 3c87 1d40
00000060: 5b18 1e40 052a ee3f 9cbd 1740 82b0 1c40
00000070: 9352 e03f 6f86 1440 3e54 0c40 3a3e c03f
00000080: 0a1c 0c40 8b5a 0740 390c c93f e482 1240
00000090: 3b54 e93f 1285 b53f e75c 0440 bca3 e73f
000000a0: 8590 b53f 2556 f93f dd1a af3f 2c5b a83f
000000b0: fb7e bd3f f7a5 873f b1fd 783f a190 a93f
000000c0: 05ab 553f 8bd9 233f 1a5e 6c3f 9002 6f3f
000000d0: 9c71 ae3e 5f4e 3d3f 5b0c 993e 193c 933e
000000e0: 5957 213f ae5c 1e3f 370d 343e b8df 093f
000000f0: 4727 d33e 36e9 933e ac65 fd3d 7efe 743e
00000100: 5525 1c3e e777 a33d 5849 56bc 49be fa3c
00000110: 9467 71bc eb0f b63c 589f acbd b63f acbe
00000120: fc9c 79bb 06d8 23be 900e b2be 5112 60be
00000130: 4342 1e3d 56f6 f2bd 0908 87be a736 efbd
00000140: 2e3a 5fbe 8b92 bbbd 9e7b e4bd 75cc e5be
00000150: adce 5cbe 5a43 e0be 3bc5 04be b3da 71be
00000160: c023 6cbd 1dad dabe 05a1 eabc 3e96 6bbd
00000170: b73b 67bd affa d43d b2ab 903d 993b e4bd
00000180: e6e6 fc3d 9d72 af3e 3e3d 8b3d 95b0 cbbd
00000190: 3b18 823e ef30 dcbc 907f 03be b786 96bc
000001a0: 4ccf 013e 75d1 c23d ab98 28bd a5c3 10be
000001b0: 4584 f53d 2d10 0abe 4919 b73d 2b31 483e
000001c0: ec65 b4be 6eb6 8a3e 8993 633e c34a 733e
000001d0: 180a ce3d 14b5 d23d 9627 fdbd 24a9 11bc
000001e0: 71f8 37be 8e1b fdbe 66f3 49be 7592 99be
000001f0: fd28 223e 91d0 14be 2443 17bf ca3e 3a3d
00000200: e47a 30be 990c 4e3e e5eb 20be b695 00be
2.5738084 2.0882516 2.5232446 2.741592 1.9076605 2.4653068 2.8908052 1.8139515
2.5627246 3.0193193 1.489991 2.7085013 2.8666027 1.4210893 2.5577374 2.732297
1.9958388 2.6029754 2.59653 1.948806 2.6016915 2.4030406 1.7424331 2.461379
2.4702365 1.8606573 2.3709478 2.4482732 1.75252 2.3207052 2.1926417 1.501899
2.1892114 2.1149013 1.5706855 2.289239 1.822883 1.4181235 2.0681703 1.8096843
1.4184729 1.9479414 1.3680073 1.3152823 1.4804376 1.0597523 0.972621 1.3247262
0.8346408 0.6400382 0.9233109 0.93363285 0.34071052 0.7394771 0.2989224 0.28756788
0.63023907 0.6186017 0.17583166 0.5385699 0.41240904 0.28888863 0.12372908 0.23925206
0.15248616 0.07981854 -0.01307901 0.030608313 -0.014734168 0.022224387 -0.0842883 -0.33642358
-0.0038087955 -0.16000375 -0.34776735 -0.21881987 0.03863741 -0.11863391 -0.26373318 -0.11680346
-0.21799538 -0.0915881 -0.111563906 -0.4488255 -0.21563216 -0.43801385 -0.12965862 -0.23618583
-0.05765128 -0.427102 -0.028641233 -0.05751633 -0.056453433 0.103993766 0.07063998 -0.1114418
0.12348728 0.3426713 0.067987904 -0.0994579 0.2540911 -0.026878802 -0.1284163 -0.018374784
0.12676734 0.09512607 -0.04116122 -0.14137132 0.11988119 -0.13482733 0.0894037 0.19550006
-0.3523401 0.27092308 0.22224249 0.23758988 0.10060519 0.10288444 -0.12361066 -0.008890424
-0.17965867 -0.49435085 -0.19721755 -0.2999455 0.15835948 -0.14532687 -0.59086823 0.045470037
-0.17234379 0.20121993 -0.15714987 -0.1255711
