models/GCN-trained.pth (torch, 10482 bytes, 11 tensors)

conv1.bias f4 [32]
000000 3a 0c c0 3c 1a 01 dc bc 0d f8 24 3d 00 00 00 00
       0.02344333 -0.026855994 0.040275622 0.0
000010 0c f4 c8 3a 00 00 00 00 c5 f1 ba 3c ab c4 b3 bc
       0.0015331521 0.0 0.022820363 -0.021944365
000020 00 00 00 00 ce 42 16 bd 47 4b 8b bc 26 4b ac 3c
       0.0 -0.036684804 -0.017003668 0.021031927
000030 05 a6 8d bd 00 00 00 00 30 9e ce bb 00 00 00 00
       -0.06916431 0.0 -0.0063054785 0.0
000040 00 00 00 00 00 00 00 00 e3 25 28 bc 38 d1 1e 3d
       0.0 0.0 -0.010262939 0.038773745
000050 a1 41 88 3c 00 00 00 00 00 00 00 00 48 05 0b bd
       0.016632857 0.0 0.0 -0.033940583
000060 aa d0 e6 bc 42 b6 39 3a da c0 f1 3a 00 00 00 00
       -0.02817567 0.00070843485 0.0018444315 0.0
000070 00 00 00 00 00 00 00 00 4d fe 99 3c 64 65 9d bc
       0.0 0.0 0.018798018 -0.019213386

conv1.lin.weight f4 [32, 3]
000000 40 ac 30 3e 95 40 48 be 89 89 de 3e 8e 79 80 bd
       0.17253208 -0.19555886 0.43464306 -0.06273185
000010 e5 19 8a bd 32 a5 ba 3e 84 59 5c be 5c c9 9d 3e
       -0.0674322 0.3645416 -0.21518523 0.30817688
000020 2b 06 d4 3e 72 b1 a5 be 1a c4 c7 3e 7c 01 8b be
       0.41410956 -0.32361943 0.390168 -0.2714957
000030 1b 0a 36 be bb e3 2e bd 00 0c 8a 3e 21 4b c4 bb
       -0.17777292 -0.04269765 0.2696228 -0.0059904014
000040 1d ad fd bd d5 ad 99 be 28 13 dc 3d 91 59 5c be
       -0.12386534 -0.30015436 0.10745841 -0.21518542
000050 65 01 ac 3e 42 24 60 3c c9 25 fc bd f0 94 08 3e
       0.33594814 0.01368052 -0.123118944 0.13338065
000060 23 51 81 bc 0c 82 ba 3e 00 d0 a2 be 88 e2 bb 3e
       -0.01578576 0.36427343 -0.31799316 0.36696267
000070 85 f8 ef be da ce 7f be 35 b7 97 3c ff 57 61 3e
       -0.46869293 -0.24981251 0.018519977 0.22006224
000080 2e ed 11 be aa 78 cb 3e fb b6 62 be cc de 6a 3e
       -0.14250633 0.39740497 -0.22140114 0.22936553
000090 7a cd ce 3d a6 40 aa be e2 2a a9 be 7a 65 6e be
       0.10097785 -0.33252448 -0.3304053 -0.23280898
0000a0 96 63 05 3e 59 ab c2 be 3a dc 77 bd 1b 81 da be
       0.1302627 -0.38021353 -0.06051276 -0.42676625
0000b0 03 3d 51 3e 63 bd 93 be 46 69 7a be d3 ff 55 3e
       0.2043343 -0.28855428 -0.24454221 0.2089837
0000c0 96 34 24 bc e2 a0 bf bd 7e db fe bd 6b ae 54 be
       -0.010022303 -0.09356858 -0.124442086 -0.2076966
0000d0 a7 35 50 be 1e 9a a1 3e be 6c a3 3e 4d ca 22 3e
       -0.20332967 0.31562895 0.319189 0.15897484
0000e0 9e 22 5f be b8 70 1a be e5 22 a0 3e b6 cd 09 3d
       -0.21790549 -0.15082061 0.31276622 0.033643447
0000f0 ae da b2 3e 33 04 80 3e f3 86 5f 3e 6d 11 2a be
       0.34932464 0.25003204 0.21828823 -0.1660821
000100 59 50 45 be b6 31 88 bd 1f ff 13 be 4b 1c b6 be
       -0.19268931 -0.066501066 -0.1445279 -0.3556846
000110 95 e5 70 be 23 22 44 3e a5 2e 6f 3e d7 84 33 be
       -0.23525079 0.19153647 0.23357637 -0.17531143
000120 02 e4 21 3e f8 7f 56 be 50 c3 ce bd 74 1a 66 3e
       0.15809634 -0.20947254 -0.10095847 0.22471029
000130 e7 3b 92 be 32 d6 25 bd 83 31 36 3e dc 66 03 3d
       -0.28561327 -0.040487476 0.17792325 0.032080516
000140 e9 67 88 be de 72 a5 be ab a3 92 3e 55 a2 56 3b
       -0.26641777 -0.323142 0.28640494 0.0032750566
000150 4c 14 62 be b4 f7 cd 3d 85 ec d3 be d0 18 d1 be
       -0.22078055 0.10057011 -0.41391388 -0.40839243
000160 51 bb d1 be 2f aa dc 3c af 50 ed bc c6 85 15 be
       -0.40963224 0.026936619 -0.028969137 -0.14601812
000170 b4 d0 2d 3e b7 cc 88 3e d4 29 9e be ec f6 29 3e
       0.16974145 0.26718685 -0.30891287 0.165981

conv2.bias f4 [16]
000000 00 00 00 00 57 b9 40 bd 7f 62 a4 3c e5 a5 a1 3c
       0.0 -0.047051754 0.020066498 0.019732425
000010 d4 9a d5 bc 00 00 00 00 11 8d 9e bb 82 1c 4f bd
       -0.026074804 0.0 -0.004838594 -0.050564297
000020 0f d7 c2 3c cd 56 a0 bc d0 0c c2 bb 8f b6 c9 bc
       0.023784189 -0.01957264 -0.0059219375 -0.024623184
000030 00 00 00 00 0b 03 2f bc 00 00 00 00 bc 6e c5 3c
       0.0 -0.010681878 0.0 0.024100654

conv2.lin.weight f4 [16, 32]
000000 55 e3 88 be 05 aa ef bd e5 c1 49 be 7c 07 10 be
       -0.2673594 -0.117023505 -0.19702871 -0.14065355
000010 26 40 72 3e 21 1f 88 be 5d 94 6f be 3f 40 84 be
       0.23657283 -0.2658625 -0.2339644 -0.25830266
000020 c7 a7 77 be 65 5c ab 3d 67 ce 9c 3e 94 88 d3 3d
       -0.24185096 0.08367232 0.30626222 0.103287846
000030 f5 ce a8 3e da 53 99 3d 23 dd a2 be e1 10 90 bd
       0.32970396 0.074866965 -0.3180934 -0.070344694
000040 c5 f4 95 be d6 70 85 3e 0a d2 97 be 65 39 84 be
       -0.29288307 0.2606265 -0.29652435 -0.2582504
000050 cb cf bf 3c 73 54 e0 bd 8e 0f 4a 3d c1 9e 14 3e
       0.023414513 -0.109536074 0.04933124 0.14513685
000060 1a 98 3c 3e 77 a6 98 3e 8b f1 39 be a1 f6 6b bd
       0.18417397 0.29814503 -0.18158548 -0.05760825
000070 2e 32 16 be 4f dc 15 3e 0d 4a 02 3e ed 34 3d be
       -0.1466758 0.14634822 0.1272356 -0.18477221
000080 8b 85 a5 3e 0b e1 16 3e b3 43 88 be 0d ee 86 be
       0.32328448 0.14734285 -0.2661415 -0.26353493
000090 0d 21 a9 be 20 56 61 bc 28 42 c1 3d c0 0b 9a 3e
       -0.33033028 -0.013753444 0.094364464 0.3008709
0000a0 27 ba 8b 3e ac 57 27 be 8c f1 8e 3d c6 e6 16 3e
       0.2729046 -0.16342038 0.06979665 0.1473647
0000b0 23 31 44 3e 19 4e f3 bd 8e eb 48 3e b4 cc 2b 3e
       0.19159369 -0.1188013 0.19621107 0.16777307
0000c0 46 8c ab be 88 a8 98 be a8 f3 f8 3b 6e 5c 4d 3e
       -0.33505458 -0.2981608 0.0075974055 0.2005479
0000d0 2b 53 64 3e 66 1a 99 be e8 94 6d bd a2 64 31 3d
       0.22297351 -0.29902953 -0.058003336 0.04330886
0000e0 67 0f 33 3d 2a 95 a0 3e f8 23 09 be 14 b5 cb bd
       0.04371586 0.31363803 -0.13392627 -0.09946647
0000f0 dd d8 a5 3e 93 b7 88 3e 05 4e cb be b6 6d f7 bd
       0.32392016 0.26702556 -0.39707962 -0.120814726
000100 e0 a6 e6 bc 2f 86 99 be 39 13 c6 3d 76 6c ab 3b
       -0.028155744 -0.29985186 0.09671635 0.0052314354
000110 64 82 1c 3f 08 69 8a bd 20 7e 06 3e d7 e4 71 be
       0.6113646 -0.06758314 0.1313405 -0.23622452
000120 80 0f 89 3e 20 7d c8 bd c5 94 7c be ba 28 ab 3e
       0.26769638 -0.09789491 -0.24666126 0.3342951
000130 96 c1 ab 3d 35 2e 67 3e cb da b5 be 2c 97 fb 3b
       0.08386533 0.2257622 -0.35518488 0.007677933
000140 a4 71 23 be d3 5e 66 3e 7a 7e 53 3e 07 8d b9 3e
       -0.15961319 0.2249711 0.20653716 0.36240408
000150 66 9f 99 3e e0 ec a1 3e d0 71 a2 3e 37 b8 74 be
       0.30004424 0.31626034 0.31727457 -0.23898397
000160 b7 51 74 be fb b1 83 be e6 b8 ab 3e 4b cc d1 3b
       -0.23859297 -0.25721726 0.33539504 0.0064025274
000170 7e 69 00 be 89 a0 a2 be a1 a2 ae 3e 6d a8 0f be
       -0.12540242 -0.31763104 0.3410845 -0.14029093
000180 59 ea 40 3e 89 a9 87 be 1b 24 84 3e ad fc a9 3c
       0.18839397 -0.26496533 0.25808796 0.020750368
000190 62 e9 4a 3f c4 17 2a be 33 7f b7 3e dc 71 0a 3e
       0.79262364 -0.16610628 0.35839233 0.13519996
0001a0 90 56 48 be 07 d0 4a bd 02 ff 8c 3d 11 9d 7d 3e
       -0.19564271 -0.049514797 0.068845764 0.24766947
0001b0 d4 31 82 be fe 3f 2d be 34 d9 47 be fa b2 f2 bd
       -0.2542864 -0.16918942 -0.1951645 -0.11850543
0001c0 1b 2c 72 3e 1d 38 85 3e 89 9f 4f 3e 44 15 cf 3e
       0.23649637 0.26019374 0.20275702 0.40445912
0001d0 5a d6 9e 3e cb ba a3 bd 8a 7c b5 bc 07 65 5e be
       0.31022912 -0.07994612 -0.022154111 -0.21718226
0001e0 e5 78 18 3e 8d 2c ac be 8a f9 0b be 6c fc 5e be
       0.14889868 -0.3362774 -0.1366941 -0.21775979
0001f0 3a 20 68 3e 99 cd 36 be 03 67 1c 3e 62 a9 cb bc
       0.22668543 -0.17851867 0.15273671 -0.024861041
000200 9f 2c be bd 91 63 c7 be 3a 5c 92 3e 64 97 97 be
       -0.092858545 -0.3894315 0.28585988 -0.2960769
000210 3c 12 2f bf b8 2c 64 bd 47 ff cd 3c c3 7e 61 be
       -0.683872 -0.05570671 0.02514614 -0.22021012
000220 53 bd af be 97 c5 9c be 4a 9d b3 3e e2 18 d7 3d
       -0.3432413 -0.306195 0.3508094 0.10502793
000230 72 43 39 3e d7 f4 21 be 49 14 77 3e 9d 96 93 3d
       0.18092135 -0.15816055 0.24128832 0.072064616
000240 d9 d3 9b bd 88 d1 34 be 1f 97 20 be ac 2d 29 be
       -0.07608766 -0.17658055 -0.15682648 -0.16521329
000250 ef 53 09 3e 39 28 8b 3e 2c e4 a0 be 54 8e ba 3d
       0.13410924 0.27179125 -0.3142408 0.09109178
000260 6b 02 1a be 72 16 b7 bc eb 47 5c bd 54 eb 93 be
       -0.15039985 -0.02234957 -0.053779524 -0.2889048
000270 1a 4f 47 bd 6c 2c 96 be e5 a6 56 bc f1 2b 0e 3e
       -0.04865942 -0.29330766 -0.013101314 0.1388395
000280 2d 33 a0 bd 6d 21 45 be e8 cb 4f 3d 7f d8 fa bd
       -0.07822261 -0.19251032 0.05073157 -0.122483246
000290 3d 60 e2 3d 0b 6c 44 be fd f8 89 be 8d a9 8d 3e
       0.11053512 -0.1918184 -0.26947775 0.2766842
0002a0 7a 1d 99 3e 15 03 b2 be 74 44 2d 3d 87 03 c3 bd
       0.299053 -0.34767976 0.04230161 -0.09522157
0002b0 aa 99 5f 3e d3 42 54 be b0 e4 5e 3a db e5 7c bd
       0.21835962 -0.20728616 0.0008502705 -0.061742645
0002c0 c2 ad a7 bd 5d 08 b7 3d a4 5d 9d 3d b9 91 36 bd
       -0.081874385 0.08937142 0.07683876 -0.044572566
0002d0 2f a0 06 be 8e ee 79 bd 55 48 01 be d2 ae 26 be
       -0.13147043 -0.06101852 -0.12625249 -0.16277626
0002e0 33 b8 9a 3e 40 87 b1 3e 1c c1 78 be 01 05 89 bd
       0.30218658 0.346735 -0.24292415 -0.066904075
0002f0 43 f0 ca 3d 23 b1 92 be bf 38 82 be e7 54 10 be
       0.099091075 -0.2865077 -0.2543392 -0.14094888
000300 f0 51 f8 3c ad 23 86 3e 53 c1 aa be 3f 25 7c 3e
       0.030312508 0.26199093 -0.3335062 0.24623583
000310 9e d8 f3 3d 96 3c 57 bb 29 d2 25 3e 7b 6b 9d be
       0.11906551 -0.0032842509 0.16193451 -0.30746064
000320 6f 72 4b 3e aa d3 c7 3d 29 66 1e 3e 79 ec e3 3d
       0.19867872 0.097571686 0.15468659 0.11129088
000330 9a 7a fd bc 87 e1 b3 be 08 c0 95 3e cc 60 63 3e
       -0.03094225 -0.35133 0.2924807 0.22204894
000340 14 92 a0 3e e1 27 43 3e a4 12 d7 bb f2 c4 26 3e
       0.3136145 0.19058181 -0.0065635014 0.16286066
000350 c4 f2 53 be a9 62 95 3e f1 fb 37 3d f3 5c 61 bd
       -0.20698076 0.29176834 0.044918004 -0.055020284
000360 8b 2d d2 3d 8b 9c a0 3e b2 f0 67 be 49 9e 32 3e
       0.10262593 0.31369433 -0.22650412 0.17443193
000370 ca 56 b1 3e 8d d2 ad be 11 00 40 be 1b b7 3c be
       0.34636527 -0.339497 -0.18750025 -0.18429224
000380 b4 fc b8 3d d4 5b 95 bc cf 3a 3d be 93 ba e6 bd
       0.09032574 -0.018232264 -0.18479465 -0.11266055
000390 c1 e9 1e bf eb 4e 9a be 8c 0e 68 3e ae c8 0a be
       -0.6207543 -0.30138335 0.22661799 -0.13553116
0003a0 a1 14 2a bd 29 94 86 be f6 93 60 3e a1 f8 16 bd
       -0.04152358 -0.26284912 0.21931443 -0.036858205
0003b0 9d 32 13 be e2 96 da bd fc 7c 8a bc 7c d8 c2 3d
       -0.14374776 -0.1067331 -0.0169053 0.09513947
0003c0 49 4e 21 be cb 19 a8 3e 29 dd a7 3e f7 6e b0 be
       -0.1575252 0.32832178 0.3278592 -0.3445966
0003d0 ef 0b b6 bd c0 91 42 be 94 0f f8 3c 27 8f d2 bb
       -0.08888995 -0.19000912 0.030280866 -0.0064257565
0003e0 dd 0a 57 3d 8d 3c a0 3e 20 3a 73 3e e4 da 9b 3e
       0.052500594 0.31296197 0.23752642 0.30440438
0003f0 7d 0a b2 be fc c8 80 3e 83 0a 67 3e 7b d6 c8 3d
       -0.34773627 0.2515334 0.22562604 0.09806534

conv3.bias f4 [16]
000000 79 33 94 3c 00 00 00 00 00 00 00 00 00 00 00 00
       0.01809095 0.0 0.0 0.0
000010 00 00 00 00 45 9b 82 bc 4c 6e 07 bc 00 00 00 00
       0.0 -0.015943179 -0.008266043 0.0
000020 13 d9 4b bb 24 dd e3 3b 97 da aa bc 00 00 00 00
       -0.0031104728 0.0069538523 -0.020856185 0.0
000030 b8 cc 26 3c b7 a1 89 3c e1 12 bf bc 7c 6b b2 bb
       0.010180645 0.016800744 -0.023324432 -0.005444942

conv3.lin.weight f4 [16, 16]
000000 b2 b4 49 be b4 88 63 3e c2 6b ac 3e 08 a0 5a 3e
       -0.19697836 0.22220117 0.33675963 0.2135011
000010 c3 55 90 3d 60 d6 08 3e 2a df 06 3e 58 6c 6c 3d
       0.07047608 0.13363028 0.13171068 0.057720512
000020 b4 fe 8f be 47 a4 92 3e 93 c0 42 3e 43 6d 99 3d
       -0.2812401 0.2864096 0.19018774 0.07491543
000030 59 21 9f 3e bf 2b 19 bc dc 0a a1 be 60 e9 8b 3d
       0.3108013 -0.009348809 -0.31453598 0.06831622
000040 15 41 98 3e 74 3a d1 be 9c 5e a4 3e cd f0 60 be
       0.29737154 -0.4086491 0.3210343 -0.21966858
000050 09 e0 c7 be 11 67 56 be c3 52 c9 be 5d ed be be
       -0.39038113 -0.20937754 -0.39320955 -0.3729047
000060 81 a0 9f be 26 f6 af bd 3b 90 bf bd 33 64 4f be
       -0.31177142 -0.08591871 -0.09353682 -0.20253067
000070 bd fc c9 be 99 a0 6a be dd 78 85 be 5b ac c4 be
       -0.39450637 -0.22912826 -0.26068774 -0.38412747
000080 74 a6 b4 be 9b 4f 4a be 82 09 7d bd 7e 48 6f be
       -0.35283244 -0.1975693 -0.061776645 -0.23367497
000090 b1 4a b7 3e 16 c6 8b be 0c 93 f6 3d 6b 05 ac be
       0.35799173 -0.27299565 0.12039766 -0.33597884
0000a0 47 95 90 3e 8c 76 56 bc 70 3c 84 3e 6c 90 dc 3c
       0.2823889 -0.013089787 0.2582736 0.026924334
0000b0 f0 3b 8e be 68 44 85 3e cd 9c 10 bd 25 ae 50 3e
       -0.27780104 0.26028752 -0.035305787 0.20378931
0000c0 ee c5 df bd f4 59 af be 30 8a 8b be 90 08 0b be
       -0.10926424 -0.34248316 -0.27253866 -0.13577485
0000d0 cc 1f a5 be 1b 39 d7 be 9a 9f b2 3d 01 25 95 3e
       -0.32250822 -0.42035756 0.08721848 0.29129794
0000e0 57 43 2f be 7c 3a 8b be 0b 04 18 3e 5e 7e 15 3e
       -0.17115532 -0.27193058 0.14845292 0.14598987
0000f0 ed 4e 06 be 3c f5 83 3e 09 03 d5 be d1 0d 52 3e
       -0.13116045 0.25773036 -0.41603878 0.20513083
000100 42 c6 ce 3d 08 d7 52 bd 83 08 0c be cc 6e 9e be
       0.100964084 -0.0514746 -0.13675122 -0.30943906
000110 4c ea 61 3e 68 8e 64 bc b3 af 85 bd 17 38 ae 3c
       0.22062033 -0.013949968 -0.065276526 0.02126698
000120 5d db 6f bc f0 e4 a0 3e 51 32 b9 3d e4 9a ab 3e
       -0.014639703 0.31424665 0.090428 0.3351661
000130 b1 83 c0 3d c1 4c a5 be 8e c7 50 be a6 00 4f be
       0.09400118 -0.3228512 -0.20388624 -0.20215091
000140 83 a8 14 bd f4 80 30 3e 64 2c d4 be e0 d4 87 be
       -0.036293518 0.17236692 -0.41440117 -0.26529598
000150 26 da 87 3e 46 bc 8f be 52 62 f1 bc 1e 34 3d 3e
       0.26533622 -0.2807333 -0.029465828 0.18476912
000160 ed c8 60 be 83 1c f8 3e 7c 70 05 3f 2a 97 e1 3e
       -0.21951647 0.48459253 0.5212476 0.44060642
000170 b0 ec b1 bd d4 87 ce 3e 20 bc fa 3d 72 c6 51 be
       -0.08687723 0.40338004 0.12242913 -0.20485857
000180 84 6f c8 3d fa 5f 6f 3e e7 b5 24 3e a1 6e 7d be
       0.09786895 0.23376456 0.16085015 -0.24749233
000190 5d e0 c0 be 90 ea a3 be 4e 6d aa be 0e 18 a8 3e
       -0.37671176 -0.32014894 -0.33286518 0.32830852
0001a0 49 3c 80 be 36 12 b8 3e 7e 3e 8d 3e 3a d3 34 be
       -0.25045994 0.35951394 0.2758674 -0.17658702
0001b0 b7 9f 88 be 62 89 4d 3e 2d c1 b0 3c 5f 5a a1 be
       -0.26684353 0.20071939 0.021576488 -0.3151426
0001c0 c7 30 82 be 5a 0a 5c be a3 3b cd be 89 ba 3b be
       -0.2542784 -0.21488324 -0.40084562 -0.18332876
0001d0 c2 e3 91 be 98 c1 e3 bc 96 c9 84 be 44 17 92 3e
       -0.28494078 -0.027802274 -0.25935048 0.28533375
0001e0 c5 6c c0 3d 67 7d 65 3e 34 14 11 be 3c 64 0a bb
       0.09395746 0.22411118 -0.14167863 -0.0021116873
0001f0 5d 01 18 be c6 26 a7 bd da 9a 99 3e 80 f9 6f be
       -0.1484427 -0.08161692 0.30000955 -0.2343502
000200 89 4d d4 3d 60 d6 a7 bd 94 9c 86 3e f8 22 63 be
       0.10366351 -0.08195186 0.26291335 -0.22181308
000210 88 e1 2b 3e f5 b1 d0 be c2 94 dd be 05 30 66 3e
       0.16785252 -0.4076077 -0.43277556 0.22479255
000220 da f1 79 3e 6d 32 13 3e e4 fb 12 3d 6a b6 cb 3e
       0.24408665 0.14374705 0.035884753 0.39787608
000230 3b 63 d4 3e a7 7a fd be d7 ed 98 be b1 08 e1 bd
       0.41481957 -0.4950764 -0.29868957 -0.10987986
000240 8a 12 c5 be 73 94 20 bd 86 dd c6 be 33 10 65 3e
       -0.38490707 -0.039204072 -0.38840884 0.22369461
000250 57 c2 19 be 58 f0 9d 3e 70 f7 2c 3e 0f 74 c7 be
       -0.15015541 0.3084743 0.16891265 -0.38955733
000260 24 da bb be f1 13 ac be d8 d7 7f 3e d7 28 33 bb
       -0.36689866 -0.33608964 0.24984682 -0.0027337575
000270 97 53 27 3e b2 cb d2 3e ef 44 ea bd 0e c3 e3 3e
       0.1634048 0.41171032 -0.11438929 0.44484752
000280 20 1f 52 be 81 e6 cd bc 65 42 9e 3e 54 a2 9b 3e
       -0.20519686 -0.025134327 0.3091003 0.30397284
000290 66 93 b0 3e 62 ea 14 bd af 7e e6 3b 6a 3a ba 3e
       0.34487456 -0.036356337 0.007034145 0.3637269
0002a0 17 31 8f bb 4e cd d7 bd db 3b bf 3e 84 15 c4 be
       -0.0043698656 -0.10537206 0.37350354 -0.38297665
0002b0 0e c2 c7 be 9e 89 6f 3e 4a 1f 98 3e 24 ab d9 be
       -0.3901524 0.2339234 0.29711372 -0.42513382
0002c0 0f d3 9f be 8a c3 a6 be 16 35 6c bd 6c 13 b2 be
       -0.31215712 -0.3257106 -0.057667814 -0.34780443
0002d0 b8 a4 c3 be 00 2f cb 3d 2f 49 1c bd fd d5 69 be
       -0.38211608 0.09921074 -0.03815573 -0.22835536
0002e0 bf a6 3f 3e 94 61 d6 be 89 2b d8 be 1a 43 4c 3d
       0.18715952 -0.4187132 -0.42220715 0.04986868
0002f0 96 b3 a7 3c 5b 45 34 3d f4 cc 52 3e da fc d4 3d
       0.020471375 0.044011455 0.20585996 0.1039979
000300 a2 d7 be 3d b5 ee 5c 3e b3 bf d2 3e e1 43 e2 3e
       0.093184724 0.21575435 0.4116188 0.44192412
000310 f7 f0 17 be 65 5f 1d bd f7 5c d3 be 92 cf a8 3e
       -0.14838015 -0.038421053 -0.41281864 0.32970864
000320 8e 83 92 be 56 99 8f be f7 54 85 be 68 f6 31 3e
       -0.28615993 -0.28046674 -0.26041386 0.17379153
000330 1e 8e 49 3e b7 9c fa bd 50 7b 04 be e7 0b 65 3d
       0.1968312 -0.12236922 -0.12937665 0.055919554
000340 8b 7e 63 be 50 53 86 3e 19 4c b8 3e 84 b9 ba 3e
       -0.22216241 0.26235437 0.35995558 0.36469662
000350 23 e5 a6 bd 54 6a 56 3e b5 bc bc be 09 9c 42 3d
       -0.08149173 0.20938998 -0.36862722 0.047512088
000360 a1 f2 f3 bc 47 51 97 3e 74 b0 52 be 72 8b c8 bd
       -0.02977878 0.29554197 -0.20575124 -0.09792222
000370 4b c6 ca 3e ea b2 b2 3d 3b 14 26 be bc 1b 41 be
       0.3960441 0.087255314 -0.16218655 -0.18858236
000380 2a 8c be 3e cd 41 0d 3e 42 ee 1c 3d 81 9f 2b 3e
       0.37216312 0.13794632 0.038313158 0.16760065
000390 74 28 b2 bd b5 6f 81 be 6b 6f 8e be 10 64 d3 3e
       -0.08699122 -0.25280538 -0.2781938 0.4128728
0003a0 e7 4f 9e be 27 9d a0 be 3b 76 d3 3e 6d a0 5c 3e
       -0.30920336 -0.31369898 0.4130114 0.21545573
0003b0 11 40 b9 bd 90 d9 c9 3e b2 87 b0 bd af 80 ac bd
       -0.09045423 0.394238 -0.08619632 -0.08422982
0003c0 7b 21 81 3e 82 ec 82 3e b3 8c b8 be 5a 1c 5e 3e
       0.25220856 0.25571066 -0.36044845 0.21690503
0003d0 d5 10 cf be d3 ca 4f 3e 7b 86 13 bd 31 77 27 bd
       -0.4044253 0.20292215 -0.036016922 -0.040885154
0003e0 4b 9a 17 be 8e 15 e3 bd 17 76 82 3e 0a 03 7c bc
       -0.14804952 -0.110880956 0.2548072 -0.015381584
0003f0 86 09 18 3e d0 00 09 3e fd 45 19 bd 5f 59 4f be
       0.14847383 0.13379216 -0.03742026 -0.20248936

linear1.weight f4 [16, 16]
000000 da d1 53 3e 30 26 59 be 14 03 7f 3e c4 96 c0 3d
       0.20685521 -0.21205974 0.24903518 0.09403756
000010 00 fa 77 3c 8c 9a ac bd 50 fd bc 3c fc c1 c4 bd
       0.015135288 -0.08427915 0.023070008 -0.09607312
000020 60 4c 41 3e 00 e8 7d 3e 30 cd d0 bc ea d7 74 3e
       0.18876791 0.24795532 -0.025488466 0.2391049
000030 3a 3a 47 3e 14 b1 0a be 84 a2 02 be 24 dd 07 be
       0.19455805 -0.13544112 -0.12757307 -0.13267952
000040 c0 8a 04 3d 40 25 18 bc f0 57 d1 3d 4c 63 b0 3d
       0.032358885 -0.009286225 0.10221851 0.086126894
000050 60 24 3b be 3c 9b 24 be a8 0a 60 3e 80 f6 1f 3c
       -0.18275595 -0.16074842 0.21879065 0.00976336
000060 c0 f2 cc 3c 38 c3 59 3e a4 14 33 be 10 cb 03 bd
       0.025018096 0.21265876 -0.17488343 -0.032176077
000070 50 05 c7 3d 42 7d 30 3e c8 55 54 3e 50 78 8d 3c
       0.0971781 0.17235282 0.20735848 0.017269284
000080 c8 22 6f bd 84 1b df bd ac 6a 24 3e 24 5c 02 be
       -0.05838278 -0.1089392 0.16056317 -0.12730461
000090 d4 64 4e be 1e e7 62 3e be b7 75 be 80 c0 03 bb
       -0.2015565 0.22158477 -0.23995873 -0.0020103753
0000a0 1e 5d 3b be 20 14 40 bc 7e 80 50 be f8 ad 04 bd
       -0.1829724 -0.011723548 -0.20361516 -0.032392472
0000b0 40 88 74 3d ac d5 d2 3d f0 9f d8 3c 40 0b 95 bc
       0.05970025 0.10294661 0.026443452 -0.018193841
0000c0 c2 8c 43 3e 78 f3 dc bd 06 8a 15 3e 7e 36 12 be
       0.19096664 -0.107886255 0.14603433 -0.142786
0000d0 94 1e b1 bd ec 5b 70 3e d0 03 8c 3d 7e 63 3b 3e
       -0.086484104 0.23472565 0.06836665 0.18299672
0000e0 3c 87 21 be 50 bc a7 3c f0 13 05 3d 68 d1 f8 3d
       -0.15774244 0.020475537 0.032489717 0.12149316
0000f0 d0 e3 0b be ec 51 bc bd e0 bc 74 3d 10 a3 5c be
       -0.13661122 -0.09195313 0.059750438 -0.21546578
000100 a0 81 5a 3e 98 0b 35 be 14 9a b8 bd dc d1 8f bd
       0.2133851 -0.17680204 -0.09013763 -0.070224494
000110 90 dc a2 3d 5a c7 41 3e 08 17 3a be 7e 6c 33 3e
       0.07952225 0.18923703 -0.18172848 0.17521855
000120 b4 3b cd 3d 18 ad 98 bd 30 8c 54 3d b6 6a 47 3e
       0.10021153 -0.0745489 0.051891506 0.194743
000130 b8 98 1e 3e 80 cf 24 3b f4 f8 03 be 60 13 6a 3e
       0.15487945 0.0025148094 -0.12887937 0.22858953
000140 00 5c e1 b9 7c 40 3f 3e b2 bc 0b 3e b4 b1 c8 3d
       -0.0004298389 0.18676943 0.136462 0.09799519
000150 38 5d d3 3d 5a b4 3e be a0 f2 89 3d bc 32 18 3e
       0.103205144 -0.18623486 0.0673573 0.14863104
000160 8e 19 20 be 6a 00 5d be 8e ce 5d be 8a 1c 56 3e
       -0.15634748 -0.21582189 -0.21660826 0.20909324
000170 10 97 1d be 28 f6 23 3d 60 37 af bc 08 b3 ab bd
       -0.15389657 0.040029675 -0.02138871 -0.08383757
000180 7c e1 71 be c0 f7 4e bc d0 bc 26 bd 38 f6 5b 3e
       -0.23621172 -0.01263231 -0.04070741 0.21480644
000190 62 21 26 be 00 93 05 bc 80 87 7e bd 30 48 b0 bc
       -0.16223672 -0.008152723 -0.06214094 -0.021518797
0001a0 b2 f5 3f be 48 66 e5 bd 4e 85 65 3e cc 72 6e be
       -0.18746069 -0.11201149 0.22414133 -0.23285979
0001b0 fc 6d 38 be 14 24 e9 3d 32 61 22 3e 6e b2 10 3e
       -0.18010706 0.113838345 0.1585739 0.14130566
0001c0 2a ae 41 3e b8 c1 3c bd c0 54 f3 3c 70 94 51 3e
       0.18914095 -0.046083182 0.029703498 0.2046678
0001d0 f0 05 b4 3c 06 de 3c be 28 49 2c be 84 73 b3 3d
       0.021975487 -0.1844407 -0.16824782 0.08762267
0001e0 94 a6 95 bd 28 ac 6a be fc f6 3b 3e c6 54 13 be
       -0.07307163 -0.22917235 0.18355936 -0.14387807
0001f0 8e a9 15 be a0 d4 68 3d 58 f5 fa 3d f8 8f 3c 3e
       -0.14615461 0.0568434 0.12253827 0.18414295
000200 3c 21 98 3d 20 3a 00 3c d0 46 3b 3e fc 2c 3d be
       0.07428214 0.007826358 0.18288732 -0.18474191
000210 c8 45 40 be 50 01 2e 3e 80 bd 7a bb 60 70 cf bd
       -0.1877662 0.16992688 -0.0038259923 -0.10128856
000220 a6 ce 54 be 8c 07 e5 3d 88 01 2a 3e d0 ff 99 bd
       -0.20781955 0.1118308 0.16602147 -0.075194955
000230 ec 44 5b be 60 9d 0a be 14 2b d4 bd 7a 6b 31 3e
       -0.2141301 -0.13536596 -0.10359779 0.17326155
000240 50 6c 61 be 8c cc a9 3d 68 e7 30 be 04 91 6f 3e
       -0.22013974 0.08290967 -0.17275774 0.23395163
000250 e0 4c c2 3d 24 07 a5 bd 12 a3 4a 3e a8 22 73 3d
       0.09487319 -0.080580026 0.19788769 0.059359223
000260 9a c6 42 3e ae ab 65 be 80 5e 2e 3d b4 f0 19 be
       0.19021073 -0.22428772 0.04257059 -0.15033227
000270 92 81 6d be d0 4c 6d bd 2c 6d 2e be 64 31 7b be
       -0.23193958 -0.057934582 -0.17033833 -0.2453056
000280 f2 11 53 be 20 dd 5c 3d 50 11 da 3d 96 21 46 be
       -0.20612314 0.05392182 0.10647833 -0.1934875
000290 40 e9 b5 3b 54 7c fa 3d 54 6f 55 3e 54 62 02 3e
       0.005551487 0.12230745 0.2084325 0.12732822
0002a0 a0 9f 00 bc a0 df 0e be 4e 10 7f 3e 7c f2 18 be
       -0.007850558 -0.13952494 0.24908563 -0.1493625
0002b0 e0 8e a9 bc c0 33 a6 3b 40 cf 20 bc 98 08 10 3d
       -0.02069801 0.005072087 -0.009815037 0.035164446
0002c0 a0 00 25 3e f4 96 97 3d 10 bf d4 bd f0 33 fa bd
       0.1611352 0.07401839 -0.10388005 -0.122169375
0002d0 00 5e 7b 3a 56 da 69 3e 80 75 00 bd 78 a8 69 be
       0.0009588897 0.22837195 -0.031362057 -0.22818172
0002e0 90 1b a5 3d 8a f9 31 be 6c 39 de 3d c0 05 d3 bb
       0.08061898 -0.17380348 0.10850796 -0.0064398944
0002f0 c4 14 a6 bd 10 13 69 3e 7a 53 33 be 68 b6 40 3e
       -0.081094295 0.22761178 -0.17512313 0.18819582
000300 08 4e a2 3d b6 15 73 be 9a 89 3e be dc 65 3b 3e
       0.079250395 -0.23738751 -0.18607178 0.18300575
000310 44 37 9d bd 34 79 29 3e 98 7c 63 bd f0 ef 0f be
       -0.07676557 0.16550142 -0.055538744 -0.14056373
000320 32 b3 0b 3e a0 cc cf 3d 60 9f 96 3c 3e 68 5b be
       0.13642576 0.10146451 0.018386543 -0.21426484
000330 e4 5a 1c 3e f4 6f 68 3e f8 a8 c8 3d 16 4b 59 be
       0.15269047 0.22698957 0.09797853 -0.2122005
000340 60 20 56 be 7a df 1b be cc 19 09 be c0 12 17 bd
       -0.20910788 -0.15221968 -0.13388747 -0.036883116
000350 ac 2d 2c 3e 5e 98 2f 3e 98 79 0f 3e 68 c3 0d be
       0.16814297 0.17147967 0.14011228 -0.13844073
000360 38 51 60 3e 2c 4a 58 be a0 5a 9e 3d 40 36 9c 3c
       0.21905982 -0.21122044 0.07732129 0.019068837
000370 78 51 43 3d 54 e2 c6 bd 00 c7 63 bb 0c 57 69 be
       0.047685117 -0.097111374 -0.0034756064 -0.22787112
000380 70 31 e6 3c b8 92 2c 3d 9c 15 7e 3e e8 29 38 3d
       0.028099746 0.04213211 0.24812931 0.04496184
000390 4a e0 29 be b8 ce 4d bd d8 33 43 bd 14 4b 0e 3e
       -0.16589466 -0.05024597 -0.047656864 0.13895828
0003a0 78 03 17 bd 28 ae 27 bd 00 48 7d 3b 8c d6 8f 3d
       -0.036868542 -0.040937573 0.0038647652 0.070233434
0003b0 90 5e fb bc 20 41 53 bc 60 f0 b6 bc 6a b1 66 be
       -0.03068474 -0.012893945 -0.022331417 -0.22528616
0003c0 dc aa 14 be e8 46 0b bd 88 e0 4c 3d f4 6d 48 3e
       -0.14518303 -0.03400317 0.050018817 0.19573194
0003d0 f8 f9 19 3e 58 8a 3d bd 80 07 f2 bd 18 e4 0e 3d
       0.15036762 -0.046274513 -0.11817837 0.034885496
0003e0 00 1f bc 3b 00 de cd bb 24 d0 77 3e 60 bd fe bc
       0.005741 -0.006282568 0.24200493 -0.03109616
0003f0 3a 49 17 3e bc 0c 83 bd 80 9b c6 3c c8 0f 82 3d
       0.14774027 -0.06398913 0.02424407 0.06350666

linear1.bias f4 [16]
000000 6c 22 65 3e 4c ef 0a be 78 04 46 3e 30 e6 27 3e
       0.22376412 -0.13567847 0.19337642 0.16396403
000010 24 74 3e 3e 00 18 1a 39 4a c7 1d be 4c c7 28 3e
       0.18598992 0.00014695525 -0.15408054 0.16482276
000020 fe a3 54 3e 78 ca 58 bd 20 0a ce 3d 78 b3 1b 3e
       0.20765683 -0.052927464 0.10060525 0.1520518
000030 00 27 bf bd e8 3e 45 3e 1a 19 6c be 00 af 2a bb
       -0.093336105 0.19262278 -0.2305645 -0.002604425

embedding_layer.weight f4 [16, 16]
000000 bd c8 e9 3c a0 24 eb bd 7c d4 78 3e dc 16 ff 3d
       0.028538102 -0.11481595 0.24299806 0.12455532
000010 28 36 19 3e 2c 23 94 3d 9f 44 b0 3d a0 13 35 bd
       0.14962065 0.07233271 0.086068384 -0.04420817
000020 83 6e a8 3d 5e 63 73 3e e6 79 8b bd da 5f 00 3e
       0.082242034 0.23768374 -0.0681036 0.12536564
000030 e9 72 65 3e cf 08 83 be 24 51 50 be 3a 8d 14 be
       0.22407116 -0.25592658 -0.20343453 -0.14506999
000040 02 d9 5c 3e 40 c3 28 be 80 50 0c bd a0 58 bd bc
       0.21567157 -0.16480732 -0.03425646 -0.023113549
000050 a0 b2 23 3e d4 7d c2 bd 97 37 91 3d 74 86 85 3d
       0.15986109 -0.09496656 0.07090681 0.065197855
000060 30 71 65 be ae d7 ac be 76 fc a6 3d 3c 2a 85 bd
       -0.22406459 -0.337583 0.08153622 -0.06502196
000070 ca 62 98 ba d9 f9 9b 3d fc 82 47 3e 49 e6 e8 3d
       -0.0011626121 0.07616014 0.1948356 0.113720484
000080 00 0d 3f be 80 5e 70 bc f8 d3 b6 3d 8c 67 f5 bd
       -0.18657303 -0.014670968 0.089271486 -0.119826406
000090 a4 2e ed 3d aa 3e 77 be 2c 0e b1 bd 10 8a 31 bd
       0.115811616 -0.24144998 -0.08645281 -0.043344557
0000a0 de b2 39 be cc 10 4e be b2 df 2a 3e 08 97 70 3d
       -0.18134639 -0.20123595 0.16686895 0.058737785
0000b0 10 4e 7c bd 00 62 74 3e d4 ab 97 bd 36 c7 22 3e
       -0.061597884 0.23865509 -0.074058205 0.15896305
0000c0 60 3d b3 bc b6 7b 22 3e e8 8d 6f be 04 af 3d be
       -0.021879852 0.15867504 -0.23393977 -0.18523794
0000d0 54 9e a3 bd 44 65 b4 bd e8 b8 5b bd 8e f5 2c be
       -0.07989183 -0.088083774 -0.053643137 -0.16890547
0000e0 c0 0f 74 3c a0 0a 7a bd a8 80 0b 3d 80 52 e0 3b
       0.014896333 -0.06104529 0.034058243 0.0068457723
0000f0 7e f9 5b be 28 49 16 3d d0 a7 c2 3c 4e 71 14 3e
       -0.21481892 0.03669086 0.02376166 0.14496347
000100 86 c4 d6 3d 98 42 35 3d 80 5e 17 bb 94 06 49 be
       0.104867026 0.044252962 -0.0023097098 -0.19631416
000110 5e cc 0b 3e 47 41 20 3e 07 88 f7 bc c4 d4 cb 3d
       0.13652179 0.15649901 -0.03021623 0.09952691
000120 da 27 23 be 35 fe 38 3e fd 5f f8 3d 94 5b e3 3d
       -0.15933171 0.18065722 0.12127683 0.111014515
000130 3f 32 a9 bd c4 5a 93 bd de 5a 8a 3e 34 c3 96 be
       -0.08261537 -0.071950465 0.2702245 -0.29445803
000140 d5 87 61 bc d8 43 13 be 9a 99 4f be 00 e1 68 3d
       -0.013765295 -0.14381349 -0.20273438 0.0568552
000150 d0 35 ca 3c 6f e0 d0 3e f7 42 82 bc 6e 03 76 be
       0.024683863 0.4079623 -0.015901072 -0.24024746
000160 47 88 12 bd 23 44 29 3e 2c a4 5a 3e 5e 09 53 be
       -0.035774495 0.16529898 0.21351689 -0.20609042
000170 76 f2 bf 3d 7e 5d a6 3d b1 56 5e be ba 0b 8f bc
       0.09372418 0.08123301 -0.21712758 -0.017461646
000180 18 e6 25 3e c0 4d 8a bb 0e 69 5b 3e d8 77 99 bd
       0.16201055 -0.0042206943 0.21426794 -0.074935615
000190 10 40 3a 3d ae 23 e7 be c7 2f e5 3b 44 df 43 be
       0.04547125 -0.4514441 0.006994221 -0.19128138
0001a0 ac 18 13 bd 67 f4 d1 bd 85 aa b9 bd 10 85 81 bc
       -0.0359122 -0.10251694 -0.09065727 -0.01581052
0001b0 b3 7f 9d 3d bf bb 9d 3d dc e7 94 bd b4 4a 3d be
       0.07690372 0.07701825 -0.07270786 -0.18485528
0001c0 a0 f9 8d bc 98 fd 2d be a0 01 d4 3c 3a cc 4a be
       -0.017330945 -0.1699127 0.025879681 -0.19804469
0001d0 d0 ea 39 3d d7 79 10 be fd 7b 51 be ea 39 5c 3e
       0.04538995 -0.14108978 -0.20457454 0.21506467
0001e0 c3 ab 73 3e c0 c2 fc 3c 9d 3b 0c be b4 4b 9f bd
       0.2379599 0.030854583 -0.13694616 -0.07778111
0001f0 b3 dc 03 bc 52 0f b9 bc 61 69 44 bd d3 1c 1c 3e
       -0.008048224 -0.022590313 -0.04795206 0.1524537
000200 00 a0 63 3c 88 a0 78 bd 60 a2 65 be d0 5b 5e 3e
       0.013893127 -0.06069997 -0.22425222 0.21714711
000210 b4 ba 0e 3e f8 65 7f bd f2 56 42 be 18 72 9a bd
       0.13938409 -0.062353104 -0.1897848 -0.07541293
000220 2e ae 73 be bc c9 f4 3d 3e 1c 3b 3e 84 b6 d3 3d
       -0.23796913 0.1195254 0.18272492 0.103375465
000230 38 47 97 bd c8 52 10 be 56 38 45 3e 1c 87 87 3d
       -0.07386631 -0.14094079 0.19259772 0.06617567
000240 ae e5 f1 3d 10 20 bd bc b0 fa cb bd 98 1b ff bd
       0.11811386 -0.023086578 -0.09959924 -0.12456435
000250 0e 01 6d be 5b 58 aa be 08 5e bd 3d 6a 7a 4f 3e
       -0.23144934 -0.33270535 0.09246451 0.20261541
000260 be 79 e4 bc 11 b6 8d be 89 39 bf 3c 38 fe d0 3d
       -0.027890082 -0.27677968 0.023342865 0.102047384
000270 94 bd be bc e3 f3 7c 3e 7d d2 2e 3e b6 b8 e5 3d
       -0.023283757 0.2470241 0.17072482 0.112168714
000280 0e 18 76 3e 08 6c 43 3d 90 27 9e bc 0c c0 e6 3d
       0.24032614 0.04771045 -0.019305974 0.11267099
000290 be c8 1d 3e be d1 b0 be 6c f1 41 bc 48 52 e8 bd
       0.15408608 -0.3453502 -0.011837345 -0.11343819
0002a0 7d 3e 8f 3d 2a da 12 be 35 6f d3 3b 2c 2c e7 bd
       0.069943406 -0.14341035 0.006452466 -0.11287722
0002b0 1d 2d 0e be ce 4d 43 3d 0f a2 de bd 8f 2d 39 3e
       -0.13884397 0.047681622 -0.10870754 0.18083785
0002c0 09 87 8c 3d d8 3c 6c 3e 26 2d 4b be f8 ad 07 be
       0.068616934 0.23070085 -0.19841442 -0.13249958
0002d0 a2 70 16 3e a4 40 f5 3e cd 56 03 3e 88 26 aa bd
       0.14691404 0.4790088 0.1282608 -0.083081305
0002e0 64 2e 91 3e 0b 8e 80 3e 39 03 d7 3d 1c e8 eb bd
       0.28355706 0.2510837 0.104986615 -0.11518881
0002f0 c1 a1 33 be 79 6e df 3d 6b e0 04 3e 2b dd b2 3c
       -0.17542173 0.10909743 0.12976234 0.021833977
000300 16 51 28 be 74 b8 6f 3e 9c 81 44 be 40 1b 07 3e
       -0.16437182 0.23410207 -0.19190067 0.13193989
000310 10 43 16 3d 68 51 7a bd c8 df 7e bd dc d3 e0 3d
       0.03668505 -0.06111279 -0.062225133 0.10977909
000320 40 17 b4 bb 12 99 72 3e 40 ef 4f bd 60 df 10 bc
       -0.0054959357 0.23691204 -0.050765276 -0.008842319
000330 0a 63 0d be 16 55 11 3e 50 90 36 3d be f3 0f be
       -0.13807312 0.14192614 0.04457122 -0.14057824
000340 8c 61 f1 bd 08 13 c4 3d f6 dc 4c be a6 79 21 3e
       -0.11786184 0.095739424 -0.20006165 0.15769061
000350 00 1b 54 3c ee ae 43 be 28 dd 56 bd 20 11 24 3c
       0.01294589 -0.19109699 -0.052457005 0.010013849
000360 80 a5 3c 3c 58 ba 48 be 2a 4f 05 3e f8 ef 61 3d
       0.011514068 -0.19602334 0.1301848 0.055160493
000370 a8 d8 52 3d c8 9a 98 bd 58 c4 2a be 8a 74 25 be
       0.05147615 -0.07451397 -0.16676462 -0.16157737
000380 24 f8 f4 bd c8 38 1e bd 4a 8a 24 be 96 94 2a be
       -0.119613916 -0.03862837 -0.16068378 -0.16658244
000390 24 3d 84 3d 4c 6f f2 bd c6 1c 0b 3e 90 c4 10 be
       0.06456974 -0.118376344 0.13585195 -0.14137483
0003a0 ac 5f f0 bd 78 1e fe bd f8 7c c4 bd 9e f5 7f 3e
       -0.11736998 -0.12408155 -0.095941484 0.2499604
0003b0 28 c7 cf 3d 40 5d d8 bb 76 60 6f be c8 12 6b 3e
       0.10145408 -0.006602913 -0.2337664 0.22956383
0003c0 c4 0b 7d 3e 3a 08 10 be d0 fa e4 3d d0 6c 0b 3e
       0.2471152 -0.14065638 0.11180651 0.13615727
0003d0 80 60 14 3b f0 83 71 3e 20 8b 4a 3c 2c 75 ad bd
       0.0022640526 0.23585486 0.012362272 -0.084696144
0003e0 60 5f 04 be d0 f1 da bc 1c 12 9b bd 68 19 5e 3d
       -0.12927008 -0.026726633 -0.075718135 0.054223448
0003f0 ee 09 71 be b4 44 2e be 54 80 98 3d c2 89 49 3e
       -0.23538944 -0.17018396 0.07446352 0.19681457

embedding_layer.bias f4 [16]
000000 a3 a9 e4 bd 6b 19 4c be 78 fe 20 3e 3c 13 5c 3e
       -0.11165168 -0.19931571 0.15722072 0.21491712
000010 fd 95 28 3e 81 b8 69 3c 06 cc c7 be e3 8d 0b 3e
       0.16463466 0.014265181 -0.39022845 0.13628344
000020 04 63 cf bd 1a 0e 30 bc 12 d5 d1 3c 7c 3f 88 3e
       -0.101263076 -0.01074555 0.025614295 0.26610935
000030 ea 86 65 be 60 4c 0f bc 64 ec bb bd 88 d6 07 3d
       -0.22414747 -0.008746237 -0.09175947 0.033163577

classifier.weight f4 [1, 16]
000000 c7 0b 0e ba 41 bf c9 3b ea b1 58 3e 9c f5 0a 3e
       -0.0005418625 0.0061568324 0.21161619 0.13570255
000010 cf ca 5f be 45 42 cf bd 5e 68 b4 3e 1c 27 56 be
       -0.21854709 -0.10120062 0.35235876 -0.20913357
000020 5e ba 09 be ce fb 20 3e 9b 2b 3b 3e 69 74 26 be
       -0.1345 0.15721056 0.18278353 -0.16255344
000030 b0 18 9b 3c a0 69 19 bc 2c 8a ca 3d 10 2a 62 3d
       0.01893267 -0.009363562 0.098896354 0.055215895
