models/ScatterNet-trained.pth (torch, 114010 bytes, 10 tensors)

scatter.wavelet_constructor f4 [4, 17]
000000 b3 24 90 3c a1 4a 86 bf d1 53 7e 3f 6b cc 07 3c
       0.017595625 -1.0491525 0.99346644 0.008288483
000010 af f2 5e 3c 80 76 6b 3c 72 cd 53 3c 27 8a 2c 3c
       0.013607665 0.014371514 0.0129274 0.010530985
000020 39 61 00 3c 49 3e a9 3b 58 01 2f 3b 1c e2 d9 39
       0.00783568 0.0051648957 0.0026703682 0.0004155793
000030 ca 3b cf ba 94 cd 59 bb 1f 21 9e bb 4e 21 c8 bb
       -0.0015810665 -0.0033234106 -0.0048257257 -0.006107486
000040 79 94 eb bb 98 a0 6e 3d 8a 2d b7 bc 5c 84 82 bf
       -0.00718933 0.058258623 -0.022360582 -1.0196643
000050 ca 9d e0 bb 0f 07 80 3f c5 37 39 3b c2 5c 45 3b
       -0.0068547474 1.0002154 0.0028262 0.0030115102
000060 95 c7 fe 3a 92 e5 74 39 34 80 ed ba 34 3d 84 bb
       0.0019438142 0.00023355175 -0.0018119873 -0.0040356163
000070 d1 1f d0 bb 60 ae 0e bc 7d 68 35 bc 1b d4 5b bc
       -0.006351449 -0.008708566 -0.011072275 -0.013417269
000080 81 cf 80 bc 20 42 93 bc 30 8e 43 3c c0 14 86 ba
       -0.015723946 -0.017975867 0.011935756 -0.0010229573
000090 02 c0 c7 bc 4b bc bf bc 95 5d 82 bf 79 f9 55 bc
       -0.024383549 -0.023405215 -1.0184809 -0.013059967
0000a0 32 fc 00 bc 5e 83 4d bb 6a 23 80 3f 97 c7 9d 3b
       -0.007872628 -0.0031358819 1.0010808 0.0048150527
0000b0 e4 53 04 3c 4f 01 33 3c 6c bf 5b 3c 96 52 7f 3c
       0.008076642 0.010925605 0.013412338 0.015583655
0000c0 de 31 8f 3c 51 c1 9c 3c 93 95 a8 3c 87 af 1a 3b
       0.017479833 0.01913515 0.020579135 0.0023603158
0000d0 f4 a3 98 bc fb fb 7f bc 2c 0c 8a bc 9a 5d 80 bc
       -0.018632866 -0.015624042 -0.016851507 -0.015669633
0000e0 86 eb 54 bc 4d 44 1f bc 5e 08 ce bb 5d 5e 80 bf
       -0.012995606 -0.009720874 -0.0062876185 -1.0028797
0000f0 2d c2 d4 39 0d d9 68 3b 33 51 d6 3b c9 5e 19 3c
       0.00040580463 0.0035529763 0.0065404414 0.009360977
000100 fc d2 44 3c f2 84 6d 3c 24 c3 89 3c 0f 6e 82 3f
       0.012013193 0.014497029 0.016816683 1.0189837

linear1.weight f4 [128, 99]
000000 78 80 f1 bd c3 5d ad 3d df 2b 03 bd aa 53 1b 3e
       -0.117920816 0.08465149 -0.03202426 0.15168634
000010 45 06 02 3e a9 0f 95 3d 8c 26 21 3b d3 1c 0d 3e
       0.12697704 0.072783776 0.0024589626 0.13780527
000020 1c 60 57 bd a5 30 18 3d 93 88 a5 3d cf 0c 24 3e
       -0.05258189 0.037155766 0.0808269 0.16020511
000030 e4 16 01 3d 8a 33 81 3e ba 76 48 3d fe 45 84 3d
       0.03151597 0.25234634 0.04894135 0.064586625
000040 52 17 1e 3d 21 25 62 3d 54 0d 2c 3e 4e 4b d2 3d
       0.03859646 0.05521119 0.1680196 0.102682695
000050 73 24 5e 3d 33 53 aa bd 71 5b c0 3d d8 81 6c 3d
       0.05423398 -0.0831665 0.09392441 0.057741016
000060 94 fd 21 3e 18 8c 4c 3e dd 0b 15 3e 99 97 ca 3d
       0.15819389 0.19975317 0.14555307 0.09892196
000070 96 d7 99 3e db b0 ec 3d 85 01 c9 3d 49 68 48 3e
       0.30047292 0.1155717 0.09814743 0.19571032
000080 87 c9 a2 bd 71 7a 1e 3d d2 d4 29 be 9e 64 01 be
       -0.079485945 0.038690988 -0.16585091 -0.12636039
000090 f0 1c 7d bd d9 7d b7 bb 59 96 2a be 29 7f 40 bd
       -0.061795175 -0.005599719 -0.16658916 -0.04699627
0000a0 2b e6 39 3e 1b fc ed bd 02 cf 26 bd 63 4a b9 3e
       0.18154208 -0.11620351 -0.04072476 0.36189565
0000b0 b2 e7 31 be 3d 08 04 bd fe 2c 04 3f 58 8e 99 3e
       -0.17373541 -0.03223442 0.5163115 0.29991412
0000c0 db 0a 33 3e 1c e3 e3 3d 02 1a 05 3d 00 bb ac 3d
       0.1748461 0.11127302 0.032495506 0.08434105
0000d0 e8 6b bc 3e f7 a8 e4 3d 0f f1 c7 3a 67 6c e3 3e
       0.36801076 0.1116504 0.0015254336 0.44418642
0000e0 a7 11 b4 bd 8d c5 6c 3e f1 71 90 3e 04 5d 7b 3e
       -0.087924294 0.23122235 0.2821193 0.24547201
0000f0 bb 69 22 be 6b 76 02 3f 38 7e 0f 3e 01 38 18 3e
       -0.15860645 0.5096194 0.14012992 0.14865114
000100 71 f5 0a 3f 1a 3b 8a bc d4 11 59 3d 19 65 46 be
       0.54280764 -0.016873885 0.052995518 -0.19374503
000110 d4 5d ae bd 24 d1 2b 3d 5f 00 2b 3e ad 82 2e be
       -0.0851399 0.0419475 0.1669936 -0.17042036
000120 dc 31 99 bb c0 be c8 bd 36 6b da bc 89 cc a5 bc
       -0.004675133 -0.09802008 -0.02666245 -0.020239132
000130 1b c1 d2 3d 91 37 31 3e fb af 76 bd f7 c9 77 bc
       0.10290738 0.17306353 -0.06022642 -0.015123836
000140 ac 59 a4 bd 39 46 27 3d b3 18 18 bd 10 9a 6a 3c
       -0.08024916 0.040838454 -0.03713293 0.014318958
000150 43 f5 fb bb 4a bc 27 3c 2b 05 0e bd 69 8a e4 bd
       -0.0076891496 0.010237763 -0.034672897 -0.11159212
000160 6a b9 a5 bd a3 30 59 bd f1 ea 39 3c 97 6b b3 3d
       -0.080920056 -0.0530249 0.011347518 0.087607555
000170 aa 27 fc 3c 47 62 6d 3d cd eb 68 bc 67 de 02 bd
       0.030780632 0.057955053 -0.014216376 -0.03195038
000180 4c fe e1 3b 03 61 9c 3d 20 90 34 3c 66 e7 a0 bd
       0.0068967696 0.07635691 0.01102069 -0.07856636
000190 09 90 cd 39 01 9e 22 bd 47 23 b0 bc 91 f9 7f 3e
       0.00039207962 -0.039701466 -0.021501197 0.24997546
0001a0 65 57 f3 3d ed 80 e1 bd 2e db 66 bd ac 88 bf 3d
       0.118819036 -0.11010919 -0.05636137 0.0935224
0001b0 76 00 7b bd 28 d5 fb 3d 7e f5 5c bd 66 9a c7 bd
       -0.061279736 0.12296516 -0.053945057 -0.09746246
0001c0 3c 62 05 be 2f c5 c9 bd 04 2f 19 be 07 32 e6 3d
       -0.13025755 -0.09852063 -0.14959341 0.11240011
0001d0 4b a4 87 3e 89 fb 3c 3d ab 55 3b 3e 7a dd 95 3e
       0.26492533 0.04613832 0.18294398 0.29270536
0001e0 d4 03 91 bc e9 ad 70 3e 03 0c a1 3d e0 b7 0d 3c
       -0.01770202 0.23503841 0.07863619 0.008649796
0001f0 91 b7 f5 3b bd ee ac bb 47 f1 dc bd e2 34 16 3e
       0.0074986895 -0.0052774833 -0.107882075 0.1466861
000200 39 8c 41 bc f0 63 a8 bc 8c e4 68 3e ae bf 17 bd
       -0.011813217 -0.020555466 0.22743434 -0.037048034
000210 41 c1 96 bc f8 c1 d9 3c dd 85 0f 3f 8d e2 ee bd
       -0.018402698 0.02658175 0.56063634 -0.11664305
000220 d6 ef be 3e bb f2 44 3e c7 ca 22 3d b8 bf 65 3e
       0.37292355 0.1923322 0.039744165 0.22436416
000230 75 18 85 3d f5 ef ce bd 09 50 f2 3d 08 ca 1e 3e
       0.064988054 -0.10104362 0.11831672 0.15506756
000240 d7 43 50 be 21 94 55 be bb 64 19 bd d6 9e 78 3d
       -0.20338379 -0.20857288 -0.03744958 0.060698353
000250 65 b4 ed 3a 75 af bd 3d cd 82 d2 3d cf a9 a0 bd
       0.0018135427 0.092619814 0.102788545 -0.078448884
000260 db 0c e0 3d 7b 8f 55 3d fd 49 77 bd 97 40 1e 3e
       0.10939952 0.052138787 -0.060373295 0.15454327
000270 a9 34 92 3d 6d a8 d3 bb db 90 04 bc 81 c2 9b 3c
       0.071389504 -0.006459287 -0.008091177 0.019013645
000280 19 ab 23 be 16 fe cc 3d 3c 13 8c ba bb 8b 94 bd
       -0.15983237 0.100094005 -0.0010686885 -0.07253214
000290 b2 6d 2f 3d 06 20 07 bd 69 55 71 bc 34 e9 24 3e
       0.042829223 -0.032989524 -0.014729836 0.16104585
0002a0 2d e1 16 be 68 c3 33 bd fa 0f 2f bd a1 4b 05 3e
       -0.14734335 -0.043887526 -0.042739846 0.13017131
0002b0 2d 2a 37 bc bd 7f 1f be e8 ed 2c be ad c9 34 3d
       -0.011179489 -0.15576072 -0.16887629 0.044137646
0002c0 c3 56 28 bd 5b aa b2 3d 6e 40 b6 bd 39 20 93 bd
       -0.041098367 0.08723899 -0.08899008 -0.0718388
0002d0 93 05 9f 3d d2 29 ab bd f4 50 06 3e 64 68 9b 3d
       0.07764735 -0.08357586 0.13116819 0.0758827
0002e0 0b 82 34 3d 86 e8 5e 3e f0 ab fd 3c c8 07 64 3d
       0.04406933 0.21768388 0.030965775 0.055671483
0002f0 92 c5 8e 3d d3 59 47 bd ae 50 84 be 37 6b 25 3d
       0.06971277 -0.048669647 -0.25842804 0.04038545
000300 6c cc c7 3c 0c c2 4c be 5e e1 1f be 03 77 3d bd
       0.024389468 -0.19995898 -0.15613315 -0.046256077
000310 12 c5 10 3e cf 4b 55 3d c7 f2 3f 3d 38 b3 52 3d
       0.14137676 0.05207425 0.04686239 0.051440448
000320 d4 28 75 bd 9c 67 87 bb 48 e8 30 be 0d ce 38 bd
       -0.05985339 -0.0041322242 -0.17276108 -0.04511838
000330 18 e5 84 3d 18 f2 3b 3c fb d2 ca 3b a5 7f c8 bc
       0.06489009 0.011471294 0.0061897016 -0.024474928
000340 56 f4 94 bc 04 88 b3 3d 38 dd f1 3d be 6f 12 be
       -0.018182915 0.08766177 0.11809772 -0.14300439
000350 05 92 18 3e 8a 64 6b bd 66 00 ef bd 48 62 c0 bd
       0.14899452 -0.05746893 -0.11669998 -0.09393746
000360 ed a0 d4 bc ff 9a c2 bd 0b 9f 0a 3d 4e c1 c3 3d
       -0.025955642 -0.095022194 0.03384308 0.09558354
000370 2d ea d5 bd f8 74 a9 3b 57 ca e6 bc d1 ba 03 3d
       -0.10445056 0.0051714145 -0.028172655 0.032160584
000380 25 6e 11 3d c9 06 47 3e 7b 0e 29 be a8 5a 27 bc
       0.035505433 0.19436182 -0.1650943 -0.010214485
000390 e4 16 65 3e 86 fb 65 be 60 42 a6 3d b3 f6 4c bd
       0.22372013 -0.2245923 0.08118129 -0.05003996
0003a0 89 df 9a 3d da e9 8e be 7e ec 1c 3e d5 48 e0 bd
       0.07562167 -0.2791279 0.1532459 -0.109513916
0003b0 4d dd a6 3d c4 b4 17 3e f1 ed 2a be 6b 79 75 3d
       0.081476785 0.1481505 -0.1669233 0.059930246
0003c0 fb 70 4f 3e ed bf 7c be f1 78 2f 3c d4 65 4b 3e
       0.20257942 -0.24682589 0.010709987 0.19863063
0003d0 45 05 32 be 07 52 96 3c 06 c7 85 3d 7c 7f 7d be
       -0.17384823 0.01834966 0.06532101 -0.24755663
0003e0 2f 9f 6a bd f7 d6 ac 3d f8 52 01 be 77 e9 1e be
       -0.057280716 0.08439439 -0.12629306 -0.15518747
0003f0 19 a4 5d 3e 06 e6 62 be 05 10 86 3d 05 39 11 3e
       0.2164463 -0.2215806 0.06546024 0.14181907

linear1.bias f4 [128]
000000 66 f7 6c bd e6 45 44 bd bb 98 6f bd d4 9b d5 bd
       -0.057853125 -0.047918223 -0.058495265 -0.104301125
000010 26 f9 f5 bd 96 36 8d bd 37 7b 6a bc c7 83 08 bd
       -0.12010412 -0.06895177 -0.014311603 -0.033328798
000020 86 e0 76 bd ff 1d f7 bd 7b 77 88 3d da 79 e4 bd
       -0.060272716 -0.12066268 0.06663414 -0.11156054
000030 68 c3 ab 3d f2 a1 68 bd 2c 07 3b ba 93 50 95 3c
       0.0838688 -0.056795068 -0.00071345526 0.018226897
000040 3d 93 79 bd c2 31 cc 3d 36 74 58 bd 1c 12 a2 bd
       -0.060931433 0.09970428 -0.052845202 -0.0791361
000050 e6 f8 ef bd ae 49 28 bc 3e 6c 47 bd 75 e4 b1 3c
       -0.117173955 -0.010271473 -0.048687212 0.021715382
000060 c2 9c 10 bd 66 87 6c bd a5 bc 9a bb dd 7c ac bd
       -0.035305746 -0.057746314 -0.004722195 -0.08422253
000070 5b dd 27 3d 3b bc fc bd 46 38 5d bd 0f 9e f5 3d
       0.040982585 -0.123405896 -0.054008745 0.11993038
000080 f1 7d 2c bd 25 92 59 bd dc c9 b6 3d 78 a5 51 bd
       -0.042112295 -0.05311789 0.0892522 -0.051183194
000090 39 24 10 3d 4d 61 ca 3c c5 3b af bd e6 68 9a bd
       0.035190795 0.0247046 -0.08556322 -0.07539539
0000a0 8a 45 76 bd 21 57 c3 bb be 92 65 bd 80 20 ba 3c
       -0.06012491 -0.0059613143 -0.056048147 0.022720575
0000b0 69 fc 50 bd 47 0a 6d 3c 71 ba 49 3d 5d 2f d0 3c
       -0.051021967 0.014467782 0.04925007 0.02541321
0000c0 a9 ed 17 3d 33 23 c4 bd e1 9a bc bd 6c f2 64 bd
       0.037091885 -0.09577026 -0.09209228 -0.055895254
0000d0 c4 ba be 3c 76 2e 82 bc ed f2 d4 bb b1 9c fe bc
       0.023282416 -0.015891295 -0.0064986856 -0.031080576
0000e0 36 9f 7a bc b5 d6 ed bb 3e 4f 91 bd a0 0d cc bd
       -0.015296748 -0.007258261 -0.070951924 -0.09963536
0000f0 0c 45 9a 3c 7a 23 0c 3c f2 a4 b4 bd 42 f8 cc bd
       0.018831752 0.00855338 -0.08820523 -0.10008289
000100 67 dc ed bd 0a 9e 16 bd 80 e1 a1 3d 2b 51 47 bd
       -0.11614304 -0.03677181 0.07904339 -0.048661392
000110 5d 9a bc bd eb d0 7e 3d 13 83 16 3d 45 5f d5 bb
       -0.0920913 0.06221096 0.036746096 -0.006511601
000120 74 71 cb bc 2a 0f 96 3d 45 5f 66 bd 9c 35 c9 bd
       -0.024834372 0.07327111 -0.0562432 -0.09824678
000130 03 d8 44 bd cb 21 bc ba 01 9e b9 3d 11 62 ad bd
       -0.048057567 -0.0014353333 0.0906334 -0.0846597
000140 59 c4 4c 3d 4e bc d6 3d d4 a3 81 3d 79 18 b0 3d
       0.04999194 0.10485135 0.06330076 0.08598418
000150 86 a7 a4 bd 22 0b c0 3c 09 02 68 3c 20 cf 1d bd
       -0.08039765 0.023442809 0.0141606415 -0.038527608
000160 d5 fa 26 bc c8 ff 0f bd e9 68 ce bd c0 d1 3a 3d
       -0.010191639 -0.03515604 -0.10078604 0.04561019
000170 82 5a 03 3d 98 38 d6 bc 99 bf 31 3d fd 13 ad bd
       0.032068737 -0.026150033 0.043395612 -0.08451078
000180 0e 00 be bd 2f d4 85 bd b4 57 bf ba 5c 2e e3 3c
       -0.09277354 -0.065346114 -0.0014598281 0.027732067
000190 2a ab 76 3b fc a0 41 3d c3 0e be bd 7e 5f ab bd
       0.0037638643 0.047272667 -0.09280159 -0.08367823
0001a0 b8 5a a4 bd 73 15 ac 3c 76 06 62 3a 48 dd 20 3d
       -0.08025116 0.021006322 0.00086221786 0.03927353
0001b0 7c 61 94 bd 70 1e 9c bd a8 85 44 bd e4 e7 8e 3d
       -0.07245156 -0.07622993 -0.047979027 0.069778234
0001c0 ac ca 57 bd 0f dc ad bd d3 5f 15 3d fd 1f 88 bd
       -0.052683517 -0.084892385 0.03646834 -0.06646726
0001d0 68 08 6f 3d d8 fe 89 bb f5 42 9c bd 04 84 ad bd
       0.058357626 -0.004211288 -0.076299585 -0.084724456
0001e0 c6 f0 75 3d 8e 06 83 3d 05 08 ef bc 19 b8 19 bd
       0.060044073 0.063977346 -0.029178629 -0.037529085
0001f0 5a e6 93 3d 3d 2a 00 3d 83 cc d1 bd fc 40 1c bd
       0.072216704 0.03129028 -0.10244086 -0.03814791

linear2.weight f4 [64, 128]
000000 ef 43 e0 bd a1 e2 28 3e c2 ff d8 bd 72 94 6e be
       -0.10950457 0.16492702 -0.10595657 -0.23298815
000010 15 4f 48 3d 40 07 81 bd 13 ff 00 3e fe fc f7 bd
       0.048903544 -0.06300211 0.12597303 -0.12108801
000020 b3 6d a9 3e f3 be 9b bd 11 85 bd bc cf 21 03 be
       0.33091506 -0.0760478 -0.02313474 -0.12805866
000030 c7 1a d2 3e 59 83 96 be 62 7c a2 bc 40 65 8d bd
       0.41036054 -0.29397085 -0.019834701 -0.069040775
000040 62 b0 89 be e1 10 9b 3d ce 46 aa be 84 c5 cf 3c
       -0.26892382 0.07571579 -0.33257145 0.025362737
000050 14 7c bb bd 15 1f 8a 3e 9c 35 6f be 39 ba ef bd
       -0.091545254 0.2697684 -0.23360294 -0.11705441
000060 6c a5 7e 3e 7c dd 8a 3d 3d c5 e9 bd 63 22 6a bb
       0.24867791 0.06780526 -0.11414573 -0.0035726062
000070 77 33 39 3e ff 09 01 3d 48 29 a7 be 8a d7 87 3e
       0.18086039 0.031503674 -0.32648683 0.2653163
000080 e1 97 a6 3d 19 35 96 be ed 96 38 3e 00 cc 2b 3d
       0.08134437 -0.29337385 0.18026324 0.041942596
000090 9c 63 0a 3a dc bf 81 3e 18 07 d9 be 2b c6 3c 3e
       0.0005279125 0.2534169 -0.42388225 0.1843497
0000a0 71 48 d7 3d 55 a3 95 3e ad 53 8e be b6 3a b3 3d
       0.10511864 0.29226175 -0.27798215 0.087514326
0000b0 4b c6 1d be 04 0d 93 3e 66 23 03 3d 8f 12 ca bd
       -0.15407674 0.28720868 0.03201618 -0.09866821
0000c0 88 29 df 3e 31 98 2d be 98 24 6a be 57 f2 b5 bc
       0.43586373 -0.16952588 -0.22865522 -0.022210283
0000d0 6e 13 af be 51 e7 f8 3c f0 3b 29 3d 3f b9 a4 3d
       -0.3419451 0.030383738 0.041316926 0.080431454
0000e0 67 23 57 3e 59 a7 1b 3e 06 ce ad bd c7 dd b7 bd
       0.21009599 0.15200557 -0.084865615 -0.089778475
0000f0 5d 45 83 3e 31 a8 51 3e 52 aa 0d be 34 f6 66 be
       0.25638857 0.20474316 -0.13834503 -0.22554857
000100 77 87 20 bd 1a c9 4e bd 44 ee 63 be 5e ce f6 bc
       -0.03919169 -0.050484754 -0.2225886 -0.0301277
000110 cd fc b9 3c b6 44 1b 3b 5b 0d f3 3c 13 d0 1d bd
       0.022703553 0.0023692078 0.029669454 -0.038528513
000120 0a 5f 77 be 74 4f c4 3e ce ae cc bc 1d 38 25 be
       -0.24157348 0.38341868 -0.024985697 -0.16134687
000130 a6 41 9a 3e 99 74 bd 3e 04 60 81 be 30 c5 31 3e
       0.3012821 0.3700302 -0.25268567 0.17360377
000140 02 8b c8 bd 8a e7 60 3e a7 a7 9c bd 65 0d a1 be
       -0.09792139 0.21963325 -0.07649165 -0.31455532
000150 f9 77 7a 3c af ef 20 be 1a f2 8e be b5 22 2a 3d
       0.015287393 -0.15716432 -0.27919084 0.041537005
000160 35 98 44 3d 79 24 b2 3d 1b d1 25 3d 1f 72 0f 3e
       0.04799672 0.08698363 0.04048262 0.14008377
000170 12 69 34 bd 8f 5a e9 bd 8c ba 62 bd 93 fd fa bd
       -0.044045515 -0.11394226 -0.055353686 -0.12255397
000180 13 5d 05 3d 8e 75 c9 bd 56 24 2f be cb b3 94 be
       0.032559466 -0.09836875 -0.17103705 -0.2904342
000190 7c a7 a6 bd 1e 7e 0e bd 61 0c 78 3d d7 df 21 bd
       -0.08137414 -0.034788243 0.06055868 -0.03952011
0001a0 d0 45 f8 bc 42 67 17 3e f5 63 2d 3e 4a ba 46 be
       -0.030306727 0.14785483 0.16932662 -0.19407001
0001b0 f4 5b 3b be 71 10 69 3d 6a c9 36 be 5c 90 d3 3e
       -0.18296796 0.056900445 -0.17850271 0.41321075
0001c0 9f 78 c9 be 5d e0 46 3e f4 fe 4e bd 03 8f ab be
       -0.3934984 0.19421525 -0.05053611 -0.33507547
0001d0 61 be 0b be 2b 72 90 bd 10 1c c8 3e 97 52 c5 bd
       -0.13646843 -0.07053026 0.3908391 -0.096348934
0001e0 e8 76 77 be aa de 98 be 75 87 19 be 16 ca 08 3e
       -0.24166453 -0.2985738 -0.14993079 0.1335834
0001f0 cf 68 12 be a5 d3 2d be 2d dd 30 3d 84 f5 a4 3e
       -0.14297794 -0.16975267 0.04317968 0.32218564
000200 32 bb 2f 3c 8b 4e ae bd 05 d3 fa bd f8 ce 37 bc
       0.010725783 -0.08511075 -0.1224728 -0.011218779
000210 bd eb fa 3c e6 5c c4 be 7e ba c0 be 67 1d 23 bc
       0.030629987 -0.38352126 -0.37642282 -0.0099557405
000220 8e 63 95 bd eb 46 20 bc a1 3b c8 bd 3d 78 9d bd
       -0.07294379 -0.009782533 -0.09776998 -0.07688949
000230 cb 46 51 bd b2 88 1a be 99 2d 88 3c 43 bf d7 3c
       -0.051092904 -0.15091208 0.016623305 0.026336318
000240 a5 41 78 3e bc 2a 1c be 6b 32 99 bd 40 bc 73 bd
       0.24243791 -0.15250677 -0.074803196 -0.0595057
000250 0d af a5 3d 32 29 9e bd b3 50 87 3d 6b 7f 59 bd
       0.08090029 -0.07722701 0.06607189 -0.05310003
000260 8f f4 bb bd 80 3a 93 bd 8b 44 67 bd 1a 57 9f bd
       -0.09177505 -0.07188892 -0.056461852 -0.07780285
000270 ba 30 c3 bd 3c 9a 7d 3c 6f 8b c1 3c 85 66 86 bc
       -0.09530778 0.015478667 0.023626057 -0.016406307
000280 55 fb 87 bd 67 86 08 be 96 ff ad bd c2 df 85 3c
       -0.06639735 -0.1333252 -0.08496015 0.016342048
000290 56 69 9c bd 5c 17 4c 3c e5 10 72 3c 68 c7 81 bc
       -0.07637279 0.012456741 0.014774536 -0.015842155
0002a0 8f 79 90 bd 79 d0 a3 bd cf 7f 55 3c d6 be 49 3d
       -0.070544355 -0.079987474 0.01303096 0.04925426
0002b0 9e d1 9c 3d 30 52 70 bd 9d 2d aa be c0 8a 9b 3b
       0.07657169 -0.05867213 -0.33237925 0.004746765
0002c0 1b b1 d5 bd 07 1b 17 3d 99 fd 0c bd 22 3f 19 be
       -0.10434171 0.03689101 -0.034421537 -0.1496549
0002d0 c1 97 c8 3c ed 1a fe bd 55 b1 10 be d3 df 05 3e
       0.024486424 -0.124074794 -0.14130147 0.13073663
0002e0 67 a4 d2 bd a3 8b a9 bd 84 24 ec bd cf 4c 0a be
       -0.102852635 -0.08278587 -0.11530402 -0.13505863
0002f0 bc 58 c2 3c 51 d8 bb bd 3d 90 00 3d 0d 39 98 bc
       0.023723952 -0.091721185 0.031387556 -0.018581891
000300 90 5b 9e bd ba 76 58 3d 69 e2 08 3e 59 ce a0 bd
       -0.07732308 0.0528476 0.13367619 -0.07851858
000310 07 d6 17 3e 0f 75 d4 bd 51 19 bc be 28 5b af bd
       0.14827739 -0.1037389 -0.36738065 -0.085623085
000320 a8 f0 6b bb 0b 29 11 bd 40 ee 0a 3e 69 71 aa bc
       -0.0036001597 -0.035439532 0.13567448 -0.020806031
000330 49 1c 23 bd d2 90 56 bc a1 5a 3a 3d 02 6e 8d be
       -0.039821897 -0.013096051 0.045496587 -0.27622992
000340 ef 18 fe bc f1 5e 98 bc e7 a5 c2 bc 2a 17 54 3c
       -0.031017749 -0.01859996 -0.023760749 0.012944976
000350 37 64 5b 3b f0 18 9b bd 2c 09 3d 3d c3 2e 5a be
       0.003347648 -0.07573116 0.046151325 -0.213069
000360 54 21 b6 bd 5c 90 f9 bd 8b 4f 06 bd 24 33 29 be
       -0.088930756 -0.121857375 -0.0327907 -0.16523415
000370 6b 69 78 3c 25 f8 15 bd 43 95 f7 3d bf de fc 3d
       0.015161852 -0.036613602 0.12089016 0.12347173
000380 b3 a4 61 3d 16 a6 28 3c 71 2c 0b 3d 6d 31 f2 bc
       0.05508871 0.010293504 0.03397793 -0.029564584
000390 21 7e 11 be fc 1e 2a bf 3d 81 d2 3c db d9 64 3d
       -0.1420827 -0.6645353 0.025696391 0.055871826
0003a0 8e 78 2e 3b 68 99 cf bc 94 eb 26 be 3f 3b a9 3c
       0.002662215 -0.025341704 -0.16300803 0.020658134
0003b0 80 f5 0d bd 50 17 84 bd e6 09 2b 3b e2 5f 6f be
       -0.034657955 -0.06449759 0.002609843 -0.2337642
0003c0 df ca 86 3c ad a4 81 be c6 25 9a be fd 6e d8 3d
       0.016454158 -0.2532095 -0.30106944 0.10568044
0003d0 d3 0a 65 3d 93 21 8b ba 30 a7 14 be 97 90 2a bb
       0.055918526 -0.0010614864 -0.14516902 -0.0026026124
0003e0 d7 e5 b1 3c 98 8d 78 bc ce c2 09 bd e2 13 33 3d
       0.021716041 -0.015170477 -0.033633046 0.043720134
0003f0 b2 36 1a 3d a4 7f cd bc c2 b3 a6 3d 1e fa 08 be
       0.037649818 -0.025085278 0.08139755 -0.13376662

linear2.bias f4 [64]
000000 57 e9 94 be 1c d7 c4 bc 47 bf 89 3d 0e 22 31 3d
       -0.29084274 -0.024028353 0.067259364 0.043245368
000010 7c 82 b5 3d 7f e3 98 3d ba 47 93 be 6b 54 c4 3c
       0.088627785 0.074652664 -0.2876566 0.023966035
000020 6d e3 7e 3d 55 8a 66 3d 72 66 6c 3d 88 d1 69 be
       0.06222861 0.056284267 0.057714887 -0.22833836
000030 af 51 1f 3d 89 2b e9 3c 56 ce b8 3d fe 49 b9 be
       0.03889626 0.028463142 0.090237305 -0.36189264
000040 99 a8 2f 3d 8f 45 19 be 64 8f 60 3d 28 fd 33 3c
       0.042885397 -0.14967941 0.054824248 0.01098565
000050 cd 63 6e 3d f7 71 77 3d ca 8f 5c 3d 92 e9 68 be
       0.058200646 0.06041142 0.053848065 -0.2274535
000060 9d 4f 82 3d 3d 63 44 be 75 5b cb 3c 2c 4b 6d 3d
       0.06362841 -0.19178481 0.024823884 0.057933018
000070 83 79 c3 3d 15 43 86 3d ec 97 18 3e ad 59 b4 be
       0.09544661 0.06555764 0.14901704 -0.35224667
000080 7b 5e 15 bc a6 7c 39 3d 69 54 79 be cc f8 d7 3d
       -0.009116764 0.04528489 -0.24348606 0.10545501
000090 77 3d 0b be dc 94 63 3d 94 80 a3 be 45 97 4e 3c
       -0.13597666 0.055561885 -0.31934035 0.012609308
0000a0 60 50 5a 3d 46 67 f6 3c 3b b9 6c be 54 c0 a1 3d
       0.053299308 0.030078541 -0.23117535 0.07898012
0000b0 f5 32 b0 3d c1 86 01 bd df 4a ad 3d c2 24 9d 3d
       0.08603469 -0.031622652 0.08461546 0.076730266
0000c0 2c cb 6b be a9 92 7c 3d 1f f8 64 3d 48 ce 03 3e
       -0.23026723 0.061663304 0.05590069 0.12871659
0000d0 df 00 5c 3d 1e 0c c3 3d f0 c5 c4 3d 2d 73 71 3d
       0.05371177 0.095237955 0.09608066 0.05894773
0000e0 7f 48 5e 3d 2f fb bf 3c d3 64 10 3e 6f b3 33 3d
       0.054268356 0.023435203 0.14100961 0.043872293
0000f0 f1 be 9e be 53 0e dc 3d 88 b3 45 3d 24 db 41 be
       -0.31005052 0.1074492 0.048266917 -0.18931252

linear3.weight f4 [64, 64]
000000 86 f6 a4 be 47 9a 35 3e 94 67 4e 3d 29 f0 0e 3e
       -0.32219332 0.17734633 0.05039175 0.13958801
000010 3b 2b dd bd ad b1 b6 bc 98 29 38 be 48 8c 1d 3e
       -0.10799261 -0.02230152 -0.17984617 0.15385544
000020 2d 5d ba 3d 3a 02 ad bd 61 1f 11 3e b9 93 e4 bd
       0.09099803 -0.0844769 0.14172126 -0.11160988
000030 af 58 71 3d f6 d7 15 3d 13 5d 0a 3e 83 a6 b8 bd
       0.058922466 0.03658291 0.13512067 -0.090161346
000040 fb 50 ca 3d d1 b3 3c be cf 87 1b 3c f3 1f 0e 3d
       0.09878727 -0.1842797 0.0094928285 0.034698438
000050 b0 f7 64 bd 49 20 b5 bd b4 61 8f bd c9 54 04 bd
       -0.055900276 -0.088440485 -0.07001057 -0.03230742
000060 f2 18 8c be 4d 1f 7c be 74 69 a7 bc 31 fa 86 be
       -0.27362782 -0.24621315 -0.020436026 -0.26362756
000070 10 37 96 3d 72 21 a8 3c a0 32 39 bd d3 04 09 be
       0.07334721 0.02052376 -0.045214295 -0.13380747
000080 4d 7c 0a 3c 95 2c 7a bd 71 22 e6 bd 7a 6c db 3d
       0.008452487 -0.061077673 -0.11237038 0.1071405
000090 36 f0 84 3d 57 29 2b 3e a3 d7 ea bd 72 87 f5 3d
       0.06491129 0.16714989 -0.11466911 0.11988725
0000a0 12 d6 96 3d 8c e0 51 bc 18 c1 8e be ca 47 a6 bd
       0.073650494 -0.012809884 -0.27881694 -0.081191614
0000b0 f5 08 96 bb 8c 00 87 be e1 46 1d 3d 0d 76 4e bd
       -0.0045787045 -0.26367605 0.038397674 -0.05040555
0000c0 42 e8 72 be 82 32 12 3e 7f d8 6a 3d 97 e3 43 3d
       -0.23721412 0.1427708 0.057335373 0.04782447
0000d0 83 97 19 3e 62 63 d7 bc 8b 72 90 bd cc 68 27 bd
       0.14999203 -0.026292507 -0.07053097 -0.040871426
0000e0 ee 29 be 3d 04 62 34 3d e3 3a a8 bc 86 fe 00 3e
       0.09285341 0.044038787 -0.020535892 0.12597093
0000f0 a9 77 7d be 30 ec 61 bd 69 de e5 3d 63 89 58 be
       -0.24752678 -0.055156887 0.11224062 -0.21146159
000100 e6 71 00 be f7 87 48 3e be 0a 3a bd f7 2d e3 3c
       -0.12543449 0.19583116 -0.0454204 0.027731879
000110 32 41 c7 3c 08 8f 2d be 1e 0f 18 be 86 74 90 bc
       0.02432308 -0.16949093 -0.14849517 -0.017633688
000120 82 74 e2 3d 5f be b5 3c a4 d7 81 3c 60 9b 38 bd
       0.11057378 0.022185503 0.015849896 -0.045070052
000130 04 e5 1f bd 4e da 3e ba 2e 25 00 3d f6 0c 0f be
       -0.039036766 -0.0007280455 0.031285457 -0.13969788
000140 87 16 18 3e ef 47 ea bd a8 88 ed 3d ca d2 99 bc
       0.14852343 -0.114395015 0.11598331 -0.01877727
000150 6e 16 96 bd a5 74 43 be ea 06 df 3b 6b a4 a7 bd
       -0.07328497 -0.19087465 0.006806244 -0.08185657
000160 8b a3 20 be ce 51 e6 bc a0 1e bc bd 98 1b ca bd
       -0.15687387 -0.02811518 -0.09185529 -0.09868544
000170 80 3a cd 3d bf a6 bb 3d ce be 5a be 66 01 ac bd
       0.100209236 0.09162664 -0.21361849 -0.08398704
000180 9a b6 50 3d 15 f7 99 3d 58 25 50 be 13 a3 c5 bd
       0.050955392 0.0751783 -0.20326746 -0.096502446
000190 f0 11 13 be 06 47 a2 bd 1c 73 33 be 45 14 d4 bd
       -0.14362311 -0.07923703 -0.1752438 -0.103554286
0001a0 31 08 c7 bd 46 4b 1a 3e 65 62 a0 be 54 88 b1 bb
       -0.09718359 0.15067777 -0.3132507 -0.005417863
0001b0 99 72 87 bd a6 a9 9f be cb 36 f3 3d 29 29 ee 3c
       -0.06613655 -0.3118412 0.11875685 0.029072361
0001c0 41 85 4f be 47 a0 e0 bd 33 b3 0b 3d 05 5f 78 bc
       -0.20265676 -0.109680705 0.034106445 -0.015159373
0001d0 d0 91 96 bd ec fa c0 3d eb cc a1 3c 1c 41 3e 3d
       -0.0735203 0.094228595 0.019751033 0.046448812
0001e0 8d 9b 0e 3d bb 03 99 3d 5c 5e 9b 3c cd 4e bb 3d
       0.034816314 0.07471415 0.018965892 0.091458894
0001f0 83 2a 89 be fd e7 a4 3d 2e 31 e1 bd ed 3c 13 bd
       -0.26790246 0.08052061 -0.109957084 -0.035946775
000200 ee 61 52 be 96 84 94 bc c4 b2 75 3d 4b 92 d9 bc
       -0.2054517 -0.018129628 0.059984937 -0.026559016
000210 c0 9c 0a 3a dc 89 43 bd 87 94 05 be 9d e2 be 3d
       0.000528764 -0.047738895 -0.1304494 0.09320567
000220 25 8b da 3b 91 e6 bb 3d 6f a2 96 bc e6 c0 b0 bd
       0.0066694194 0.091748364 -0.018388001 -0.086305425
000230 9a c6 8c 3d 05 21 79 3d 6e da d6 3c a4 f3 25 be
       0.06873818 0.060822506 0.026227202 -0.16206223
000240 f8 82 8b 3c 7c 3b 9c be 97 38 d3 bb ba 7e 9c 3d
       0.017030224 -0.30514133 -0.006445955 0.07641359
000250 fe 2f 4a bd f6 1b fb bd 0e c6 1e be ee 61 b6 bc
       -0.049362175 -0.122611925 -0.1550524 -0.022263493
000260 ac 04 f8 bd 3d 8b 02 be 32 45 84 3d df e3 99 be
       -0.12110266 -0.12748428 0.064585105 -0.30056664
000270 24 5b 87 3d 4a 41 00 3e 3d b6 58 be 81 bc 32 be
       0.066091806 0.12524906 -0.21163268 -0.17454721
000280 13 d8 ce bc 7e 32 8b 3d 30 f0 ee bd 78 38 94 bd
       -0.025249517 0.0679674 -0.11666906 -0.07237333
000290 09 5f 1e be 00 37 11 3e 43 57 97 be 37 01 5c bd
       -0.1546594 0.14181137 -0.29558763 -0.053712096
0002a0 ed db c0 bc 58 d1 e0 3d bc fd 90 be 26 d4 6c be
       -0.023542369 0.10977429 -0.28318584 -0.23127803
0002b0 ad 91 e5 3d 5d 1d 97 be ad 1f 44 3d 0f 59 55 3d
       0.11209426 -0.2951459 0.04788177 0.052086886
0002c0 8c 32 52 be b2 c1 10 3e c5 2d 53 3d 67 33 3f 3d
       -0.20527095 0.14136389 0.05155732 0.04667988
0002d0 41 8a f4 bc 84 9e 18 3d 80 19 12 3e 42 77 1d 3e
       -0.02985108 0.037260547 0.1426754 0.15377524
0002e0 ed b9 58 bc 02 f0 d3 bc fb 5d 5c be 9a 33 c6 3d
       -0.013227922 -0.02587128 -0.21520226 0.09677811
0002f0 ae e7 7a be 4c d9 99 ba c1 f1 39 bd 67 6e ba bd
       -0.24502441 -0.0011737733 -0.04539657 -0.09103089
000300 e2 b6 d3 3d 01 1e ba 3c c5 07 df 3d b1 4b d5 bd
       0.103376165 0.022719385 0.10890154 -0.104148276
000310 82 57 86 bd fa 92 18 3e 8e 45 87 3d 0e f3 1b be
       -0.065596595 0.14899817 0.066050634 -0.15229437
000320 b4 c2 d2 bb ec 11 28 bd 43 bd 1b bc 3b 7a c5 3d
       -0.006431902 -0.041032717 -0.009505573 0.09642454
000330 a7 3a 9d bd 07 4a 0f 3c 22 cd 53 bd 33 26 41 3e
       -0.07677203 0.008745677 -0.0517093 0.18862228
000340 52 78 dc bc bc b7 8e 3e 58 c6 b3 bd 3f e7 2a be
       -0.026912842 0.27874553 -0.087780654 -0.16689776
000350 a5 bf 85 bd 8b 20 c7 3d d9 b6 20 bb 27 ed 7b bd
       -0.06530694 0.09723004 -0.0024523048 -0.061505463
000360 a0 e2 d8 3d fb 87 cd 3c e1 f9 04 be fc a5 97 3e
       0.105901 0.025089255 -0.12985946 0.29618824
000370 ae 9f d7 bd 3b cb 64 bd 60 2b 2b 3e 32 5d 95 3e
       -0.10528503 -0.05585788 0.16715765 0.29172665
000380 c7 93 b0 3d 32 c9 09 be 9a 0e 46 3d 8d 1d c9 bd
       0.08621936 -0.13455656 0.04835377 -0.098200895
000390 ac e4 64 3a 25 c3 f1 bd 04 a8 5c 3e e9 f3 d9 3c
       0.00087315845 -0.11804799 0.21548468 0.026605563
0003a0 d9 33 96 3d 41 51 d5 bd 20 10 9f 3e da 1b 56 3e
       0.07334108 -0.104158886 0.3106699 0.20909062
0003b0 64 38 30 3d ca 45 45 3e 8e 38 a7 3c 9a aa af bd
       0.04302253 0.19264904 0.02041271 -0.085774615
0003c0 4b 53 95 3e 17 cf f0 bd cc 96 cb 3d 48 59 2f bc
       0.2916511 -0.11758249 0.099408716 -0.010702439
0003d0 e3 07 d1 3c d4 6f 9a 3d 16 46 b2 3d 9e cf d4 bd
       0.025516456 0.07540861 0.08704774 -0.10391162
0003e0 8e 7a a5 bd 50 47 46 3c fc 4a 71 3d 01 45 c6 bd
       -0.08080016 0.012101963 0.0589094 -0.0968113
0003f0 6a 08 89 3e e1 9b c2 3d c7 37 10 bd 71 46 3d 3e
       0.26764232 0.09502388 -0.035209443 0.18483903

linear3.bias f4 [64]
000000 0d e6 6b 3e 41 53 9f 3d a5 c9 d1 3b b9 8a 80 bd
       0.23036976 0.07779551 0.0064022117 -0.06276459
000010 75 87 82 3c 23 f2 11 3e 95 9f 06 bd bb 8b ba bc
       0.015933732 0.14252524 -0.032867033 -0.022771707
000020 36 b2 73 be ad 8d 29 be 7d 9b 39 3e 1d 1d 26 bd
       -0.23798451 -0.16557951 0.1812572 -0.04055511
000030 5f 1e 44 3e 6a ad 02 be 34 b7 fb 3d 4d 0a 1b be
       0.1915221 -0.12761465 0.122908026 -0.15140648
000040 5f 4a 9c bc 0d 19 5c 3e 80 02 44 3d 82 ba cf 3d
       -0.019078432 0.21493931 0.047853947 0.101429954
000050 ea ad 41 3e fd 7c 05 3e d4 b9 0a 3d 01 a3 85 ba
       0.18913999 0.1303596 0.033868626 -0.0010195674
000060 da b8 44 3e d2 65 13 be a0 c9 5f be 25 91 48 be
       0.1921114 -0.1439431 -0.21854258 -0.19586618
000070 b2 a8 76 3c d3 c0 59 3e 04 f7 69 3d e1 55 70 3e
       0.0150548685 0.21264963 0.057120338 0.2347026
000080 e0 a4 0a 3e 0f d1 b5 bc 27 1b 32 3c 64 9b 73 3e
       0.13539457 -0.022194413 0.010870731 0.23789746
000090 d9 16 a1 3d 73 48 14 be 37 4a 1f bc 75 14 82 bd
       0.07865686 -0.14480762 -0.009722284 -0.06351558
0000a0 4a e3 df 3c 19 43 65 3e a5 4a 1f bd d5 5e 95 3d
       0.02733006 0.22388877 -0.038889546 0.072934784
0000b0 5d 70 ef 3d 96 05 38 3d c8 71 69 be 00 d4 e2 bd
       0.116913535 0.044927202 -0.2279731 -0.11075592
0000c0 dc 51 f2 3d f4 9c ba bd 01 44 74 bd 85 82 38 be
       0.1183202 -0.09111968 -0.059635166 -0.18018539
0000d0 12 4b 5c 3e 44 9c 14 3e ae 7a f0 3d f7 1a be bd
       0.21513012 0.14512736 0.11742149 -0.09282487
0000e0 6f 19 39 3d 7e 5a 4b 3d ff b6 34 bd fc 4e 35 be
       0.04519027 0.049646847 -0.04411983 -0.17705911
0000f0 81 5b 55 3e 3a 8c 60 be b1 a7 25 3c a6 d3 d9 3c
       0.20835687 -0.21928492 0.0101107815 0.02659018

embedding_layer.weight f4 [32, 64]
000000 d7 5e 0a 3e b0 b8 9e bd da 8f a6 bd aa 9b 2d 3c
       0.13512741 -0.0775007 -0.08132906 0.010596195
000010 b1 dd e0 3d 11 a3 c3 3a 38 d7 a2 bb ac 21 df 3d
       0.10979784 0.0014925917 -0.0049695037 0.10895094
000020 8f f5 83 bd 8d 03 b1 bd 4a a4 58 bd 85 cd 0d bc
       -0.06443321 -0.086432554 -0.052891053 -0.008654957
000030 37 bf ae 3d 12 8e a2 bd 23 a8 a4 bd 60 d2 75 bc
       0.08532565 -0.07937254 -0.08039882 -0.015003771
000040 c1 2c 9d bd 02 c4 53 3a 56 cb 36 bd 65 17 54 3d
       -0.07674552 0.00080782187 -0.04462751 0.051780123
000050 f5 a3 d8 bc 3b df 72 3d 18 bc 88 3d 93 86 fb 3c
       -0.026445368 0.05929492 0.06676501 0.030703818
000060 55 4b ed 3d 67 7d 25 be 3c 4a 19 be 32 67 1c be
       0.11586634 -0.16161118 -0.14969724 -0.15273741
000070 95 ab ab bd 5b e7 a4 3d 21 e6 01 3e 8d 46 f4 bc
       -0.08382336 0.0805194 0.12685443 -0.029818797
000080 c0 79 db 3d 31 44 85 bd 8c 5a 94 bd a2 14 57 3d
       0.10716581 -0.06507147 -0.07243833 0.05250991
000090 b0 4c ef bc 7f 12 8f bd 83 72 af 3d 93 4d 08 be
       -0.029211372 -0.0698595 0.08566763 -0.13310842
0000a0 72 12 4a bc 5e f6 f0 3d 45 19 69 3c 18 f7 12 3d
       -0.012333499 0.11765741 0.014227216 0.03588018
0000b0 30 90 9a bd 2b 09 b2 bd 7e cd 80 bd 28 c2 94 3d
       -0.07547033 -0.08693155 -0.062891945 0.07263595
0000c0 af 35 43 bd fb 9a 15 be 59 f7 e8 bc 23 68 01 3c
       -0.04765862 -0.14609902 -0.028438257 0.007898363
0000d0 5d 03 f5 3d fe 8d c9 3d ab 20 da bc 39 9b e7 bd
       0.11963532 0.09841536 -0.026626905 -0.11308903
0000e0 ea 27 3b bc 87 9b 94 bd 47 a5 8e bd ed d1 e4 bd
       -0.0114230905 -0.07256227 -0.06965118 -0.11172853
0000f0 0a 88 58 3c 3b 4b bd bd e7 b2 6d 3d 0f 0f 49 bd
       0.013216028 -0.09242865 0.058031943 -0.049086627
000100 3d fe fc bd 34 57 bb bd ba 59 a1 bd 5c 66 ae bd
       -0.123531796 -0.09147492 -0.07878442 -0.08515617
000110 c8 f6 c8 bd ca 73 d6 bd 0f ae 86 3d bc 2b 9c 3d
       -0.09812695 -0.10471304 0.06576168 0.07625529
000120 51 e9 87 bc ef 22 5e 3d 63 7d b7 3d ad c6 95 bd
       -0.016590746 0.054232534 0.089594625 -0.07313285
000130 70 cc 51 bd ee 71 92 3d f8 65 f1 bd c7 41 07 3e
       -0.051220357 0.071506366 -0.11787027 0.13208686
000140 81 da 00 be 36 7c 50 bc b8 0a e4 bd d5 a7 d4 bd
       -0.12583353 -0.012724927 -0.11134857 -0.10383574
000150 d4 8d 38 3d a1 31 88 3d e9 46 42 bd 1c d4 b0 bd
       0.045057133 0.06650091 -0.047430906 -0.08634207
000160 b7 dc 61 3c c9 95 e8 3d 8e 1c 74 bd 74 87 f7 3d
       0.013785533 0.11356694 -0.059597544 0.120863825
000170 2f c0 c5 bd 91 52 22 be 7d d7 5c 3d b0 54 a8 3c
       -0.09655797 -0.15851809 0.053916443 0.020548195
000180 4b 47 ce bd c5 f4 fd 3d cc 1d 04 be 4e 4b f2 bd
       -0.10072192 0.12400202 -0.12901992 -0.118307695
000190 ce ef ce bd b4 e4 36 bd e5 56 6a 3d b9 ab 0d 3e
       -0.10104333 -0.044651702 0.057211775 0.13835038
0001a0 da 29 9d bd 02 f3 0e bd 96 03 ad bd 3d b4 a0 bc
       -0.07673998 -0.03489972 -0.084479496 -0.019617194
0001b0 be 15 1a be 7a 4a f4 bb 70 f9 30 3e d9 3a 0e 3e
       -0.15047356 -0.0074551674 0.17282653 0.13889636
0001c0 ce fc d6 bd 58 00 cd 3d 19 44 81 bc 51 be 54 3d
       -0.104974374 0.10009831 -0.015779542 0.051939312
0001d0 cc 09 24 3c 89 e9 1d be 16 32 12 bd b3 9c 83 3d
       0.010012101 -0.15421118 -0.035692297 0.064263724
0001e0 96 cd 87 bd 3d 38 b5 3d ff 50 48 3d 84 a3 69 bd
       -0.06631009 0.08848617 0.04890537 -0.057040706
0001f0 f5 86 d9 3c a7 00 ce 3d aa 78 cd bd fe eb 67 bd
       0.02655361 0.10058718 -0.100327805 -0.056621544
000200 60 7f cb 3d 43 96 ff 3d 61 ee 22 3e a6 13 2f 3d
       0.09936404 0.12479832 0.15911247 0.042743348
000210 4a 9f 6d bb 00 e2 22 3e ad 79 ca 3d 8e 05 33 bd
       -0.0036258274 0.15906525 0.09886489 -0.04370647
000220 86 9b 60 bd a2 d1 d3 3c ee 8e 8e 3d e6 0e cf bd
       -0.05483582 0.025856797 0.069608554 -0.101102635
000230 3c 17 15 3e 7d d4 02 be c2 aa b4 3d 2e 8e 47 3d
       0.14559644 -0.1277637 0.08821632 0.048719577
000240 e9 c1 82 3d e0 2e 05 3e e6 8d 8c bd f3 d5 6a 3d
       0.06384642 0.13006163 -0.068630025 0.057332944
000250 4b 39 0f 3e a9 21 dc bc 1e 1e b3 bd a6 f1 3c 3d
       0.139867 -0.02687152 -0.08745979 0.04612889
000260 25 ff 10 bb 00 86 0e be e1 60 22 be 2d 23 9d bd
       -0.0022124734 -0.13918304 -0.15857269 -0.07672725
000270 a8 b3 e3 3d f3 5f 10 3d 98 4b 98 bb 51 f7 47 3e
       0.11118251 0.035247754 -0.0046476834 0.19527937
000280 9c 08 8a 3d 90 bc b9 bd 4c cb 2d 3e 7e 57 3a 3c
       0.06739923 -0.090691686 0.16972083 0.011373399
000290 1d 34 e8 39 b4 99 04 3d 8b 02 53 bc 8e ea a1 bd
       0.00044289316 0.032373145 -0.012879024 -0.07906066
0002a0 4d a3 d4 3c 72 ad 60 3c f8 4e b3 bd f6 99 68 3d
       0.025956774 0.013713228 -0.087552965 0.056787454
0002b0 ba 2e ab 3b 62 8b 80 3d 00 a7 34 be 82 f9 a4 3d
       0.005224076 0.06276585 -0.1764183 0.08055402
0002c0 5d 59 16 3d a1 bc e9 bc e7 74 a6 bd a7 86 7a 3b
       0.036706317 -0.028532328 -0.08127766 0.0038227232
0002d0 ad ba 90 3c c5 da 1f 3e 9d 84 95 bc 8f 5d 49 bd
       0.017667139 0.15610798 -0.018251712 -0.04916149
0002e0 9c 18 41 bd 3f 2a 12 3e ed 8b 22 bc 87 33 d9 39
       -0.04714261 0.14273928 -0.009921056 0.00041427856
0002f0 bf ef 00 3e f9 d9 e3 bd df e3 87 bc 6b 69 1a bd
       0.12591456 -0.11125559 -0.01658815 -0.03769819
000300 0e ae 8c 3d 53 8b 9b bd 36 1c a2 3d 23 58 7b 3d
       0.06869136 -0.07594933 0.07915537 0.06136335
000310 2c a3 08 be f6 77 2a 3e 63 67 63 3d c3 25 aa 3d
       -0.13343495 0.16647324 0.05551852 0.08307984
000320 cc 16 a4 bd f7 80 52 bd 5b 0a 4f 3d 4d a2 a4 3d
       -0.08012161 -0.05139252 0.050546985 0.08038769
000330 d0 b7 61 3a 20 2a 7e 3b 2f 32 aa bd 87 02 7a bd
       0.0008610459 0.0038782433 -0.08310353 -0.061037567
000340 87 79 34 bd 8c 8d 15 3e 45 92 87 3d f4 57 52 bd
       -0.04406121 0.14604777 0.066196956 -0.05135341
000350 ca 18 ac bc f6 87 f2 3c 7b 2d 6b bc c8 cf 85 3c
       -0.021007914 0.029605847 -0.014354105 0.01633443
000360 04 f3 dd 3b be 23 77 bd 18 2a 14 be ed b2 1f be
       0.0067733545 -0.06033682 -0.14469182 -0.15595599
000370 5e ae 92 bd 73 a3 e8 3c 7e e6 cd bc d0 af 66 3d
       -0.07162164 0.028398251 -0.025134321 0.05632001
000380 f7 e3 a6 bd 24 66 f3 bd b2 66 a1 3d ce 4a 8d bc
       -0.081489496 -0.11884716 0.07880916 -0.017247584
000390 f2 73 60 bd b4 5a f3 bc 1a 3f e8 bd d2 fb 3e 3d
       -0.054798074 -0.029706337 -0.11340161 0.046626873
0003a0 db 88 e2 3d b7 78 20 3d 09 ac f1 3b 2a ce 79 3d
       0.11061259 0.039177623 0.0073752445 0.06098763
0003b0 d6 ab 9e 3d 92 84 1b 3c 6a b0 9f bd 46 af d9 3c
       0.07747619 0.009492056 -0.0779732 0.026572835
0003c0 ef fe 22 3d d2 8f f6 bd f1 ed 14 be f9 88 44 bd
       0.039793905 -0.1203915 -0.14543892 -0.04798219
0003d0 2f d0 1b 3d 0b 46 b1 3d 30 53 de 3d ae b4 33 be
       0.038040336 0.08655938 0.108557105 -0.17549393
0003e0 c8 0e a0 bd 90 62 ca 3d 67 bc 29 be 4c 5a aa bb
       -0.07815319 0.098820806 -0.16575776 -0.0051987525
0003f0 30 13 ec 3d c5 bc cb bd 83 c8 d4 bd ba 74 91 bb
       0.11527097 -0.09948114 -0.10389807 -0.0044389637

embedding_layer.bias f4 [32]
000000 34 2f 19 3e 4f fb 30 be 4f 9e f1 3d be d6 11 3e
       0.14959413 -0.17283367 0.11797773 0.14242074
000010 68 50 7f 3e e1 d9 94 bc c1 58 3b 3e 02 b4 07 3e
       0.24933016 -0.018170299 0.18295576 0.13252261
000020 33 dd 04 be 16 e6 13 be 02 1c ec bd e8 32 34 be
       -0.12975006 -0.1444324 -0.115287796 -0.17597544
000030 99 51 19 be 52 51 cd 3d 5e 16 5a 3e 6f e2 10 3e
       -0.14972533 0.10025276 0.21297595 0.14148878
000040 da d2 bc 3d 41 32 33 3c 94 2c 7d 3e ee b2 6f 3d
       0.09219904 0.010937274 0.24724036 0.05852025
000050 aa 95 38 3e 40 df 49 bd 6a 46 63 bd cd b8 30 be
       0.18025842 -0.049285173 -0.055487074 -0.17257996
000060 08 01 23 be 45 78 d2 3d 7a f3 f3 3c 9b 0e 12 3e
       -0.15918362 0.10276846 0.029779185 0.14263384
000070 a7 56 a2 3b b8 3b 4d be 84 7c c9 bc 96 68 aa 3d
       0.0049541774 -0.20042312 -0.024595506 0.083207294

classifier.weight f4 [1, 32]
000000 12 c2 52 3d 6c 21 b6 bd 74 1c 50 3e 45 92 9d 3d
       0.05145461 -0.088930935 0.20323354 0.07693914
000010 87 f3 51 3e bc 09 85 b8 f3 a0 01 3e bd e3 18 3e
       0.20503055 -6.3437474e-05 0.12659054 0.14930625
000020 e3 d3 5f be c7 af 64 bd d0 80 d6 bd c0 ff f9 bd
       -0.21858172 -0.055831697 -0.10473788 -0.122069836
000030 98 45 2f be 9a dc ee 3d aa 52 a7 3d 98 e7 39 3e
       -0.17116392 0.1166317 0.08170064 0.18154752
000040 c7 9e 66 3d d9 b0 ec 39 43 ed 36 3e 73 7a 1d 3e
       0.056303766 0.0004514519 0.17863946 0.15378742
000050 60 85 39 3e 62 c0 a9 bd ef 61 f3 bd eb 11 c1 bd
       0.18117285 -0.08288647 -0.11883914 -0.09427246
000060 b2 44 f2 bd f9 a1 9d 3d f4 d4 ff 3d 20 b1 33 3e
       -0.11829509 0.076969095 0.124917895 0.17548037
000070 c4 f6 57 3d a5 fb 3c be 28 c3 3c be 27 e4 48 3d
       0.05272557 -0.1845537 -0.18433821 0.049045708
