models/ScatterNet-trained.pth (torch, 114010 bytes, 10 tensors)

scatter.wavelet_constructor f4 [4, 17]
0	0xbd4fed8a	-0.050763644
1	0xbf850b69	-1.0394107
2	0x3f80aa73	1.0052017
3	0x3c93a2fe	0.018022057
4	0x3cb1eb26	0.021718573
5	0x3cabedac	0.020987354
6	0x3c92df31	0.017928692
7	0x3c619445	0.01376826
8	0x3c172900	0.009226084
9	0x3b9a46a5	0.0047081285
10	0x39e2da9e	0.00043268962
11	0xbb6506fc	-0.003494679
12	0xbbe6790f	-0.0070334743
13	0xbc26caf1	-0.010180221
14	0xbc5432a4	-0.012951527
15	0xbc7be586	-0.015374547
16	0xbc8f33c9	-0.017480748
17	0x3d1ae1af	0.037812885
18	0xbcb4e6c2	-0.02208269
19	0xbf81d551	-1.0143224
20	0x3a09ec57	0.00052613526
21	0x3f814808	1.0100107
22	0x3c63b377	0.013897768
23	0x3c6901e4	0.014221642
24	0x3c5050db	0.01271459
25	0x3c2b78b9	0.010465794
26	0x3c040517	0.008057854
27	0x3bbcc51e	0.005760803
28	0x3b70b9ad	0.0036731765
29	0x3aece30f	0.001807304
30	0x391030af	0.00013751046
31	0xbab43201	-0.0013747812
32	0xbb3577af	-0.0027689745
33	0xbb85af53	-0.004079738
34	0x3db65e4d	0.08904705
35	0xbdd1f33b	-0.10251471
36	0xbda54b12	-0.08070959
37	0xbd8531c5	-0.065036334
38	0xbf86df15	-1.0536829
39	0xbd37a2a4	-0.04483284
40	0xbd1a1981	-0.03762198
41	0xbd014682	-0.031561382
42	0x3f793fdc	0.97363067
43	0xbcb3332f	-0.021874992
44	0xbc92fb39	-0.017942058
45	0xbc6d29b8	-0.014475279
46	0xbc3ab476	-0.011395564
47	0xbc0d8d63	-0.008639666
48	0xbbc9b407	-0.006155494
49	0xbb7fa0de	-0.0039005796
50	0xbaf15fd9	-0.0018415406
51	0x3d277b0e	0.04088884
52	0xbc98534c	-0.018594407
53	0xbcd11dfe	-0.025526997
54	0xbcc3fc8c	-0.023924135
55	0xbca8a570	-0.0205867
56	0xbc88056b	-0.016604146
57	0xbc4aedd0	-0.0123858005
58	0xbc053d2b	-0.008132259
59	0xbf8080aa	-1.0039265
60	0x39243306	0.00015659267
61	0x3b87556a	0.004130055
62	0x3c0293c9	0.007969805
63	0x3c3f2144	0.011665646
64	0x3c792bf5	0.015208234
65	0x3c984a50	0.018590122
66	0x3cb2a233	0.021805858
67	0x3f832e96	1.0248592

linear1.weight f4 [128, 99]
0	0xbc913318	-0.017724559
1	0x3daa2fd3	0.08309903
2	0x3c707f2f	0.01467876
3	0x3e1457b0	0.14486575
4	0xbe4db427	-0.20088254
5	0xbd5c3f36	-0.05377122
6	0x3cfc1916	0.03077368
7	0xbdc51a52	-0.09624161
8	0x3cb24a09	0.021763818
9	0xbd710091	-0.05883843
10	0x3d08d346	0.03340461
11	0xbe0336b2	-0.12813833
12	0xbcfd6f7f	-0.030936955
13	0xbddfad6b	-0.10921749
14	0xbcfe2e14	-0.031027831
15	0x3d43cd01	0.04780293
16	0xbe80b201	-0.25135806
17	0x3dd86c20	0.10567498
18	0x3e06f566	0.1317955
19	0xbd347eca	-0.044066228
20	0xbadc7672	-0.0016819967
21	0x3db694ed	0.08915124
22	0xbe0fa4be	-0.14027688
23	0x3bfbaa68	0.007680226
24	0x3e0d0b71	0.13773896
25	0xbe26b7aa	-0.16281
26	0x3d1ad8db	0.037804466
27	0xbe5d619b	-0.21619265
28	0xbd3c250e	-0.045933776
29	0xbdee95cc	-0.11649665
30	0x3dc5f5a1	0.096659906
31	0xbe228b00	-0.15873337
32	0xbd082c8f	-0.03324562
33	0xbb4bbdff	-0.0031088588
34	0xbe396f2e	-0.18108818
35	0xbe8ee241	-0.27906993
36	0x3d6def8b	0.058089774
37	0xbe6aba1e	-0.2292256
38	0xbcae8836	-0.021305185
39	0x3da8ea6a	0.08247836
40	0xbe396e2a	-0.1810843
41	0xbe5acc19	-0.2136692
42	0x3c1b4937	0.009477905
43	0xbdc8045f	-0.09766459
44	0xbd07c17c	-0.033143505
45	0x3d79aa9e	0.06095373
46	0xbdb00975	-0.08595554
47	0x3b944759	0.004525107
48	0x3e7209ac	0.23636502
49	0xbdd1c3d8	-0.10242432
50	0x3e3d3186	0.18475923
51	0x3e176ca9	0.14787544
52	0xbe4fbe33	-0.20287399
53	0x3d577cc0	0.052609205
54	0xbd5c7e0c	-0.053831145
55	0xbda0334d	-0.07822285
56	0xbe782881	-0.24234201
57	0x3e5e62a9	0.21717323
58	0xbd6c2a71	-0.057657663
59	0x3b8e6039	0.0043449667
60	0xbdb7bd92	-0.089717045
61	0xbddbe459	-0.10736913
62	0x3e5c9caa	0.21544138
63	0x3e60be70	0.21947646
64	0xbe03274a	-0.12807956
65	0x3e3b18db	0.182712
66	0x3cb4d8d8	0.022076055
67	0xbeb56c12	-0.35434014
68	0x3e0d5f00	0.13805771
69	0xbd5ab196	-0.053392015
70	0xbc956f0b	-0.018241426
71	0x3e0f6f71	0.14007355
72	0x3dbee797	0.09321516
73	0xbd0fa222	-0.03506673
74	0x3e126d54	0.14299518
75	0xbc2dbdaa	-0.0106043015
76	0xbdee0105	-0.11621288
77	0x3dcda851	0.100418694
78	0xbd3e6f72	-0.046493
79	0xbc07f741	-0.008298696
80	0x3dff74bf	0.124734394
81	0xbbf6a49c	-0.007526947
82	0xbc0340d0	-0.008011058
83	0xbd6ea4ca	-0.058262624
84	0x3bb9333c	0.0056518596
85	0xbe2f189a	-0.17099229
86	0x3d2c09e2	0.042001612
87	0xbd69d1f4	-0.057084993
88	0xbdc67f78	-0.096922815
89	0xbed37a9e	-0.41304487
90	0xbc9c06c0	-0.019046187
91	0x3cf141ea	0.029450376
92	0x3d66ac71	0.056316797
93	0x3d3d47d6	0.046211086
94	0xbb645d6a	-0.0034845718
95	0x3d972aeb	0.07381233
96	0x3ae17559	0.001720111
97	0x3d7370bc	0.059433684
98	0x3dd7eb73	0.10542955
99	0x3d2979f6	0.041376077
100	0xbd9a507a	-0.07534881
101	0x3bfbee1c	0.007688297
102	0x3d9d0e15	0.076687016
103	0x3da91a23	0.08256938
104	0xbca45849	-0.020061629
105	0x3c2b08ca	0.010439107
106	0xbccfabbb	-0.025350442
107	0x3d16afa9	0.036788616
108	0xbd1f2c98	-0.038860887
109	0xbd3ccb3d	-0.04609226
110	0xbc1aa8c6	-0.009439653
111	0xbd3fd7ec	-0.04683678
112	0x3d982386	0.074286506
113	0xbc936c9a	-0.017996121
114	0x3cee41df	0.029084144
115	0x3df3caa1	0.11903883
116	0x3e239874	0.15976125
117	0x3dfb4a19	0.122699924
118	0x3ce849b4	0.028355457
119	0xbd0f24cf	-0.034947213
120	0x3cce5b9d	0.025190169
121	0x3db28183	0.08716109
122	0xbd41f46f	-0.04735225
123	0x3d68786e	0.056755476
124	0x3e602799	0.21890105
125	0x3d3a60df	0.04550254
126	0xbe1089e6	-0.14115104
127	0xbb07e48b	-0.0020735587
128	0x3dc4dcd6	0.096124336
129	0xbdb1e07d	-0.08685396
130	0x3d837114	0.06418052
131	0x3c6670cd	0.01406498
132	0x3c3e1504	0.01160169
133	0xbdac8d7a	-0.08425422
134	0xbe4bb991	-0.19895007
135	0xbd4aafc3	-0.049484026
136	0x3e5b98e1	0.21445037
137	0x3da8034d	0.082037546
138	0x3da7b5fd	0.081890084
139	0x3e966f28	0.2938168
140	0x3cd8354e	0.026392605
141	0xbd36d21a	-0.044633962
142	0xbdd22e17	-0.10262697
143	0xbd280b05	-0.041026134
144	0xbe15e64f	-0.14638637
145	0x3e1ebd6d	0.15501948
146	0x3e29c297	0.16578136
147	0x3ec024db	0.37528118
148	0x3ed019d2	0.406447
149	0x3e63336b	0.22187583
150	0x3ebca032	0.3684097
151	0x3ea562f6	0.32302064
152	0x3df1897d	0.11793802
153	0xbddfb1dd	-0.109225966
154	0x3e0bdbe7	0.13658105
155	0x3ddfe7b5	0.109328665
156	0x3e5fc7d4	0.21853572
157	0x3ee43cde	0.44577688
158	0x3e51100b	0.20416276
159	0x3d74995b	0.059716564
160	0x3cef7fe4	0.029235788
161	0x3e438c13	0.19096403
162	0xbd9c48aa	-0.07631047
163	0x3eb45069	0.35217598
164	0x3e83618c	0.2566036
165	0x3cb60eab	0.022223791
166	0xbd00c4bc	-0.03143762
167	0xbe300f6c	-0.17193383
168	0x3c8ee6d2	0.017444048
169	0x3d1abede	0.03777968
170	0x3d2f8387	0.042850044
171	0xbde23a6f	-0.110463016
172	0x3e0ac5e1	0.13552047
173	0x3de4aa96	0.11165349
174	0xbdac0ff3	-0.084014796
175	0xbbe18957	-0.0068828273
176	0xbe867a87	-0.26265356
177	0x3e4784e4	0.19484288
178	0x3c95c0fe	0.018280502
179	0xbdc8c03e	-0.09802292
180	0x3d05cb5c	0.03266464
181	0xba5af573	-0.0008352615
182	0xbd60075a	-0.05469451
183	0x3d83fc23	0.06444576
184	0xbe0390e9	-0.12848248
185	0xbde4855e	-0.1115825
186	0x3e2e8fe2	0.17047074
187	0x3d63d8d1	0.055626694
188	0x3cf297b4	0.029613353
189	0xbc787306	-0.0151641425
190	0xbd6740a0	-0.056458116
191	0x3dc373b2	0.095435515
192	0x3c43ccf2	0.011950718
193	0x3d6a69d1	0.05722982
194	0x3db40ba1	0.087912805
195	0xbcd202fd	-0.02563619
196	0xbcdffc4e	-0.027341988
197	0x3d24cdb2	0.04023523
198	0xbbf4f432	-0.0074753994
199	0x3d157544	0.036488786
200	0xbd364752	-0.04450161
201	0xbe1252df	-0.14289425
202	0x3e1a94b6	0.15095791
203	0xbd911c01	-0.070854194
204	0xbdfac125	-0.12243871
205	0x3e1112e1	0.14167358
206	0xbe0c6de7	-0.137138
207	0x3c87b82f	0.016567318
208	0x3ce85f63	0.028365796
209	0xbd2321ac	-0.039827034
210	0x3e3dabe2	0.185226
211	0x3e43371a	0.19063988
212	0xbe0d57e8	-0.13803065
213	0xbdc2c660	-0.09510493
214	0x3e155999	0.1458496
215	0xbe5d82a0	-0.2163186
216	0xbe330a68	-0.17484438
217	0x3e5a9059	0.21344127
218	0x3d04b880	0.032402515
219	0xbd9dd7b9	-0.077071615
220	0x3d80b23a	0.06283994
221	0x3c25e51c	0.010125425
222	0xbd4c1dcd	-0.049833108
223	0x3e8354b4	0.2565056
224	0xbb6d36c9	-0.0036195985
225	0x3dbeb078	0.093110025
226	0x3e8d926e	0.2765078
227	0xbd93baa8	-0.07213336
228	0x3e055474	0.13020498
229	0x3ec40e61	0.3829222
230	0x3d573d0f	0.052548464
231	0x3d78d71c	0.06075202
232	0x3e312329	0.17298569
233	0x3e96ebcc	0.29476774
234	0xbdf75799	-0.12077255
235	0x3e955a62	0.2917052
236	0xbe23df8c	-0.16003245
237	0xbd9de7b9	-0.07710213
238	0x3de71188	0.11282641
239	0x3db3d262	0.08780362
240	0xbdb13b89	-0.086539336
241	0x3ddc5396	0.1075813
242	0xbcf7d16b	-0.030251225
243	0x3d98f5fb	0.07468792
244	0x3e93f8bb	0.28900704
245	0xbe13e001	-0.1444092
246	0xbe48d8ae	-0.19613907
247	0x3e07c856	0.13260016
248	0xbdf61e30	-0.120174766
249	0xbe7cb57b	-0.24678604
250	0x3e89ed00	0.2693863
251	0xbd22be33	-0.03973217
252	0xbd16856f	-0.036748346
253	0x3e174740	0.14773273
254	0xbe37b0f4	-0.17938596
255	0xbe53061d	-0.20607801

linear1.bias f4 [128]
0	0xbd418c7d	-0.04725312
1	0xbdc5e035	-0.09661905
2	0xbd40f95e	-0.047112815
3	0xb8433d42	-4.6548674e-05
4	0xbcb189be	-0.021672126
5	0x3d92ac48	0.07161766
6	0xbd454cd4	-0.048168972
7	0x3d797e82	0.060911663
8	0xbd5fdc2e	-0.05465334
9	0xbd7634df	-0.060109016
10	0xbd72f7d8	-0.059318393
11	0xbda00806	-0.0781403
12	0xbde15de3	-0.110042356
13	0x3c4d15ed	0.012517435
14	0xbd1786bd	-0.03699373
15	0xbcd938b9	-0.026516305
16	0x3d13f95c	0.03612648
17	0x3d3de3fd	0.046360005
18	0x3d27f1bc	0.04100202
19	0x3d5eea4f	0.054422673
20	0xbdd57759	-0.104231544
21	0xbc665a4c	-0.014059614
22	0x3c43993c	0.011938389
23	0x3cf75149	0.030190127
24	0xbdf39a4c	-0.11894664
25	0x3c6f2a84	0.014597539
26	0xbd9725c9	-0.07380254
27	0xbdb0073d	-0.085951306
28	0x3d0820ff	0.033234593
29	0x3dbef87b	0.09324738
30	0x3d8dc657	0.06922596
31	0x3dc93c42	0.098259464
32	0x3d57fffe	0.052734368
33	0x3d8dee2f	0.069301955
34	0xbdcfe643	-0.10151341
35	0x3c915585	0.017740974
36	0xbc868049	-0.016418593
37	0xbdc07602	-0.09397508
38	0xbda5ea0e	-0.08101283
39	0xbd72bce6	-0.05926218
40	0x3df9a3a0	0.12189412
41	0xbd8ddaac	-0.06926474
42	0x3dc38f86	0.09548859
43	0xbd55d7a3	-0.0522076
44	0xbcad3e3e	-0.021147843
45	0x3db52e9b	0.0884678
46	0xbd567fe3	-0.052368056
47	0xbdad5ecc	-0.08465347
48	0x3d8566c7	0.06513744
49	0xbc62ebb2	-0.013850139
50	0xbd814e03	-0.06313708
51	0x3d4b7e69	0.0496811
52	0xbc5bfc7d	-0.013426897
53	0x3cb6222e	0.022233095
54	0xbc62fe5e	-0.013854591
55	0x39882750	0.00025969232
56	0xbd9ef4c8	-0.07761532
57	0xbd25b395	-0.040454466
58	0x3d9c8226	0.07642011
59	0xbdf0df70	-0.11761367
60	0xbd1e3cc9	-0.038632188
61	0xbdbb6561	-0.09150196
62	0x3b863882	0.0040960917
63	0xbd1d4cd2	-0.03840334
64	0xbda6ca2c	-0.0814403
65	0x3c70aa96	0.014689108
66	0xbcb4686f	-0.022022454
67	0xbd9912a0	-0.074742556
68	0x3d79ae15	0.060957033
69	0x3db3e65c	0.08784172
70	0x3c88efe5	0.016715953
71	0xbd86c4a6	-0.065804765
72	0x3d0c3b95	0.03423651
73	0x3c9ea62a	0.019366343
74	0xbcadfcae	-0.021238651
75	0x3ba2d9a5	0.004969793
76	0xbda10e04	-0.078640014
77	0x3d3fff7a	0.0468745
78	0xbd9e473c	-0.07728431
79	0x3d078b7a	0.033092
80	0xbd145dd0	-0.03622228
81	0xbdd9d4f8	-0.10636324
82	0x3cf56e65	0.029959867
83	0x3da5cd51	0.080958016
84	0x3d61fb8d	0.05517154
85	0x3d6979e2	0.057001002
86	0xbe04b6c3	-0.12960343
87	0xbd16f4f4	-0.0368547
88	0xbd55474b	-0.052069943
89	0x3d2fa63d	0.042883147
90	0xbd56ed95	-0.05247267
91	0xbdabf2d9	-0.08395929
92	0x3d900240	0.07031679
93	0x3d3e470e	0.04645448
94	0x3c8c220f	0.017106084
95	0xbda54308	-0.08069426
96	0xbd07cbfd	-0.033153523
97	0xbb71aea8	-0.0036877785
98	0xbd12a21f	-0.035799142
99	0xbd7e326e	-0.062059812
100	0xbccc9e7f	-0.02497792
101	0x3c6285c8	0.013825841
102	0x3c9e450b	0.019320032
103	0xbda998b3	-0.08281078
104	0xbd20e437	-0.039280143
105	0xbc23ea40	-0.01000458
106	0x3d844e6b	0.064602695
107	0x3d80c7c6	0.06288104
108	0x3cf53819	0.029933976
109	0xbcf60dc2	-0.030035857
110	0xbd36bdc2	-0.04461456
111	0x3da71f8d	0.08160315
112	0xbcdb3881	-0.026760342
113	0x3d220a68	0.039560705
114	0x3b9358e0	0.0044966787
115	0xbdab78be	-0.08372639
116	0x3c6a4987	0.014299757
117	0xbc57cbce	-0.013171149
118	0x3dd9cd17	0.10634821
119	0xbd9ced62	-0.07662465
120	0x3d109355	0.035296757
121	0x3c82c36e	0.015962329
122	0x3cc11e47	0.023574008
123	0x3dcf41cb	0.10119971
124	0x3ddf8900	0.109148026
125	0xbdab9581	-0.08378125
126	0xbdb7cdc6	-0.08974795
127	0xbd35472a	-0.04425732

linear2.weight f4 [64, 128]
0	0x3c14ab2b	0.009074013
1	0xbdc76eb0	-0.09737909
2	0xbddd785d	-0.10813973
3	0x3d8d713e	0.06906365
4	0x3d028a17	0.031869974
5	0xbd4c6e8d	-0.049910117
6	0xbbea0a12	-0.0071423138
7	0xbd876b75	-0.06612293
8	0xbd7232dd	-0.05913054
9	0xbe109d05	-0.14122398
10	0x3da3b905	0.07994274
11	0xbda84147	-0.08215576
12	0x3ddb71a1	0.10715032
13	0xbe93e60a	-0.28886443
14	0x3d766260	0.06015241
15	0xbe27d5cb	-0.1639015
16	0xbd3a2b4c	-0.045451447
17	0x3c9d31ed	0.019188846
18	0xbb89dc84	-0.0042071957
19	0xbd229f45	-0.039702673
20	0x3d3270f7	0.043564763
21	0xbbccc008	-0.006248478
22	0x3cebcfdd	0.02878564
23	0x3d80ab87	0.06282716
24	0xbc368bb9	-0.011141711
25	0xbd299113	-0.04139812
26	0xbea66f36	-0.32506722
27	0x3ca6468c	0.020297311
28	0xbdb2c533	-0.08729019
29	0x3dae2690	0.08503449
30	0xbd238214	-0.039918974
31	0xbc913ef2	-0.01773021
32	0xbe586b95	-0.2113479
33	0xbbec0369	-0.007202555
34	0xbe4f4e00	-0.20244598
35	0x3d0f2698	0.034948915
36	0x3ca00517	0.019533677
37	0x3d85d357	0.065344505
38	0xbd96b3e0	-0.07358527
39	0x3d5d48fa	0.054024674
40	0xbd7df213	-0.061998438
41	0xbebd63ea	-0.3699029
42	0xbdb4ed5f	-0.088343374
43	0xbe3a85ad	-0.18215056
44	0xbdc12b15	-0.09432045
45	0xbd7930d8	-0.060837597
46	0xbe2f3fee	-0.17114231
47	0x3d80fa03	0.06297686
48	0x3d4786ef	0.048712667
49	0xbdf5121f	-0.11966347
50	0x3d84171c	0.0644972
51	0x3b17d220	0.0023166016
52	0xbc853983	-0.016262775
53	0xbd42adc8	-0.047529012
54	0xbed23cf2	-0.41062123
55	0xbc2c224f	-0.010506227
56	0x3d4412bc	0.04786943
57	0x3d6c9f93	0.05776937
58	0x3db6554f	0.0890299
59	0xbd76dea3	-0.060270917
60	0xbdc2e223	-0.095157884
61	0xbb885e56	-0.0041616363
62	0xbd8a5d79	-0.0675611
63	0x3c7d3368	0.015454151
64	0xbd4d768d	-0.050161887
65	0x3d32f968	0.043694884
66	0x3c9e58ee	0.019329514
67	0xbca56bc4	-0.020192988
68	0x3cd08d1e	0.025457915
69	0xbd4fa285	-0.0506921
70	0xbe1f63dc	-0.15565437
71	0xbc4cf2c4	-0.012509052
72	0x3d5d673d	0.054053534
73	0x3d81d870	0.0634011
74	0xbe2cecb8	-0.16887176
75	0x3c554441	0.013016761
76	0x3dae6407	0.085151725
77	0xbdc8e9e9	-0.0981024
78	0x3d5c5b9b	0.0537983
79	0xbced5307	-0.028970255
80	0xbd50d850	-0.05098754
81	0xbea89c3d	-0.329317
82	0xbb2991a4	-0.0025874162
83	0xbc86bdba	-0.01644789
84	0xbd5bcf83	-0.053664695
85	0x3cbbb07c	0.022911303
86	0xbc6dd974	-0.014517177
87	0x3d2bd7b7	0.04195377
88	0x3cc0053a	0.023439992
89	0xbe2747f7	-0.16336046
90	0xbdf03c42	-0.11730243
91	0xbdb2e0d4	-0.08734289
92	0xbe97e230	-0.29664755
93	0xbdb664bc	-0.08905932
94	0xbe2928bf	-0.1651945
95	0x3e203581	0.1564541
96	0xbccb6421	-0.024828019
97	0x3cb4654d	0.02202096
98	0xbdb74ece	-0.08950578
99	0x3d22ffe5	0.03979482
100	0x3da71274	0.081578165
101	0x3d2560bc	0.040375456
102	0x3ba2a4d2	0.004963496
103	0xbd86bc0c	-0.06578836
104	0xbdc910a6	-0.098176286
105	0xbd8886cb	-0.06666335
106	0xbcc69580	-0.024241209
107	0xbc1a37b2	-0.009412693
108	0xbda1239c	-0.0786812
109	0xbc8f2bde	-0.017476972
110	0x3d911e4c	0.07085857
111	0xbe167d59	-0.14696254
112	0xbe31d6d4	-0.17367107
113	0xbe2fc7f7	-0.17166124
114	0xbdda725d	-0.10666344
115	0xbd40d218	-0.04707536
116	0xbe366470	-0.17811751
117	0xbd5d6a29	-0.05405632
118	0xbd8f6b87	-0.07002931
119	0xbe1bf7bb	-0.1523122
120	0x3da39c4e	0.07988797
121	0xbe4f6609	-0.20253767
122	0xbe8366de	-0.2566442
123	0xbcf8b6d0	-0.03036061
124	0x3d4f4319	0.0506011
125	0xbdbbe38e	-0.09174262
126	0xbdcba4fd	-0.099435784
127	0xbe2a0410	-0.16603112
128	0x3c9e0f27	0.019294335
129	0x3c8b177c	0.016978972
130	0xbc92d00b	-0.017921468
131	0xbca43dbe	-0.020048972
132	0x3cf3aca7	0.029745413
133	0x3c782fef	0.015148147
134	0x3d0caa0b	0.034341853
135	0xbda733c1	-0.08164168
136	0xbc5f5ba8	-0.013632692
137	0x3cba7983	0.02276302
138	0x3d98ed99	0.07467193
139	0x3bafecf4	0.005368823
140	0xbcfbdc2e	-0.030744638
141	0x3b475364	0.0030414695
142	0x3d6d072d	0.05786817
143	0xbd13ef19	-0.036116693
144	0x3e16309d	0.14666982
145	0x3d069957	0.03286108
146	0xbc3c7aa6	-0.011503851
147	0xbc4bcc44	-0.012438837
148	0x3db2358f	0.08701622
149	0x3c9f7c6f	0.019468514
150	0x3cc7b396	0.024377625
151	0x3d38c895	0.045113165
152	0x3db1f4a4	0.086892396
153	0x3e3506b8	0.17678344
154	0xbdf32828	-0.118728936
155	0xbd5e5be7	-0.054286864
156	0xbda27ad8	-0.07933587
157	0xbe3f1e83	-0.18663983
158	0x3d8be376	0.06830494
159	0xbcd3dac7	-0.025861157
160	0xbe59dc87	-0.21275531
161	0xbda5c2f4	-0.08093825
162	0xbeaeab2e	-0.34114975
163	0x3c6bd630	0.014394328
164	0xbcdd41b1	-0.027008863
165	0xbd7a0a5c	-0.061045036
166	0x3d9e4afd	0.07729147
167	0x3d35435e	0.0442537
168	0x3db331c9	0.0874973
169	0xbcd419e4	-0.025891252
170	0x3bbb2ae0	0.005711898
171	0x3d81e583	0.06342604
172	0xbd962aa3	-0.07332351
173	0xbc7cb050	-0.015422896
174	0xbe9826e0	-0.2971716
175	0x3e382d3c	0.17986006
176	0xbd69f1f6	-0.057115518
177	0x3d67c1e6	0.0565814
178	0x3de05b6f	0.109549396
179	0x3d86db81	0.06584836
180	0xbaaf1bd4	-0.0013359734
181	0x3d7d9721	0.061911706
182	0x3d4033a9	0.046924267
183	0x3d366179	0.04452655
184	0xbdfff434	-0.1249775
185	0xbc5a8a39	-0.013338619
186	0x3dbe493b	0.09291311
187	0x3cf3996e	0.029736247
188	0xbd1adb85	-0.037807006
189	0x3d0a69f5	0.033792455
190	0xbdd0961b	-0.1018488
191	0xbe87159e	-0.2638368
192	0xbe180bf5	-0.14848311
193	0xbd489a52	-0.048975296
194	0x3c07a904	0.008280043
195	0x3c27887c	0.0102254115
196	0xbc746c59	-0.01491841
197	0xbdd9e40d	-0.106392
198	0xbddd349a	-0.108010486
199	0xbd915e8c	-0.070981115
200	0x3da0ed09	0.07857711
201	0xbd022342	-0.031771906
202	0xbd970010	-0.07373059
203	0x3ccd65ab	0.025072893
204	0xbdcc22a3	-0.09967544
205	0x3dd9fffe	0.1064453
206	0x3c5e6dea	0.01357601
207	0x3d33f63b	0.043935996
208	0x3b868ffb	0.0041065193
209	0xbd40d461	-0.04707754
210	0x3b5c2f5a	0.003359756
211	0x3c2df8c5	0.010618393
212	0xbd9e5cea	-0.07732566
213	0x3cc4ab01	0.024007322
214	0x3d14a2ed	0.03628819
215	0x3d9f5e91	0.07781709
216	0xbd7a73c6	-0.061145566
217	0xbdd92d6d	-0.106043674
218	0x3e720b12	0.23637035
219	0xbc8972d1	-0.016778382
220	0xbdb46aea	-0.08809455
221	0x3d082cfc	0.033246025
222	0xbe01e92d	-0.12686606
223	0x3e6f8368	0.23389971
224	0x3d34330e	0.043994002
225	0x3cf6746d	0.030084813
226	0xbde0e4dd	-0.10981152
227	0x3e3f271c	0.18667263
228	0x3e33ce3d	0.17559142
229	0xbdeafc57	-0.11473911
230	0xbe68092a	-0.22659746
231	0x3d689a21	0.056787614
232	0xbd2bd1fb	-0.0419483
233	0xbdb54ec7	-0.08852916
234	0x3ced9245	0.02900041
235	0x3d3dfdfa	0.04638479
236	0xbdc3aad1	-0.09554065
237	0x3be3c681	0.0069511537
238	0xbdab5eb8	-0.083676755
239	0xbd630106	-0.055420898
240	0x3d8bf6d5	0.06834189
241	0xbd3f0bcd	-0.046642113
242	0xbdf76db8	-0.12081474
243	0x3bd40bbd	0.006471126
244	0xbc9a4701	-0.018832685
245	0x3da9611e	0.08270477
246	0xbe89ab05	-0.2688829
247	0x3d41f8d6	0.04735645
248	0x3dbb34f3	0.09140959
249	0xbd6cb0a3	-0.05778564
250	0xbdefb014	-0.11703506
251	0x3e1ecb43	0.15507226
252	0x3d67479f	0.056464788
253	0xbd8fde3d	-0.070248105
254	0xbcb5d947	-0.022198332
255	0xbbcffb03	-0.0063470616

linear2.bias f4 [64]
0	0x3ccbdfe2	0.02488703
1	0x3da38f21	0.07986284
2	0x3d1a4dc8	0.037671834
3	0x3d26dadb	0.04073606
4	0x3dbe5ee8	0.09295446
5	0x3d4b34cc	0.049610898
6	0x3dc203eb	0.094734035
7	0x3db1274b	0.08650073
8	0x3d98797d	0.07445047
9	0x3d362514	0.044468954
10	0x3d923bae	0.07140289
11	0xbc5db2d7	-0.013531408
12	0x3d6763f1	0.056491796
13	0x3d33af32	0.04386825
14	0x3d65978c	0.05605273
15	0x3d80b070	0.06283653
16	0x3c717e13	0.014739531
17	0x3ce535ac	0.027979694
18	0x3d6c926f	0.057756837
19	0xbc61bfb5	-0.013778617
20	0x3d17ede0	0.03709209
21	0x3d7ad68d	0.061239768
22	0x3d8a8638	0.067638814
23	0xbcf159a2	-0.029461686
24	0x3dca0d26	0.09865789
25	0x3d7b6bc8	0.061382085
26	0x3d8cba42	0.06871463
27	0x3d09284d	0.0334857
28	0xbd69cdd5	-0.057081062
29	0x3cd9221c	0.026505522
30	0x3da8de65	0.082455434
31	0x3d0ce503	0.03439809
32	0x3d80424b	0.062626444
33	0x3da3c2c1	0.07996131
34	0x3d253a31	0.0403387
35	0x3d1d9a27	0.03847709
36	0x3d77037f	0.06030607
37	0x3d9a1802	0.075241104
38	0x3d1e5e84	0.038664356
39	0x3db90d6d	0.09035764
40	0x3d25ef04	0.040511146
41	0x3c2f9453	0.010716516
42	0x3dbb7626	0.091533944
43	0x3cc8411d	0.024445111
44	0x3d82ac10	0.063804746
45	0x3d7d3ee0	0.06182754
46	0x3d9e61fa	0.07733531
47	0x3c6796bd	0.01413506
48	0xbc889078	-0.01667045
49	0x3d145433	0.03621311
50	0xbd1c9e42	-0.038236864
51	0x3db22e54	0.08700243
52	0x3c28bd7b	0.010299082
53	0x3d175aee	0.03695195
54	0x3d03f17f	0.03221273
55	0x3da63172	0.081149
56	0x3daf3f6d	0.085570194
57	0x3d8c11f0	0.06839359
58	0x3d3a2c22	0.045452245
59	0xbcfc1ddf	-0.030775962
60	0xbcf93b34	-0.030423738
61	0x3da761fe	0.081729874
62	0x3d8e9889	0.069626875
63	0x3d5605ec	0.05225174

linear3.weight f4 [64, 64]
0	0xbdea994a	-0.11455019
1	0x3dc44394	0.09583202
2	0xbe1aca53	-0.15116243
3	0xbd9dac13	-0.07698836
4	0xbde16746	-0.11006026
5	0xbe171f6b	-0.14758079
6	0xbb1cd0c5	-0.0023928147
7	0xbceb90ef	-0.028755633
8	0xbd007d03	-0.03136922
9	0x3e5340e6	0.20630226
10	0x3bc3cdfd	0.0059754835
11	0x3e8da620	0.27665806
12	0x3d252afb	0.040324192
13	0x3b1bc1b0	0.002376657
14	0x3dc1b0da	0.0945756
15	0xbe37c6da	-0.1794695
16	0xbdd9e414	-0.106392056
17	0x3d5c2723	0.05374826
18	0x3d21c00e	0.0394898
19	0x3e16cd1d	0.14726682
20	0x3db700cb	0.08935698
21	0xbdefb471	-0.11704338
22	0xbdc8d317	-0.09805887
23	0xbce19c23	-0.027540272
24	0xbe068bbb	-0.1313924
25	0xbe0ee07c	-0.13952821
26	0x3d703aaf	0.058649715
27	0xbc2f9a2a	-0.010717908
28	0x3e193f74	0.14965612
29	0xbd8c397d	-0.068469025
30	0x3e234afd	0.15946575
31	0xbde71fa2	-0.1128533
32	0xbe2c075e	-0.16799685
33	0x3cc472f0	0.023980588
34	0xbb995517	-0.004679333
35	0x3ddbb176	0.10727207
36	0x3dbaa5e7	0.091136746
37	0x3de63221	0.1124003
38	0x3e3ddae8	0.18540537
39	0xba591205	-0.0008280578
40	0xbc124cbe	-0.00892943
41	0x3e20e090	0.15710664
42	0x3b6216ae	0.0034498381
43	0xbd8f7627	-0.07004958
44	0x3ca969eb	0.020680388
45	0x3dc94a4e	0.098286256
46	0x3e5bf1f9	0.21479024
47	0xbe011526	-0.12605724
48	0x3d4a6cf7	0.049420323
49	0xbd97cb6a	-0.07411845
50	0xbe6c8d4c	-0.23100775
51	0xbdfaa37c	-0.122382134
52	0xbe43325e	-0.19062182
53	0x3e8433b3	0.25820693
54	0x3e7130a4	0.23553711
55	0xbd1037f9	-0.03520963
56	0x3d383d6b	0.044980448
57	0xbd45a812	-0.048255987
58	0x3d9e083f	0.077164166
59	0xbe234b79	-0.1594676
60	0x3e549ad8	0.20762193
61	0xbd7df339	-0.061999533
62	0xbe006a57	-0.12540565
63	0xbc9c4da7	-0.019079996
64	0x3da341c3	0.079715274
65	0xbd237118	-0.039902776
66	0x3e28f0c9	0.16498102
67	0x3c48d8e9	0.012258747
68	0xbb69d3e1	-0.0035679268
69	0x3dad176e	0.084517345
70	0x3da114cd	0.078652956
71	0xbd70a767	-0.058753397
72	0xbdcd377f	-0.10020351
73	0x3d29748a	0.041370906
74	0x3d8f0dd3	0.06985059
75	0xbe892ac5	-0.26790443
76	0xbd8aaffe	-0.06771849
77	0x3dce9c65	0.10088424
78	0xbe7d331e	-0.24726531
79	0x3ca08db1	0.019598814
80	0x3d792ec0	0.0608356
81	0xbcc9db8e	-0.024640825
82	0xba9f92cf	-0.001217449
83	0xbdf4a7bc	-0.11946055
84	0x3deae750	0.114699006
85	0x3d49ca0e	0.04926496
86	0x3d39f224	0.04539694
87	0xbe24fd6c	-0.16112298
88	0x3df10032	0.117676154
89	0xbd67a87a	-0.056557156
90	0xbd33a9ef	-0.043863233
91	0x3d9cb602	0.07651903
92	0xbe2494ef	-0.16072439
93	0x3d8bc02e	0.06823765
94	0xbd34de9f	-0.04415762
95	0x3dd9aafa	0.10628314
96	0x3d63fea6	0.055662774
97	0x3dd56455	0.104195274
98	0x3e35aa83	0.17740826
99	0xbd13717f	-0.03599691
100	0x3c03ea77	0.008051506
101	0xbdbd184d	-0.09233151
102	0xbda9325b	-0.08261558
103	0xbe2fd0e9	-0.17169537
104	0x3e57d804	0.21078497
105	0xbda576e9	-0.08079321
106	0x3c24c98d	0.010057819
107	0x3cb39dbe	0.021925803
108	0x3ba209a5	0.0049449974
109	0xbe4c93c0	-0.19978237
110	0xbe5dd7b5	-0.21664317
111	0x3dd7cfc9	0.10537679
112	0xbe471f33	-0.19445495
113	0x3d945459	0.072426505
114	0x3e176ead	0.14788313
115	0x3db5d552	0.08878578
116	0x3e8d8ce3	0.2764655
117	0xbe447817	-0.19186436
118	0xbd93e249	-0.07220895
119	0x3dfad07b	0.12246796
120	0x3b5f2b42	0.0034052883
121	0xbd197c81	-0.03747225
122	0xbc8969f9	-0.016774165
123	0xbc0df67f	-0.008664726
124	0xbcf18278	-0.029481158
125	0xbd4dbbe4	-0.050228015
126	0xbdb73f03	-0.089475654
127	0x3da47e75	0.08031932
128	0x3e06fb33	0.13181762
129	0xbd405cda	-0.04696355
130	0x3e159bfb	0.14610283
131	0x3d95e625	0.07319287
132	0x3d75bc7c	0.059994206
133	0x3df5e27d	0.1200609
134	0xbc3f3498	-0.011670254
135	0x3c599df3	0.013282287
136	0xbdf2ce2c	-0.118557304
137	0xbd4b87f2	-0.049690194
138	0x3b8cf45c	0.004301591
139	0xbd92d27e	-0.071690544
140	0x3dc57c3c	0.096428365
141	0x3dda94b0	0.10672891
142	0xbe64497f	-0.22293662
143	0xbc83a74a	-0.01607098
144	0x3d0c98c5	0.03432538
145	0x3d136f0a	0.035994567
146	0xbbd02cca	-0.0063529955
147	0xbe009dbd	-0.12560172
148	0xbdb4c2d4	-0.08826223
149	0x3e37740b	0.1791536
150	0x3e069573	0.13142948
151	0xbdb68a6a	-0.08913119
152	0xbc9d6445	-0.019212851
153	0xbd129ee7	-0.035796072
154	0x3d30e8c8	0.043190747
155	0x3df580e3	0.11987474
156	0x3c14c393	0.009079832
157	0x3b12b3ad	0.0022384927
158	0xbd92fb87	-0.07176881
159	0x3e348a78	0.17630947
160	0x3c5052f0	0.012715086
161	0x3e0ff355	0.14057668
162	0xbcbee559	-0.02330272
163	0xbe3f5704	-0.18685538
164	0x3e193beb	0.14964263
165	0xbd7f1c13	-0.062282633
166	0xbdf9deb5	-0.12200681
167	0xbdc335a6	-0.09531717
168	0x3e2c80e3	0.16846041
169	0xbd0b022d	-0.03393762
170	0x3ba2d89a	0.0049696686
171	0x3dff6433	0.12470283
172	0x3dae9b7b	0.08525749
173	0xbe348e2a	-0.17632356
174	0xbe386f1b	-0.18011133
175	0x3e6e4938	0.23270118
176	0xbe327495	-0.17427285
177	0xbdc78d64	-0.09743765
178	0x3dae91a9	0.08523876
179	0x3e0f451e	0.1399121
180	0x3e993c1e	0.29928678
181	0xbe1b794e	-0.15182993
182	0xbc7cd644	-0.015431944
183	0x3e0d17b4	0.13778573
184	0x3dd8279e	0.105544314
185	0x3e08afb9	0.13348283
186	0xbbd42aef	-0.0064748446
187	0x3e22ab1a	0.15885583
188	0xbd3b4e1d	-0.04572879
189	0x3e22f3bb	0.15913288
190	0x3de781f4	0.113040835
191	0x3d84308b	0.06454571
192	0x3d4791aa	0.0487229
193	0x3e04cc8c	0.12968653
194	0x3d960de3	0.073268674
195	0xbd8fd92a	-0.07023843
196	0xbd78bc0d	-0.060726214
197	0x3ccfe2d0	0.025376707
198	0x3e0c9bdd	0.13731332
199	0xbd8f80a7	-0.0700696
200	0xbda6faa5	-0.081532754
201	0xbd8538cf	-0.06504976
202	0xbdafcd3b	-0.085840665
203	0xbdaa80f4	-0.08325377
204	0xbd071c1a	-0.032985784
205	0xbdb88db5	-0.090114035
206	0xbe044f06	-0.1292077
207	0x3e31384b	0.1730663
208	0x3d979e7f	0.074032776
209	0x3cbeec5b	0.023306062
210	0x3d155e3c	0.036466822
211	0xbdeb88ad	-0.11500678
212	0xbb95a1f9	-0.004566428
213	0x3dc7fbfc	0.09764859
214	0xbd86d348	-0.065832675
215	0xbd6b18ba	-0.057396628
216	0x3e08ca01	0.13358308
217	0x3c3f49cf	0.011675312
218	0x3e201e1f	0.1563649
219	0x3cc0504e	0.023475792
220	0xbe400859	-0.18753184
221	0x3d2ca6c0	0.042151213
222	0x3d1d3c9e	0.038387887
223	0x3e8dfd92	0.2773252
224	0x3dc2cfad	0.09512267
225	0xbced599d	-0.028973395
226	0x3e134a2e	0.14383766
227	0xbdf3a7f5	-0.1189727
228	0x3d51f585	0.051259536
229	0xbe15428b	-0.14576165
230	0xbe789833	-0.2427681
231	0xbcf2a761	-0.029620828
232	0x3c4de631	0.012567089
233	0xbde2af0a	-0.11068542
234	0xbe268c04	-0.16264349
235	0x3d96dbb2	0.07366122
236	0x3d73c644	0.059515253
237	0xbde61405	-0.11234287
238	0xbcbcd3f7	-0.023050291
239	0x3e5dabfc	0.21647638
240	0xbe257df5	-0.1616133
241	0xbcdcc47b	-0.026949158
242	0x3e6fdcbe	0.2342405
243	0xbccf72e7	-0.025323344
244	0x3deb17fd	0.11479185
245	0xbd406389	-0.046969924
246	0xbe3aa2a4	-0.18226105
247	0xbcae3fad	-0.021270597
248	0x3dccaf6f	0.09994399
249	0x3dfcf4d6	0.12351386
250	0xbd7ca1d3	-0.061677765
251	0x3cf87305	0.030328283
252	0x3d11123d	0.035417784
253	0x3d06c258	0.032900184
254	0x3dfe0930	0.12404096
255	0xbd8b9517	-0.06815546

linear3.bias f4 [64]
0	0xbe4da5a1	-0.20082714
1	0x3e020317	0.12696491
2	0x3e031b63	0.12803416
3	0x3e58e9f0	0.2118299
4	0xbe282a3b	-0.1642236
5	0xbe26e38a	-0.16297737
6	0x3e381b43	0.1797915
7	0x3dacce69	0.08437807
8	0xbc29a038	-0.0103531405
9	0xbd157568	-0.03648892
10	0xbe0d92e7	-0.1382557
11	0x3e53d1ea	0.20685545
12	0xbe2e4aff	-0.17020796
13	0x3e77cf6d	0.2420022
14	0x3e4244a9	0.18971504
15	0x3e4dc7a5	0.2009569
16	0xbe700da6	-0.23442706
17	0x3e165c6c	0.14683694
18	0x3e12bd3c	0.1433
19	0xbcc765ee	-0.024340596
20	0x3dbd5301	0.09244347
21	0xbddc1fb8	-0.10748237
22	0xbd9bdebe	-0.07610844
23	0xbd1982e1	-0.03747833
24	0x3bed2e7f	0.007238209
25	0x3df35e46	0.118832156
26	0xbd133326	-0.03593745
27	0xbe2c450c	-0.16823214
28	0x3e3124ef	0.17299245
29	0xbc50c92f	-0.012743278
30	0xbcd4c368	-0.025972083
31	0xbcf6a31a	-0.03010707
32	0xbe70c937	-0.23514257
33	0x3b76d47c	0.0037663272
34	0xbe358f90	-0.17730546
35	0x3e5afa1b	0.2138447
36	0xbd587d72	-0.05285401
37	0xbd924c9d	-0.07143519
38	0x3c528ed4	0.012851436
39	0x3e52e94f	0.20596813
40	0x3e62eb2d	0.22160025
41	0xbe3f042e	-0.18653938
42	0xbdf3fa84	-0.119130164
43	0xbdc2b13a	-0.095064595
44	0x3e57fd76	0.21092781
45	0x3e50a928	0.20377028
46	0x3d3cb9de	0.046075694
47	0xbe4acc0d	-0.19804402
48	0x3d886ba4	0.06661156
49	0xbddfa1a0	-0.109194994
50	0xbe0187de	-0.12649485
51	0x3dc162c1	0.09442664
52	0x3d85e773	0.06538286
53	0x3d74a5a1	0.05972827
54	0x3e3cec49	0.1844951
55	0xbd4f9bab	-0.050685566
56	0x3e138999	0.14407958
57	0x3d1b3081	0.037888054
58	0x3d67f7ff	0.056632992
59	0xbda5fdc5	-0.08105043
60	0xbe6605e3	-0.22463183
61	0xbe315dbe	-0.17320916
62	0xbe436048	-0.19079697
63	0x3e398f2f	0.18121026

embedding_layer.weight f4 [32, 64]
0	0xbe22d071	-0.15899827
1	0x3cbfefcf	0.02342978
2	0x3ddf423a	0.109013036
3	0x3bcaf512	0.0061937654
4	0x3da729bf	0.08162259
5	0xbdf35b81	-0.11882687
6	0xbd85c526	-0.06531744
7	0xbd9a5ab6	-0.07536833
8	0x3de00367	0.10938149
9	0xbd44567e	-0.047934048
10	0xbccb3c42	-0.024809007
11	0x3da894a0	0.08231473
12	0xbe21d5c3	-0.158042
13	0x3e3a7a5b	0.18210737
14	0xbbdc8a90	-0.006730385
15	0x3e1279a1	0.1430421
16	0xbd987836	-0.074448034
17	0x3dcc2676	0.09968273
18	0x3e0e0ea0	0.13872766
19	0x3cde8760	0.027164161
20	0x3c87226a	0.016495902
21	0x39f577e3	0.00046819364
22	0xbda233f0	-0.079200625
23	0xbdac2d1b	-0.08407041
24	0xbcb643b2	-0.022249077
25	0x3d9f5fcf	0.07781946
26	0x3d901194	0.07034603
27	0xbd782eea	-0.060591616
28	0xbd2739fd	-0.040826786
29	0x3d0ff82b	0.03514878
30	0xbcce52f2	-0.025186036
31	0xbd711865	-0.058861155
32	0x3d824ac3	0.06361916
33	0xbddc22ca	-0.10748823
34	0xbbfed7af	-0.0077771763
35	0xbcd1ffda	-0.025634695
36	0xbd132520	-0.035924077
37	0xbd0199cb	-0.03164081
38	0xbdff0f7b	-0.124541245
39	0x3c006c25	0.007838284
40	0x3c28a218	0.010292552
41	0xbe1a26d4	-0.15053874
42	0x3cbbb7ab	0.022914728
43	0xba7e8207	-0.00097087066
44	0xbd6afbba	-0.05736897
45	0xbb03e26c	-0.0020123972
46	0x3ca3b820	0.019985259
47	0x3abad6fa	0.0014254742
48	0x3dda2203	0.106510185
49	0xbda7a214	-0.08185211
50	0x3c0358e8	0.008016802
51	0x3dcfc510	0.101450086
52	0x3d305a29	0.043054733
53	0x3df49f56	0.119444534
54	0x3de4458f	0.1114608
55	0xbd871d98	-0.065974414
56	0xbd8c9163	-0.06863668
57	0x3ddfe211	0.109317906
58	0x3d542b63	0.05179919
59	0xbd9decfb	-0.07711216
60	0x3d810509	0.062997885
61	0xbe43d63e	-0.19124696
62	0xbd1706fe	-0.036871903
63	0x3c4e63c0	0.012597024
64	0x3e09488b	0.13406579
65	0xbd953f3d	-0.07287452
66	0xbd4ada49	-0.04952458
67	0xbd979fe2	-0.07403542
68	0x3d5c2f0b	0.0537558
69	0x3db23192	0.08700861
70	0xbcf4126a	-0.029793937
71	0x3d90c656	0.070690796
72	0x3d5b494f	0.05353671
73	0x3cf83066	0.030296516
74	0xbd00f538	-0.03148386
75	0xbe0adb49	-0.13560213
76	0x3df94c80	0.12172794
77	0xbdc00632	-0.09376182
78	0xbdb9e195	-0.090762295
79	0xbd792684	-0.060827747
80	0x3e14e8d7	0.14541946
81	0xbcff538c	-0.031167768
82	0xbc5c7050	-0.013454512
83	0x3d810e1b	0.063015185
84	0xbdbbefe3	-0.09176614
85	0x3d91d1b1	0.071200736
86	0xbdd2b8a4	-0.10289124
87	0x3dde3f21	0.10851885
88	0x3d9dbccb	0.07702025
89	0x3d33d5eb	0.04390518
90	0x3da8bb1b	0.082388125
91	0x3e189838	0.14901817
92	0x3cc85fae	0.024459686
93	0xbd9d88fd	-0.07692144
94	0x3dd5e12f	0.10443341
95	0x3dedfade	0.11620115
96	0xbcf46963	-0.029835409
97	0xbd8154cc	-0.06315002
98	0x3e0e7346	0.13911161
99	0xbca58d52	-0.020208988
100	0x3d509704	0.05092527
101	0x3c2c818a	0.010528931
102	0x3dc38377	0.09546559
103	0xbda95948	-0.08268982
104	0xbd8570aa	-0.065156296
105	0xbcf69d8f	-0.030104427
106	0x3df1b35c	0.11801788
107	0xbd178b1b	-0.036997896
108	0x3d4e6801	0.050392155
109	0xbd95db57	-0.073172264
110	0x3d8505a2	0.06495215
111	0x3e31a250	0.17347074
112	0xbe1d37d9	-0.15353335
113	0x3d69216f	0.05691665
114	0xbda279cf	-0.079333894
115	0x3d75738d	0.05992465
116	0x3dc316a8	0.09525806
117	0xbdb92cc5	-0.09041742
118	0xbe05e1ad	-0.1307437
119	0xbdb3875a	-0.08766051
120	0x3d2bdbd6	0.0419577
121	0x3db0ee85	0.08639244
122	0xbc26eaf9	-0.010187858
123	0x3e062102	0.13098529
124	0xbcfd8e46	-0.03095163
125	0x3e073ea3	0.13207488
126	0x3ce63d83	0.028105503
127	0xbdfa8046	-0.122314975
128	0xbdaa2701	-0.08308221
129	0x3da1698a	0.07881458
130	0x3bc6cdba	0.006067005
131	0x3e0d9d15	0.13829453
132	0xbbac70b0	-0.005262457
133	0xbe2926b7	-0.16518675
134	0x3cdca3e2	0.026933614
135	0xbce8a7b6	-0.028400283
136	0xbce85387	-0.028360141
137	0xbd0a044b	-0.0336955
138	0xbe228e9b	-0.15874712
139	0x3d4978a2	0.04918731
140	0xbd0933f7	-0.033496823
141	0x3db20ba3	0.08693626
142	0x3e3a1e03	0.18175511
143	0x3d945f26	0.072447106
144	0xbdf6d2d3	-0.1205193
145	0xbd7f4cdc	-0.06232916
146	0x3d038885	0.032112617
147	0x3d31fe65	0.0434555
148	0x3e2532f8	0.16132724
149	0xbdeed723	-0.11662128
150	0xbde159b9	-0.11003441
151	0x3d58eb23	0.05295862
152	0x3c6aefb5	0.014339377
153	0x3d143987	0.036187675
154	0xbb1ea444	-0.0024206797
155	0xbe25bf2c	-0.16186208
156	0x3d9cae84	0.07650474
157	0x3c48eeb1	0.01226394
158	0xbd110d7c	-0.03541325
159	0xbd462f39	-0.04838488
160	0xbda244fc	-0.07923314
161	0x3d8b4aff	0.06801414
162	0x3d2fce3b	0.042921286
163	0x3dfa390f	0.12217914
164	0x3d55fa9f	0.052240964
165	0xbdb2aa2e	-0.087238654
166	0x3ddc297c	0.107501
167	0x3d8e3000	0.06942749
168	0xbd98ce43	-0.07461216
169	0xbd2df5de	-0.042470805
170	0xbd72b4d0	-0.059254467
171	0x3d0cdb2b	0.034388702
172	0xbbbc51f8	-0.005747076
173	0x3cd24af4	0.025670506
174	0x3d9a7155	0.075411476
175	0xbd858341	-0.06519175
176	0xbd1c6636	-0.038183413
177	0x3da0f6ee	0.07859598
178	0x3c7c22c8	0.015389152
179	0xbceffd9b	-0.029295733
180	0x3d9d7819	0.076889224
181	0xbdac8f70	-0.08425796
182	0x3c52af8f	0.012859239
183	0xbcbcf448	-0.023065701
184	0x3cbf1b34	0.023328401
185	0x3d30a171	0.043122713
186	0x3d4a5cb1	0.049404804
187	0xbe2280d2	-0.15869454
188	0xbcfa0df5	-0.030524233
189	0xbdfe7f32	-0.12426604
190	0xbb2fedab	-0.0026844542
191	0x3dbdd6bb	0.09269472
192	0x3cd9e34e	0.026597645
193	0xbd4b0685	-0.049566764
194	0xbd2db78e	-0.04241138
195	0xbd958955	-0.07301585
196	0xbd10d171	-0.03535599
197	0x3dd010a4	0.10159424
198	0xbe2aefb0	-0.16692996
199	0xbddc5144	-0.10757688
200	0x3dd130a0	0.102143526
201	0x3d4b4938	0.049630374
202	0x3d435ee4	0.047697917
203	0xbdef9aff	-0.11699485
204	0x3e2710fa	0.1631507
205	0xbe1218ca	-0.14267269
206	0x3d73153e	0.05934643
207	0x3a5c3745	0.000840057
208	0xbd809a44	-0.06279424
209	0xbe15489f	-0.14578484
210	0x3bc273a3	0.005934195
211	0x3dd0b7d9	0.10191316
212	0xbc166bd2	-0.00918098
213	0xbdb7a455	-0.08966891
214	0xbc701cf7	-0.014655343
215	0xbd2344bd	-0.039860476
216	0xbda1c5b1	-0.07899035
217	0xbdaeaef5	-0.08529464
218	0xbcaee366	-0.021348666
219	0xbd4cc9cb	-0.049997132
220	0x3d0a90fc	0.033829674
221	0x3dabe683	0.08393576
222	0x3dd12561	0.102122076
223	0x3bd6801f	0.006546035
224	0x3ce06beb	0.02739521
225	0xbd3a8ae0	-0.045542598
226	0x3d0a75f4	0.033803895
227	0xbdff6ccc	-0.12471923
228	0x3dcb328d	0.09921751
229	0x3d7eade1	0.062177543
230	0xbdbb9db7	-0.09160941
231	0xbdb94171	-0.09045685
232	0xbde083b9	-0.10962624
233	0x3db6581a	0.08903523
234	0x3e1246db	0.14284842
235	0x3da72ce0	0.08162856
236	0xbe0631d7	-0.1310495
237	0xbd95c608	-0.07313162
238	0x3d26389c	0.04058133
239	0x3e26dffd	0.16296382
240	0xbcaa2575	-0.020769814
241	0x3dc6338b	0.096778
242	0x3e04b689	0.12960257
243	0xbdae646c	-0.08515248
244	0x3c9ba397	0.018998904
245	0x3d9f8dd1	0.07790721
246	0xbc3e8012	-0.011627214
247	0xbda5d356	-0.0809695
248	0x3dca76a1	0.09885908
249	0xbde1af03	-0.11019709
250	0x3d66faed	0.056391645
251	0x3e20170f	0.15633796
252	0x3d173857	0.036918964
253	0xbd2c8b1e	-0.04212486
254	0xbcaf0730	-0.021365732
255	0xbd6ddb06	-0.058070205

embedding_layer.bias f4 [32]
0	0x3d9e485f	0.077286474
1	0xbdb1d761	-0.086836584
2	0x3e555de6	0.208366
3	0xbd027640	-0.031851053
4	0x3cb6f6ac	0.02233442
5	0xbe1622ff	-0.14661787
6	0x3de932d2	0.11386646
7	0xbe51cf3a	-0.20489207
8	0xbe343162	-0.17596963
9	0xbe667c92	-0.22508457
10	0x3e79c004	0.24389654
11	0xbda5a8a8	-0.08088809
12	0x3d505d68	0.05087033
13	0xbe6ac319	-0.22925986
14	0xbe2dec4b	-0.1698467
15	0x3e641508	0.22273648
16	0xbd5f98bf	-0.05458903
17	0x3d932953	0.07185616
18	0xbe174afd	-0.147747
19	0xbdd569c4	-0.10420564
20	0xbe2d20df	-0.1690707
21	0xbdaf0614	-0.08546081
22	0xbe6be8fa	-0.23038092
23	0x3d5b793a	0.053582408
24	0x3d04eed7	0.032454338
25	0xbe17c0d2	-0.14819649
26	0x3bdf0669	0.006806184
27	0x3cb7f48f	0.022455482
28	0xbda865c5	-0.08222536
29	0x3dc0466a	0.093884304
30	0xbe32de28	-0.17467558
31	0xbe1c93e0	-0.15290785

classifier.weight f4 [1, 32]
0	0x3d7ab927	0.06121173
1	0xbd49e03d	-0.049286116
2	0x3e0ee532	0.13954619
3	0xbd859d62	-0.06524159
4	0x3e3a9e87	0.18224536
5	0xbe3689c0	-0.17825985
6	0x3e23b8ba	0.15988436
7	0xbe1f9d6a	-0.15587392
8	0xbe2e52d2	-0.17023781
9	0xbe5fd0dd	-0.21857019
10	0x3e3405eb	0.17580383
11	0xbe201cf5	-0.15636046
12	0x3d498740	0.04920125
13	0xbe0973f9	-0.13423146
14	0xbdfff3a9	-0.12497646
15	0x3e37ef1d	0.17962308
16	0xbdab1616	-0.08353822
17	0x3e0a03af	0.13477968
18	0xbe54b951	-0.20773818
19	0xbdba03fa	-0.0908279
20	0xbdd4a3cf	-0.103828065
21	0xbdf7d026	-0.12100248
22	0xbe10da41	-0.14145757
23	0x3dcf2f7f	0.10116481
24	0x3dc67c52	0.09691681
25	0xbd8d5fec	-0.06903061
26	0x3d8eb3d9	0.06967897
27	0x3e1068fd	0.1410255
28	0xbd8d76ee	-0.0690745
29	0x3d0ba4aa	0.034092583
30	0xbe0d65c0	-0.13808346
31	0xbe351e87	-0.17687427
