models/ScatterNet-trained.pth (torch, 94234 bytes, 10 tensors)

scatter.wavelet_constructor f4 [4, 17]
-0.066495635 -1.0552632 1.0058147 0.028033277 0.034740884 0.034381233 0.030733194 0.025647279
0.020047253 0.014397589 0.008929901 0.003755855 -0.0010762828 -0.0055509415 -0.00967047 -0.013447218
-0.016898427 0.034098703 -0.04094756 -1.0341696 -0.020486956 0.98954386 -0.003683693 0.0008726959
0.004034437 0.006326651 0.008066958 0.00943928 0.0105453655 0.011440581 0.0121538695 0.012700252
0.013088744 0.013324912 0.03110568 -0.014694227 -0.04802831 -0.05924352 -1.0603361 -0.057595488
-0.053700678 -0.049545433 0.9546206 -0.04126795 -0.037183635 -0.033116687 -0.02906147 -0.02501932
-0.020996632 -0.01700169 -0.013044458 0.06303511 -0.047970243 -0.042174015 -0.031776432 -0.023092836
-0.016092978 -0.0102482 -0.005162624 -1.0005772 0.003632962 0.007585603 0.011324844 0.014880858
0.018271606 0.02150597 0.024588972 1.0275367
00000000: dd2e 88bd dd12 87bf 89be 803f 0ba6 e53c
00000010: 754c 0e3d 56d3 0c3d 2ec4 fb3c 3e1a d23c
00000020: 233a a43c dde3 6b3c b84e 123c ca24 763b
00000030: 0f12 8dba ace4 b5bb e470 1ebc b851 5cbc
00000040: 926e 8abc 15ab 0b3d a1b8 27bd ab5f 84bf
00000050: 43d4 a7bc bf52 7d3f 1d6a 71bb a1c5 643a
00000060: 4f33 843b cc4f cf3b 462b 043c 36a7 1a3c
00000070: 78c6 2c3c 4671 3b3c 0621 473c b814 503c
00000080: 2c72 563c bb50 5a3c 57d1 fe3c 0ec0 70bc
00000090: 55b9 44bd 55a9 72bd 18b9 87bf 3fe9 6bbd
000000a0: 3ef5 5bbd 27f0 4abd 0462 743f 9508 29bd
000000b0: de4d 18bd 5da5 07bd 5212 eebc 51f5 ccbc
000000c0: 2101 acbc 2147 8bbc 6cb8 55bc 8d18 813d
000000d0: 727c 44bd a9be 2cbd 0128 02bd 302d bdbc
000000e0: 6cd5 83bc 11e8 27bc 3b2b a9bb ea12 80bf
000000f0: fd16 6e3b a690 f83b d78b 393c d8ce 733c
00000100: 56ae 953c 4a2d b03c d06e c93c 5386 833f

linear1.weight f4 [128, 99]
-0.019143792 0.11858467 -0.009047126 -0.042922903 -0.1762416 -0.031128969 0.024936186 -0.024922565
-0.025665563 -0.08771238 -0.005751835 -0.054552726 -0.1933668 0.0148728425 -0.0708262 0.0069579897
-0.19131623 -0.036200557 -0.016701953 -0.07904027 -0.019457648 0.01176914 -0.14234349 -0.057172783
-0.027688097 -0.1538002 -0.16456638 -0.0174983 0.13669313 -0.0040644095 -0.06335324 -0.0026497394
0.17555015 0.032047268 -0.100860335 -0.31651372 0.010086247 -0.15519163 -0.066130474 0.0381111
0.17441666 -0.06744978 0.016707122 0.00877723 0.004953563 -0.12222471 0.11944188 0.13352346
0.2895492 0.0019671742 -0.109728366 0.30382255 0.083112106 -0.09347815 0.10540004 0.07778771
-0.09279572 0.1653653 0.063976176 -0.24434337 0.43151546 -0.016386881 0.072465144 0.21236205
0.17397813 0.20222309 0.058985986 -0.15201695 -0.011249302 -0.005292258 -0.03623286 0.006922295
-0.027047178 -0.069777586 0.08488218 -0.021446953 -0.060571335 0.06428828 0.048756707 0.01501674
-0.028985241 -0.025446016 0.03939413 0.006558204 0.15998556 -0.10506089 0.14135982 -0.032723594
-0.04426579 0.0076929354 -0.018426094 -0.0042969584 0.07097482 -0.106473394 0.006908413 0.051319208
0.05176202 0.03236032 -0.009677004 0.017671738 0.04862841 -0.07187986 -0.062445585 0.2282014
-0.021716364 -0.074020214 0.08138251 -0.09434216 -0.075416096 0.033223122 0.04886001 0.033777043
0.08144961 -0.129365 0.119770095 0.27465653 0.126364 -0.09844245 0.109747365 0.011208828
0.033746496 0.13792445 -0.17445087 -0.11000006 0.13755184 0.12139308 -0.09643598 -0.057467625
-0.08682331 0.056268107 0.21604462 -0.03437251 0.0633483 0.13899837 0.66097087 0.022474801
0.28073314 0.26589745 -0.16655299 -0.06915406 0.017204266 -0.09283062 0.020184457 -0.04373963
-0.08991938 0.14301042 -0.15792155 0.114170805 0.03825165 -0.06788355 -0.18210645 0.25759408
0.036416758 -0.22255339 0.1189315 -0.29887483 -0.035377588 0.0004585737 0.15212195 -0.18463981
-0.10744575 -0.3250326 -0.19648884 -0.03818604 -0.24356344 0.05689704 0.19133566 -0.14974159
0.120829515 -0.09893136 0.12787603 -0.16947518 -0.1236457 -0.0047903107 -0.049865805 0.17821656
-0.020422079 -0.02558485 0.054842923 -0.08591988 0.0903426 -0.087663084 -0.0026245043 0.06497535
0.10933531 -0.12301637 0.059198122 -0.1847012 -0.054851815 -0.055692088 -0.14925785 0.034428753
-0.0804587 -0.13898742 0.02960572 -0.048067495 -0.2136509 0.022103772 0.03232004 0.11139293
0.047998063 -0.03091613 -0.0369407 0.018399373 -0.08864753 -0.12111075 -0.016858038 -0.0029321813
0.07787982 -0.09692333 0.044905495 -0.21810237 0.038102645 -0.1512858 0.18994483 -0.115955986
-0.05293483 -0.0027119147 -0.12879369 0.017970925 -0.034784853 0.039642595 0.03284425 -0.22497943
-0.09693428 0.11268669 -0.22892477 0.0449544 -0.037387542 -0.26210436 -0.110842854 -0.02005376
-0.037541505 -0.5517865 -0.11779093 -0.11480016 -0.13681267 0.15781473 -0.1086557 0.080669835
0.053122927 0.06348553 0.07892519 0.0055096 -0.1349892 -0.031902056 -0.19240662 0.14947905
-0.029627282 -0.22536756 -0.18016274 -0.1137153 0.032896865 -0.17006387 -0.096242964 -0.27225816
00000000: 71d3 9cbc 85dc f23d 663a 14bc edcf 2fbd
00000010: ae78 34be 2e02 ffbc f946 cc3c 682a ccbc
00000020: 9640 d2bc 8ca2 b3bd e479 bcbb ae72 5fbd
00000030: f201 46be 39ad 733c 540d 91bd d9ff e33b
00000040: 67e8 43be 0947 14bd 89d2 88bc dddf a1bd
00000050: a565 9fbc 5ad3 403c 7ec2 11be 022e 6abd
00000060: 26d2 e2bc cd7d 1dbe 1784 28be 9858 8fbc
00000070: 49f9 0b3e bd2e 85bb 58bf 81bd 40a7 2dbb
00000080: 6bc3 333e ff43 033d dd8f cebd 160e a2be
00000090: c940 253c 8eea 1ebe 6a6f 87bd 631a 1c3d
000000a0: 489a 323e 1c23 8abd 60dd 883c 5fce 0f3c
000000b0: 8051 a23b f350 fabd f29d f43d 60ba 083e
000000c0: cb3f 943e b5eb 003b 44b9 e0bd a18e 9b3e
000000d0: ae36 aa3d 7971 bfbd fadb d73d 2a4f 9f3d
000000e0: af0b bebd 8555 293e f105 833d 2635 7abe
000000f0: 98ef dc3e c83d 86bc 9b68 943d 7075 593e
00000100: 5327 323e 9213 4f3e 4a9b 713d 55aa 1bbe
00000110: fe4e 38bc ae6a adbb e868 14bd 6bd4 e23b
00000120: 0b92 ddbc 8de7 8ebd b5d6 ad3d 85b1 afbc
00000130: a619 78bd 93a9 833d 1db5 473d c608 763c
00000140: 7572 edbc 2a74 d0bc bd5b 213d 34e6 d63b
00000150: 41d3 233e 2a2a d7bd a1c0 103e 2d09 06bd
00000160: 0c50 35bd 0515 fc3b 52f2 96bc 80cd 8cbb
00000170: 3f5b 913d b90e dabd f85f e23b 1734 523d
00000180: 6904 543d 418c 043d 4c8c 1ebc 52c4 903c
00000190: 952e 473d bf35 93bd f1c6 7fbd a1ad 693e
000001a0: 84e6 b1bc e997 97bd e0ab a63d 7636 c1bd
000001b0: c173 9abd f814 083d 6f21 483d cc59 0a3d
000001c0: 0ecf a63d 4278 04be 064a f53d c89f 8c3e
000001d0: 9065 013e 329c c9bd 3ac3 e03d 3ba5 373c
000001e0: c439 0a3d 113c 0d3e 40a3 32be b647 e1bd
000001f0: 64da 0c3e ef9c f83d 3a80 c5bd 2c63 6bbd
00000200: 6bd0 b1bd 6379 663d cd3a 5d3e 30ca 0cbd
00000210: c1bc 813d 9755 0e3e 6335 293f 131d b83c
00000220: 41bc 8f3e b623 883e de8c 2abe a5a0 8dbd
00000230: f6ef 8c3c fb1d bebd e059 a53c 5428 33bd
00000240: a727 b8bd 5371 123e 30b6 21be 62d2 e93d
00000250: c3ad 1c3d 8806 8bbd 1d7a 3abe 5fe3 833e
00000260: bd29 153d 09e5 63be 5c92 f33d 1f06 99be
00000270: 17e8 10bd b86c f039 dbc5 1b3e 3812 3dbe
00000280: 840c dcbd ac6a a6be 5f34 49be f768 1cbd
00000290: b268 79be df0c 693d 7fed 433e dc55 19be
000002a0: 7775 f73d 869c cabd eff1 023e e78a 2dbe
000002b0: f539 fdbd 0af8 9cbb 1640 4cbd 677e 363e
000002c0: 344c a7bc 5297 d1bc f9a2 603d c3f6 afbd
000002d0: 8b05 b93d b488 b3bd e0ff 2bbb cc11 853d
000002e0: 31eb df3d 02f0 fbbd bb79 723d 5022 3dbe
000002f0: 4cac 60bd 631d 64bd 0dd7 18be 2a05 0d3d
00000300: 88c7 a4bd b852 0ebe b287 f23c 6ce2 44bd
00000310: 4dc7 5abe f812 b53c 0562 043d fa21 e43d
00000320: 9e99 443d d343 fdbc 224f 17bd 48ba 963c
00000330: d68c b5bd ea08 f8bd de19 8abc d729 40bb
00000340: 747f 9f3d bd7f c6bd d3ee 373d 3a56 5fbe
00000350: 8511 1c3d aaea 1abe e680 423e 557a edbd
00000360: 31d2 58bd 61ba 31bb 7ee2 03be c337 933c
00000370: 907a 0ebd 4660 223d b187 063d 0261 66be
00000380: 7b85 c6bd 48c8 e63d 416b 6abe 1b22 383d
00000390: ae23 19bd 8b32 86be 9401 e3bd c847 a4bc
000003a0: 1fc5 19bd e141 0dbf 5f3c f1bd 591c ebbd
000003b0: 9f18 0cbe 2f9a 213e e186 debd 3a36 a53d
000003c0: 6d97 593d b404 823d 88a3 a13d e089 b43b
000003d0: 9c3a 0abe bbab 02bd 3e06 45be 0911 193e
000003e0: eab4 f2bc c1c6 66be 957c 38be 91e3 e8bd
000003f0: ddbe 063d 3925 2ebe 081b c5bd 6c65 8bbe

linear1.bias f4 [128]
-0.046415064 -0.04653709 0.021665135 0.06976415 -0.060196534 -0.057888027 -0.06261205 0.06950159
-0.013464214 0.061614405 0.026844036 -0.13840385 0.08139214 -0.060112473 -0.0664372 -0.04842124
-0.022229938 0.028463077 0.08766419 -0.0114927115 -0.027616395 -0.047212217 0.018304322 -0.06655025
-0.02073674 -0.07522125 -0.016859477 0.04774444 -0.0655338 -0.04571596 -0.043983486 -0.12220303
-0.10245152 0.011714129 0.012860782 0.04098397 0.015132348 -0.031565182 -0.060316216 0.016794134
-0.10585494 -0.020847531 0.097089246 -0.10429744 -0.09523999 -0.0018677985 -0.05451917 0.09595906
0.025513612 -0.040195175 0.062914774 0.01847113 -0.08268947 0.04102909 0.023360837 0.047912613
0.010638886 0.062254965 0.03502697 -0.021564052 -0.014736311 0.03897913 0.048430555 0.020757526
0.028015306 0.04579363 -0.04399615 0.10120876 -0.081225924 0.043310143 -0.036956508 -0.068292074
0.038241345 -0.037546057 -0.08434709 -0.026433434 0.026775192 0.05777036 -0.055437416 0.017568354
-0.067757316 -0.051125295 -0.044784214 0.06296173 -0.019157238 -0.06549694 0.015858565 0.0292747
0.09031395 -0.0003080661 -0.06901131 0.047027446 0.020300407 -0.000978185 -0.01696003 -0.04405203
0.003232886 -0.074828304 0.030298317 -0.045377746 -0.059273303 -0.07426101 -0.049412563 0.034795973
0.015328153 0.06376127 -0.05241783 0.066106796 -0.013857596 -0.011626433 -0.06917152 -0.025110967
0.039113473 -0.045591667 0.0662666 0.0049507776 -0.062059384 -0.095162086 0.056323197 0.017494192
-0.032184113 0.076176904 0.026632952 -0.08569592 -0.102310784 0.010344216 -0.048323132 -0.121673316
00000000: b91d 3ebd ad9d 3ebd 157b b13c 82e0 8e3d
00000010: a490 76bd ff1b 6dbd bf3a 80bd da56 8e3d
00000020: 0299 5cbc 635f 7c3d 06e8 db3c bdb9 0dbe
00000030: ecb0 a63d 7f38 76bd 3a10 88bd 5a55 46bd
00000040: 8f1b b6bc 662b e93c 4889 b33d ed4b 3cbc
00000050: c73b e2bc 9961 41bd f2f2 953c 7f4b 88bd
00000060: 19e0 a9bc 990d 9abd e31c 8abc ad8f 433d
00000070: 9636 86bd a940 3bbd 0728 34bd 9545 fabd
00000080: 1ad2 d1bd 9eec 3f3c 08b6 523c cfde 273d
00000090: abed 773c 7e4a 01bd 230e 77bd da93 893c
000000a0: 7aca d8bd 71c8 aabc bad6 c63d e599 d5bd
000000b0: 2f0d c3bd ebd0 f4ba 7e4f 5fbd 2f86 c43d
000000c0: ec01 d13c b2a3 24bd 76d9 803d c450 973c
000000d0: 1959 a9bd 1e0e 283d 3a5f bf3c 0440 443d
000000e0: b94e 2e3c 10ff 7e3d 7178 0f3d 18a7 b0bc
000000f0: 9170 71bc 95a8 1f3d 1e5f 463d b00b aa3c
00000100: 5b80 e53c 1a92 3b3d 4f35 34bd 8a46 cf3d
00000110: c759 a6bd fa65 313d b55f 17bd b7dc 8bbd
00000120: f5a2 1c3d e5c9 19bd 2bbe acbd ee8a d8bc
00000130: a657 db3c 9da0 6c3d 5812 63bd 82eb 8f3c
00000140: 59c4 8abd c268 51bd a76f 37bd 14f2 803d
00000150: a4ef 9cbc 4223 86bd d2e9 813c 7fd1 ef3c
00000160: 85f6 b83d ef83 a1b9 cd55 8dbd da9f 403d
00000170: 0a4d a63c 7136 80ba c3ef 8abc e76f 34bd
00000180: d4de 533b 953f 99bd 2d34 f83c 04de 39bd
00000190: 90c8 72bd 2816 98bd d464 4abd 3986 0e3d
000001a0: ef22 7b3c 4595 823d 14b4 56bd 0063 873d
000001b0: f80a 63bc cb7c 3ebc cca9 8dbd 84b5 cdbc
000001c0: 7335 203d 54be 3abd c8b6 873d 223a a23b
000001d0: fb31 7ebd 57e4 c2bd 27b3 663d fb4f 8f3c
000001e0: 7dd3 03bd a302 9c3d 592d da3c 5881 afbd
000001f0: 5188 d1bd c97a 293c 7aee 45bd dc2f f9bd

linear2.weight f4 [64, 128]
0.00790669 -0.10509702 -0.15323855 0.007597347 -0.05828449 -0.02142788 0.0141993705 -0.22788526
-0.05199626 0.0715332 -0.061323147 -0.24134514 0.0726908 0.047735006 0.13490494 0.024374211
-0.1328915 0.040932912 0.036637694 0.06331604 -0.071117625 -0.16290835 0.008737272 0.033534855
0.044958163 0.028158352 0.1630509 -0.1768384 0.0006946784 0.018787133 -0.15599088 -0.014072686
-0.078717485 -0.15045045 0.05137974 0.02532699 0.048894297 0.07471631 -0.02963269 0.08228415
-0.013809779 -0.3256866 -0.39688006 -0.004752334 -0.118971 0.012321241 -0.037527107 0.15328446
-0.0008945956 -0.13918705 -0.05940093 -0.05781477 0.016224308 -0.1260787 0.04037729 -0.37015957
-0.10393286 0.05426418 -0.13726611 -0.005724823 -0.18860076 -0.018075865 -0.01651996 -0.16350299
-0.0028254762 -0.1459953 -0.03238935 -0.04142248 -0.030307954 0.035851173 -0.028986868 0.09620949
0.0036412575 -0.15256651 0.043401882 0.021615835 -0.3042573 -0.064187914 0.0253409 -0.08864058
0.03369322 -0.059056547 -0.076748915 -0.11758342 -0.065045096 0.12015794 -0.14007945 0.09534071
0.101640865 -0.06286988 0.09851692 0.014149217 -0.09216799 0.00046873186 -0.047684092 0.025063854
-0.13119562 -0.030371405 -0.10157583 0.016549556 -0.12477026 0.030008383 -0.1033143 -0.06372536
-0.018626735 -0.07095182 0.13260184 -0.1148773 0.0015883268 -0.10609488 -0.0458665 0.05462258
-0.07279543 0.07859082 -0.03724849 -0.22505045 -0.12626667 -0.15300882 0.123710215 0.0053979773
0.025222065 0.021190863 -0.13217467 -0.03979178 -0.06008024 0.017099079 -0.18382606 -0.062334083
0.013402934 -0.06703286 -0.07133563 -0.22070678 0.04227047 -0.007464197 0.0048911693 0.10952842
0.22453776 -0.053026833 0.1530691 0.054527797 -0.1941682 -0.05641475 -0.19248845 -0.04587151
0.1372345 -0.13707897 -0.12007024 -0.12906612 0.18437853 0.19588153 -0.0941276 -0.198596
-0.14579839 -0.11454219 0.029321635 0.08766839 -0.16593672 0.022939758 0.032411724 -0.15671785
0.055421654 0.11841819 -0.25742346 -0.16115943 -0.10411094 -0.07677084 -0.13151327 -0.091578364
-0.105846815 0.123344995 0.041433796 0.18360876 0.07050268 -0.15659595 -0.16690423 -0.024862576
0.062739484 0.08487677 -0.091429085 -0.145101 -0.0986368 0.04862235 -0.119947515 0.21584776
0.029187188 -0.20674022 -0.0073481346 -0.10355438 0.17243512 -0.038116243 0.08894659 0.08094541
-0.046688635 0.084353596 -0.27738565 0.038094178 -0.07510286 -0.27205044 0.101946674 -0.06689738
-0.10130665 0.23366496 -0.16602488 -0.2167645 0.1671614 0.15131703 -0.098947644 0.11767495
-0.1302311 -0.0038309835 0.09931148 0.18845057 -0.14382727 -0.048015896 0.15505533 -0.067960195
-0.015779082 -0.184728 -0.12232223 0.020576682 -0.03968058 0.10570293 -0.2062723 0.008031562
0.20762059 0.2000317 0.05520067 -0.18663323 -0.019812228 -0.13944392 0.12095808 0.21989319
0.20144956 0.08573985 -0.5481493 0.05287927 -0.022093358 0.1799639 -0.07537745 -0.23237921
-0.0073480722 -0.00208237 -0.11771265 0.13021977 0.071578704 0.12270699 -0.09498243 -0.2018938
-0.2075096 0.032652706 -0.017133137 0.077334374 -0.31138873 -0.24560583 0.023690768 -0.041132316
00000000: 108b 013c 1b3d d7bd 91ea 1cbe 2af3 f83b
00000010: b8bb 6ebd 8589 afbc 7aa4 683c c15a 69be
00000020: 08fa 54bd 0080 923d fb2d 7bbd 2e23 77be
00000030: eade 943d c885 433d 8524 0a3e 6dac c73c
00000040: b614 08be 45a9 273d 6811 163d d7ab 813d
00000050: 1ea6 91bd 72d1 26be c626 0f3c d85b 093d
00000060: 0d26 383d 58ac e63c d1f6 263e 2015 35be
00000070: 141b 363a 79e7 993c 13bc 1fbe 2091 66bc
00000080: a236 a1bd af0f 1abe 9073 523d 8c7a cf3c
00000090: 6345 483d dd04 993d 41c0 f2bc 9884 a83d
000000a0: 6942 62bc 65c0 a6be dd33 cbbe 78b9 9bbb
000000b0: 11a7 f3bd 08df 493c 06b6 19bd 9af6 1c3e
000000c0: 4b83 6aba 0d87 0ebe 644e 73bd 2ecf 6cbd
000000d0: d7e8 843c c61a 01be a862 253d 8e85 bdbe
000000e0: c0da d4bd 1e44 5e3d 7d8f 0cbe 4c97 bbbb
000000f0: 8f20 41be d613 94bc de54 87bc 546d 27be
00000100: a02b 39bb cb7f 15be b2aa 04bd 9eaa 29bd
00000110: 6348 f8bc aed8 123d de75 edbc 7b09 c53d
00000120: 2aa2 6e3b 653a 1cbe 2cc6 313d b113 b13c
00000130: 9dc7 9bbe f474 83bd b897 cf3c 3189 b5bd
00000140: e701 0a3d 47e5 71bd 892e 9dbd 93cf f0bd
00000150: 5d36 85bd 5e15 f63d fd70 0fbe fd41 c33d
00000160: 1629 d03d ecc1 80bd 3dc3 c93d 1ed2 673c
00000170: 92c2 bcbd 20c0 f539 6550 43bd b652 cd3c
00000180: 2558 06be 74cd f8bc fd06 d0bd ef92 873c
00000190: 8d87 ffbd 24d4 f53c 7396 d3bd 7182 82bd
000001a0: 1897 98bc 304f 91bd c7c8 073e ca44 ebbd
000001b0: 672f d03a 4648 d9bd 83de 3bbd edbb 5f3d
000001c0: c515 95bd 39f4 a03d df91 18bd a073 66be
000001d0: 0d4c 01be 58ae 1cbe c85b fd3d 84e1 b03b
000001e0: 819e ce3c 7698 ad3c cc58 07be b5fc 22bd
000001f0: b316 76bd 5e13 8c3c e63c 3cbe 0652 7fbd
00000200: fb97 5b3c 8648 89bd 6a18 92bd f500 62be
00000210: cd23 2d3d 3996 f4bb 1a46 a03b 7050 e03d
00000220: 3aed 653e aa32 59bd 25be 1c3e 8a58 5f3d
00000230: 07d4 46be 2713 67bd b11b 45be c4e3 3bbd
00000240: 3387 0c3e 6e5e 0cbe 63e7 f5bd e929 04be
00000250: bacd 3c3e 2b95 483e f9c5 c0bd c05c 4bbe
00000260: 2c4c 15be 1995 eabd ed33 f03c 7c8b b33d
00000270: 51eb 29be 29ec bb3c 28c2 043d a57a 20be
00000280: d101 633d 3c85 f23d 02cd 83be fa06 25be
00000290: 1e38 d5bd 083a 9dbd 6aab 06be 708d bbbd
000002a0: 37c6 d8bd 4d9c fc3d 7cb6 293d ef03 3c3e
000002b0: b663 903d b05a 20be f1e8 2abe 9aac cbbc
000002c0: 8f7d 803d dfd3 ad3d 2c3f bbbd 5b95 14be
000002d0: 1702 cabd 3b28 473d 0ba7 f5bd 3207 5d3e
000002e0: f819 ef3c b5b3 53be 9fc8 f0bb 5214 d4bd
000002f0: d592 303e c71f 1cbd a129 b63d b5c6 a53d
00000300: 953c 3fbd 94c1 ac3d 7e05 8ebe a408 1c3d
00000310: 87cf 99bd 324a 8bbe 6bc9 d03d 7e01 89bd
00000320: dc79 cfbd de45 6f3e 6d02 2abe 83f7 5dbe
00000330: 5c2c 2b3e daf2 1a3e 10a5 cabd 90ff f03d
00000340: 4d5b 05be 3d11 7bbb d163 cb3d 30f9 403e
00000350: 7547 13be 51ac 44bd d3c6 1e3e b72e 8bbd
00000360: 2243 81bc 5629 3dbe 1484 fabd 6e90 a83c
00000370: 1b88 22bd c77a d83d 0c39 53be d096 033c
00000380: 7e9a 543e 1cd5 4c3e 191a 623d c81c 3fbe
00000390: 414d a2bc 63ca 0ebe dfb8 f73d ae2b 613e
000003a0: cb48 4e3e 6098 af3d 8353 0cbf ef97 583d
000003b0: 21fd b4bc 7548 383e 7e5f 9abd d1f4 6dbe
000003c0: 19c8 f0bb 5f78 08bb 5413 f1bd 5558 053e
000003d0: db97 923d cd4d fb3d 2686 c2bd 40bd 4ebe
000003e0: 667d 54be d8be 053d cb5a 8cbc 7c61 9e3d
000003f0: 586e 9fbe 1880 7bbe 2413 c23c 5c7a 28bd

linear2.bias f4 [64]
0.0563949 -0.13736898 -0.3253065 0.05634486 0.047164764 0.1075224 0.056916755 -0.35358593
0.03135079 0.062314313 0.05202829 0.06279884 0.027773535 0.08838989 0.058946036 0.058593724
0.0944971 0.10587696 0.00334254 0.07332862 0.0553388 0.10579137 0.11144549 0.08229355
0.11053297 0.041209128 -0.060563214 0.02075826 0.020450752 0.07330409 0.039200753 0.07753951
0.07059067 0.032730717 0.115348294 0.03303729 -0.29526615 -0.31518847 0.06185261 0.11916277
0.022154858 -0.04451045 0.10669818 0.07333006 0.025913434 0.05938042 0.058343306 0.07564621
0.11967155 0.10301589 0.045285057 0.080184996 0.012527762 0.101057544 0.06587403 0.08319748
0.05374325 -0.26836064 0.09143343 0.06921126 0.06333652 0.011369661 0.10320012 0.04591126
00000000: 57fe 663d 74aa 0cbe 938e a6be dec9 663d
00000010: d72f 413d b434 dc3d 8b21 693d 3709 b5be
00000020: b069 003d 4b3d 7f3d 9e1b 553d ae9c 803d
00000030: 5385 e33c c205 b53d 6671 713d f9ff 6f3d
00000040: b287 c13d 05d6 d83d 840e 5b3b 512d 963d
00000050: f0aa 623d 25a9 d83d 883d e43d 8589 a83d
00000060: 1c5f e23d e7ca 283d 2211 78bd 3a0d aa3c
00000070: 5688 a73c 7420 963d f890 203d 09cd 9e3d
00000080: d791 903d a510 063d ba3b ec3d 1c52 073d
00000090: 202d 97be 6260 a1be 2a59 7d3d 9c0b f43d
000000a0: 1b7e b53c 9750 36bd 9384 da3d 122e 963d
000000b0: 6948 d43c e238 733d 64f9 6e3d 66ec 9a3d
000000c0: 5c16 f53d fff9 d23d d37c 393d 0838 a43d
000000d0: 3e41 4d3c 42f7 ce3d f7e8 863d 7163 aa3d
000000e0: e221 5c3d 9166 89be 7341 bb3d a2be 8d3d
000000f0: 94b6 813d d147 3a3c 965a d33d 720d 3c3d

linear3.weight f4 [16, 64]
0.037300646 -0.09503466 -0.2827904 0.23727815 -0.011807161 -0.21620284 0.119623125 -0.24954607
-0.24687883 -0.28344935 -0.1210991 0.12632905 0.11261038 0.16493762 0.14858338 -0.35218865
0.11893982 -0.2919783 0.075052686 0.17889997 -0.03882138 0.014543123 0.13850091 -0.01279823
-0.07503606 0.148576 0.08171102 -0.2685022 0.16369252 -0.03930989 0.027101949 0.12470794
0.08608616 -0.07497998 -0.27979246 0.06062047 -0.239535 -0.23854011 -0.017998703 -0.042956524
0.228301 0.042602543 0.14212798 -0.013206031 0.14422363 0.11014833 -0.15512712 -0.14782877
0.14004922 0.10985024 0.0051470525 0.14998409 0.095886566 0.15654358 -0.10092378 -0.010806735
-0.16132647 -0.1601056 0.12235361 0.07738867 -0.05745538 0.06695623 -0.13401006 0.012001843
-0.048223794 0.18484433 0.17209768 -0.19831453 0.04609171 0.055366863 -0.055038616 0.13768804
0.25417465 0.30300203 0.13916637 -0.16867748 -0.27890345 -0.14566728 -0.11874292 0.37168986
-0.06972604 0.24673252 -0.14804778 -0.09043445 -0.08226753 -0.13362086 -0.122458175 -0.11159626
0.20861539 -0.12220669 -0.16990583 0.12396252 -0.0068568676 0.0629816 -0.038296454 -0.12119932
-0.20197481 0.08898415 0.20344138 -0.0012060361 0.1300374 0.23662177 0.055154905 0.047576927
-0.23439741 0.09311176 -0.07164222 0.016577544 -0.08546459 -0.10852809 0.001379202 0.12186992
0.05249651 0.08297272 -0.0313528 0.075291246 0.03402829 -0.14616625 0.053987995 0.004379957
0.23484646 0.17924584 0.036506873 0.050347142 0.15791897 0.06273842 0.132035 -0.113342896
0.15274116 -0.027646977 -0.19843036 0.2890249 -0.21822803 -0.23768583 0.09744676 -0.20854002
-0.20031781 -0.071160085 -0.25337654 -0.016224666 0.2417768 -0.06649786 0.022137133 -0.20433061
0.040548984 -0.2901023 0.03413542 0.0682349 0.0061181844 0.04331496 -0.028083958 0.033988662
-0.0984985 -0.036201842 0.123389915 -0.25062233 0.14597666 -0.07919654 0.12468597 0.19705093
0.049415056 -0.2722706 -0.15832165 0.09278334 -0.13077757 -0.21022718 0.13848779 0.061735824
0.21687114 -0.03253423 0.0239012 0.099685356 0.1430934 -9.5730655e-05 -0.13854565 -0.21602254
0.04194779 0.105340265 0.10485011 0.124168135 0.11975762 0.14500085 -0.21233606 -0.13368982
-0.15003042 -0.21275157 0.06057593 0.09605393 -0.21783635 0.121397406 -0.16876328 0.11682656
-0.074544266 -0.21453808 -0.1485187 0.15498284 -0.12774773 -0.049955454 -0.04877276 -0.2516433
-0.2642859 -0.14437376 -0.28592756 0.0038761403 0.1561011 0.100413494 0.04913301 -0.3170749
0.1924319 -0.2948453 0.07302877 0.0025863894 -0.014515458 0.113843374 -0.0043374454 0.15763511
-0.15398522 0.090272605 0.13428207 -0.08063704 0.031879466 0.15886918 0.15579171 0.149006
0.009647982 -0.20029931 -0.11276984 0.16659616 -0.045055278 -0.06748975 -0.005345364 -0.016846783
0.2517105 0.039610486 -0.051833287 0.055470806 -0.053358864 0.14797293 -0.12943374 -0.10887077
0.12927689 0.080151655 0.10567557 0.012010816 0.14421228 0.17324668 -0.21637602 -0.027862838
-0.1558588 -0.22935438 0.0108925 -0.09816138 -0.17393273 0.092547484 -0.2813937 -0.006041711
00000000: 90c8 183d 88a1 c2bd e7c9 90be 0bf9 723e
00000010: d372 41bc 4764 5dbe f8fc f43d 0189 7fbe
00000020: cecd 7cbe 4620 91be ce02 f8bd 675c 013e
00000030: 45a0 e63d 68e5 283e 3e26 183e 1252 b4be
00000040: b896 f33d 2e7e 95be 39b5 993d 8e31 373e
00000050: 2b03 1fbd 4746 6e3c 2fd3 0d3e abaf 51bc
00000060: 81ac 99bd 4f24 183e 1b58 a73d 1f79 89be
00000070: 039f 273e 6803 21bd e804 de3c e066 ff3d
00000080: f14d b03d 1b8f 99bd f540 8fbe 2c4d 783d
00000090: aa48 75be dc43 74be 0472 93bc 2ef3 2fbd
000000a0: bdc7 693e 0180 2e3d ff89 113e 1c5e 58bc
000000b0: 5caf 133e 7395 e13d a5d9 1ebe 6d60 17be
000000c0: 1069 0f3e 2af9 e03d 9ba8 a83b 6e95 193e
000000d0: 2d60 c43d f64c 203e 20b1 cebd bb0e 31bc
000000e0: c432 25be b9f2 23be 8894 fa3d f37d 9e3d
000000f0: 5556 6bbd 5920 893d ef39 09be 61a3 443c
00000100: 5086 45bd d547 3d3e 603a 303e f712 4bbe
00000110: a9ca 3c3d 5dc8 623d 2c70 61bd 18fe 0c3e
00000120: 2e23 823e 1523 9b3e a181 0e3e cab9 2cbe
00000130: 6fcc 8ebe ce29 15be 7d2f f3bd 224e be3e
00000140: 87cc 8ebd 73a7 7c3e d699 17be b235 b9bd
00000150: e17b a8bd e8d3 08be 5acb fabd 948c e4bd
00000160: 469f 553e 8047 fabd cbfb 2dbe 10e0 fd3d
00000170: 93af e0bb 7ffc 803d bedc 1cbd 5937 f8bd
00000180: 7cd2 4ebe 523d b63d f052 503e db13 9eba
00000190: 8628 053e fa4c 723e 1cea 613d 06e0 423d
000001a0: e005 70be 61b1 be3d 28b9 92bd a1cd 873c
000001b0: 0f08 afbd fa43 debd 57c6 b43a f096 f93d
000001c0: 9506 573d 9aed a93d cb6b 00bd 4c32 9a3d
000001d0: 4061 0b3d 9bac 15be 8422 5d3d be85 8f3b
000001e0: 977b 703e 398c 373e 3b88 153d ce38 4e3d
000001f0: 83b5 213e 007d 803d 2f34 073e 5220 e8bd
00000200: 2e68 1c3e ea7b e2bc 5431 4bbe 12fb 933e
00000210: 2b77 5fbe ea63 73be 2b92 c73d 848b 55be
00000220: 1d20 4dbe 61bc 91bd 92ba 81be 97e9 84bc
00000230: 5694 773e 0830 88bd ef58 b53c 0b3c 51be
00000240: b116 263d 4a88 94be 95d1 0b3d bdbe 8b3d
00000250: 0d7b c83b 076b 313d 5410 e6bc b237 0b3d
00000260: 95b9 c9bd 6248 14bd dab3 fc3d 9251 80be
00000270: e87a 153e cc31 a2bd 5c5b ff3d b8c7 493e
00000280: 7167 4a3d 0d67 8bbe 121f 22be 3105 be3d
00000290: 8eea 05be cb45 57be becf 0d3e b4de 7c3d
000002a0: 7813 5e3e 9d42 05bd 73cc c33c d627 cc3d
000002b0: 1487 123e 01c3 c8b8 e9de 0dbe 0335 5dbe
000002c0: 72d1 2b3d a3bc d73d a8bb d63d dd4b fe3d
000002d0: 7c43 f53d 1a7b 143e a06e 59be fce5 08be
000002e0: 93a1 19be 8cdb 59be 771e 783d ecb7 c43d
000002f0: 7e10 5fbe 349f f83d 48d0 2cbe c342 ef3d
00000300: aaaa 98bd dfaf 5bbe 4915 18be d2b3 1e3e
00000310: 4dd0 02be 179e 4cbd f2c5 47bd 64d7 80be
00000320: 7b50 87be b7d6 13be 1965 92be d806 7e3b
00000330: f7d8 1f3e 97a5 cd3d b23f 493d a457 a2be
00000340: de0c 453e f7f5 96be 1c90 953d 6a80 293b
00000350: 3ed2 6dbc b726 e93d 2121 8ebb 196b 213e
00000360: 4dae 1dbe d8e0 b83d 3d81 093e 0825 a5bd
00000370: 0b94 023d 9aae 223e dd87 1f3e 0795 183e
00000380: 9212 1e3c 431b 4dbe e0f3 e6bd 2f98 2a3e
00000390: e28b 38bd 1138 8abd 2a28 afbb 4402 8abc
000003a0: 33e0 803e 9b3e 223d 244f 54bd 5b35 633d
000003b0: d38e 5abd 3786 173e 478a 04be a3f7 debd
000003c0: 2961 043e 8d26 a43d 6f6c d83d 03c9 443c
000003d0: 62ac 133e 9467 313e ad91 5dbe 9b40 e4bc
000003e0: 7399 1fbe e0db 6abe 7576 323c d508 c9bd
000003f0: 6c1b 32be 8989 bd3d d612 90be 8cf9 c5bb

linear3.bias f4 [16]
0.25270918 -0.06617214 0.23247626 0.2198933 -0.24014187 0.10095439 -0.29282615 0.080727465
0.30884048 0.2790741 -0.08907871 -0.09730233 0.28093615 0.16772634 -0.26885754 -0.23978288
00000000: 1963 813e 4285 87bd 420e 6e3e b62b 613e
00000010: c0e7 75be 2dc1 ce3d 4fed 95be 7154 a53d
00000020: 5720 9e3e cde2 8e3e e66e b6bd 7246 c7bd
00000030: ddd6 8f3e 74c0 2b3e b2a7 89be a589 75be

embedding_layer.weight f4 [16, 16]
0.3266797 -0.07297696 0.047818724 0.27758557 0.004173752 -0.1830134 -0.28515553 0.1698253
0.06811375 0.28267318 -0.030572569 0.024762195 0.053639017 -0.14170149 -0.17562816 0.003027395
0.015445432 0.12794009 -0.045859434 0.090604246 0.14513527 0.30689403 -0.31711233 -0.08703579
0.2678025 0.007895689 -0.2929885 -0.25140056 -0.012622817 0.062185988 0.051119614 -0.011832872
-0.122440144 0.29927784 -0.02274932 -0.12249774 0.25517035 -0.04082594 -0.04018817 -0.25093943
-0.22358732 -0.06306596 -0.15001266 0.30672008 -0.36748683 -0.05017419 0.34070572 -0.15344301
-0.16622831 0.0896052 -0.14501074 -0.14908001 -0.14144444 -0.18110491 -0.016831893 -0.10570382
-0.22184467 -0.05454186 0.12905917 -0.161783 -0.32279614 -0.254807 0.042934526 0.19202699
0.31975886 -0.29525962 -0.14956716 0.29998803 -0.24576823 -0.117144145 -0.3446159 0.17981131
0.27237135 0.34521043 -0.25143787 -0.03206755 0.15334564 0.19077335 -0.3145418 -0.3133806
0.11337661 -0.047029182 0.25310946 0.28504708 -0.09088311 0.22410603 -0.09312208 0.1556116
-0.14251876 -0.052617475 -0.2842821 -0.3044514 0.11970499 0.27088526 0.057153996 -0.3035981
-0.26720014 -0.07149515 -0.17752308 0.14968061 0.11986463 -0.2030332 0.23009177 0.17535257
-0.3267722 -0.2927555 0.23961245 0.1208324 -0.030782832 -0.11653717 0.25319505 0.012235956
0.071335234 -0.2264135 0.124424 0.0026753203 -0.22796303 -0.15611203 -0.074712336 0.2242649
0.26295 0.18824884 -0.10873314 -0.30503738 0.14193843 -0.15170954 -0.16397972 -0.044395108
-0.0001920473 -0.070405744 0.031279057 -0.083778284 -0.22458303 0.11527645 -0.10730491 0.08843606
0.24652725 -0.1501078 -0.17505246 -0.27218696 0.22933127 0.20098439 0.16508098 -0.053526714
0.3038878 0.03693397 0.2579011 -0.08459506 -0.19400853 0.20634572 -0.19739138 0.07117206
0.27777135 0.071825 0.03818715 -0.25426468 0.20745815 0.20907828 0.015864324 -0.13384257
-0.11134029 0.23239872 -0.1594678 0.05132539 0.1457927 -0.17159389 -0.054152466 0.070352
-0.13814548 -0.07706147 -0.028200582 0.23657142 -0.26985562 -0.27749696 0.04999568 0.30062005
0.08260232 -0.1418938 0.02888035 0.24435055 -0.1803565 -0.053711507 -0.07601083 -0.1796884
0.23227765 -0.0652207 0.012506524 -0.15225656 0.25300816 -0.095298305 -0.33056 0.1744717
0.16080679 0.21882883 -0.2977995 0.036311593 -0.0822871 0.122394584 -0.11990031 -0.0834386
-0.2164558 0.11327453 0.0030826954 0.058351617 0.10239794 -0.17495646 0.1779377 0.11465846
0.056597065 0.2957195 0.08255161 -0.30429286 0.0680528 -0.01777697 -0.022605946 0.20152813
-0.2771142 0.13013408 -0.14196752 0.31807616 -0.09685106 -0.33298734 -0.14170334 0.15810856
-0.08220757 0.037499726 0.0052635963 -0.14645801 0.027134795 -0.018097077 0.04665841 -0.26427937
-0.09275888 -0.11238859 0.053805657 -0.16287063 0.12032908 0.07891941 0.16871694 0.29848242
-0.1942028 -0.15389158 -0.27980402 -0.17669629 0.18702784 0.020114461 0.25809193 -0.092789635
0.13139798 -0.2782464 0.1599656 0.0776049 0.0072452356 -0.09373987 0.32259443 0.16810237
00000000: 9042 a73e f274 95bd 91dd 433d b21f 8e3e
00000010: f8c3 883b dd67 3bbe e8ff 91be afe6 2d3e
00000020: 397f 8b3d 8aba 903e 5373 fabc 16da ca3c
00000030: 96b4 5b3d 321a 11be ded7 33be 4367 463b
00000040: d60e 7d3c ba02 033e 1ad7 3bbd b88e b93d
00000050: 579e 143e 3721 9d3e 8c5c a2be d23f b2bd
00000060: 691d 893e ec5c 013c 9702 96be 93b7 80be
00000070: efcf 4ebc bcb6 7e3d cd62 513d aade 41bc
00000080: e6c1 fabd f23a 993e c85c babc 18e0 fabd
00000090: b0a5 823e 1a39 27bd 5a9c 24bd 227b 80be
000000a0: 13f4 64be ba28 81bd eb9c 19be 6a0a 9d3e
000000b0: 3c27 bcbe 7483 4dbd fb70 ae3e 2a20 1dbe
000000c0: c137 2abe ee82 b73d b27d 14be 6ea8 18be
000000d0: d0d6 10be 9173 39be 0ae3 89bc 3f7b d8bd
000000e0: 402b 63be 4967 5fbd 1628 043e 71aa 25be
000000f0: 8945 a5be 1076 82be 1ddc 2f3d b9a2 443e
00000100: 6fb7 a33e 452c 97be 2228 19be 0898 993e
00000110: abaa 7bbe 45e9 efbd 7f71 b0be 7520 383e
00000120: 4274 8b3e 6cbf b03e 77bc 80be 4359 03bd
00000130: a406 1d3e 175a 433e 9f0b a1be 6c73 a0be
00000140: ff31 e83d aca1 40bd 9097 813e b1f1 913e
00000150: ed20 babd 0d7c 653e cab6 bebd a658 1f3e
00000160: 70f0 11be 6c85 57bd 6c8d 91be 0ee1 9bbe
00000170: e427 f53d 79b1 8a3e 4f1a 6a3d 3671 9bbe
00000180: 75ce 88be 0d6c 92bd 9cc8 35be e045 193e
00000190: 967b f53d efe7 4fbe 2d9d 6b3e a08f 333e
000001a0: b04e a7be 0de4 95be f75c 753e fa76 f73d
000001b0: 472c fcbc 0aab eebd c8a2 813e 5279 483c
000001c0: 3518 923d f1d8 67be 03d2 fe3d 6d54 2f3b
000001d0: 246f 69be d5db 1fbe c802 99bd b3a5 653e
000001e0: 62a1 863e 4ec4 403e 7baf debd dc2d 9cbe
000001f0: 4f58 113e bf59 1bbe 4dea 27be a5d7 35bd
00000200: 4e60 49b9 e330 90bd 781e 003d f393 abbd
00000210: 18f9 65be 0f16 ec3d adc2 dbbd f71d b53d
00000220: a471 7c3e dcb5 19be f440 33be 175c 8bbe
00000230: d1d5 6a3e dace 4d3e fd0a 293e d43e 5bbd
00000240: 2f97 9b3e 1348 173d 9d0b 843e 2d40 adbd
00000250: 2caa 46be 4b4c 533e f720 4abe a8c2 913d
00000260: 0c38 8e3e fc18 933d 216a 1c3d fb2e 82be
00000270: e96f 543e 9e18 563e e6f5 813c 070e 09be
00000280: 6106 e4bd eef9 6d3e 874b 23be 923a 523d
00000290: ae4a 153e 4fb6 2fbe face 5dbd b614 903d
000002a0: 0276 0dbe 67d2 9dbd e804 e7bc c73f 723e
000002b0: 842a 8abe 1514 8ebe 45c8 4c3d dfea 993e
000002c0: 682b a93d 9c4c 11be 7c96 ec3c 0837 7a3e
000002d0: 60af 38be 9900 5cbd 91ab 9bbd 3c00 38be
000002e0: 31da 6d3e 6e92 85bd 2ae8 4c3c 25e9 1bbe
000002f0: 498a 813e c22b c3bd 293f a9be b6a8 323e
00000300: 89aa 243e aa14 603e 2d79 98be 77bb 143d
00000310: 2486 a8bd 03aa fa3d 4b8e f5bd dbe1 aabd
00000320: 97a6 5dbe 7afc e73d 0c07 4a3b 1b02 6f3d
00000330: 03b6 d13d c927 33be 4d35 363e 0ed2 ea3d
00000340: 53d2 673d 8c68 973e d210 a93d 46cc 9bbe
00000350: 445f 8b3d 02a1 91bc 1b30 b9bc 645d 4e3e
00000360: eae1 8dbe de41 053e ef5f 11be e1da a23e
00000370: d959 c6bd 517d aabe ae1a 11be 36e7 213e
00000380: 715c a8bd 5099 193d 3f7a ac3b 17f9 15be
00000390: ca49 de3c 5240 94bc e41c 3f3d a04f 87be
000003a0: 5ef8 bdbd fd2b e6bd 5263 5c3d 8fc7 26be
000003b0: 186f f63d 80a0 a13d 22c4 2c3e b0d2 983e
000003c0: 19dd 46be c195 1dbe 7942 8fbe dfef 34be
000003d0: 3a84 3f3e 15c7 a43c a024 843e 7e08 bebd
000003e0: 318d 063e 5076 8ebe 06ce 233e 51ef 9e3d
000003f0: 7169 ed3b b0fa bfbd 192b a53e 0723 2c3e

embedding_layer.bias f4 [16]
-0.024960807 0.14404225 -0.19083618 -0.18169375 0.42742106 -0.02917189 -0.40643698 0.06038312
0.30724195 -0.041207887 -0.25881538 0.43208545 -0.42404953 -0.43342552 -0.39190885 -0.02977491
00000000: 9b7a ccbc d07f 133e 8f6a 43be ed0d 3abe
00000010: efd6 da3e e3f9 eebc 8218 d0be 4a54 773d
00000020: d14e 9d3e 9ac9 28bd 7383 84be 4e3a dd3e
00000030: 051d d9be f3e9 ddbe 47a8 c8be 83ea f3bc

classifier.weight f4 [1, 16]
0.10717946 0.143776 -0.27230328 -0.30821317 0.34643078 0.20102198 -0.29562584 0.23982577
0.08087257 0.22004595 -0.24772748 0.24411939 -0.18273732 -0.22667688 -0.23455311 -0.11419318
00000000: e880 db3d 043a 133e 566b 8bbe 1ece 9dbe
00000010: 605f b13e b5d8 4d3e 455c 97be e394 753e
00000020: 85a0 a53d ba53 613e 46ac 7dbe 6ffa 793e
00000030: 7e1f 3bbe fc1d 68be b12e 70be 1dde e9bd
