models/ScatterNet-trained.pth (torch, 94234 bytes, 10 tensors)

scatter.wavelet_constructor f4 [4, 17]
000000 69 ce 7c bc a6 4a 80 bf 09 2f 81 3f 36 7f 25 3c
       -0.015430071 -1.0022781 1.0092479 0.01010113
000010 0e a6 16 3c 6a 95 02 3c 86 8c da 3b 9f 23 af 3b
       0.009194864 0.007970193 0.0066695837 0.0053448225
000020 8a b4 83 3b 0d b3 31 3b ba 66 bc 3a 0b 3b 5c 39
       0.0040193247 0.002711478 0.0014373877 0.0002100283
000030 60 f3 7b ba 43 a7 07 bb 2c 04 4c bb 21 00 86 bb
       -0.0009611156 -0.002069906 -0.0031130416 -0.004089371
000040 9a d4 a3 bb 6e 67 b6 3c 2f 60 d0 ba 81 ac 80 bf
       -0.0049997093 0.022266116 -0.0015897806 -1.0052644
000050 da 1f f5 ba 81 24 80 3f 52 e3 38 3b 6b 18 69 3b
       -0.0018701509 1.001114 0.0028211665 0.0035567533
000060 50 53 6f 3b b0 40 5c 3b 03 ab 3a 3b e4 2c 11 3b
       0.0036518164 0.0033607893 0.0028483279 0.0022152
000070 08 59 c7 3a 55 9b 51 3a 68 55 93 38 b4 40 2c ba
       0.0015209028 0.00079958636 7.0254144e-05 -0.0006570921
000080 50 8f b4 ba 88 ec 08 bb 84 c3 fe 3d b4 ed 00 bd
       -0.0013775621 -0.0020892937 0.124396354 -0.03147669
000090 ba b2 fe bc 89 43 04 bd b9 6f 84 bf 24 4b 17 bd
       -0.031091083 -0.03229097 -1.0346595 -0.036936894
0000a0 42 be 1e bd ca 0d 24 bd 64 89 75 3f ed 20 29 bd
       -0.038755663 -0.040052213 0.95912766 -0.041291166
0000b0 d8 7f 29 bd 9f cd 28 bd 8f 44 27 bd ce 15 25 bd
       -0.041381687 -0.04121172 -0.040836867 -0.040303998
0000c0 e7 68 22 bd 9e 5d 1f bd d0 0d 1c bd 4a cb b5 b9
       -0.039650824 -0.03890764 -0.03809911 -0.00034674472
0000d0 ae 5b bb bc 4b 9a 8b bc 0e 0c 2f bc 61 01 bd bb
       -0.022870865 -0.017041346 -0.010684026 -0.0057679866
0000e0 fe b4 14 bb 3a 8c 1d 39 86 ab ed 3a 3e 3d 7f bf
       -0.0022690888 0.00015024925 0.0018132783 -0.99702823
0000f0 eb e2 78 3b df cf 90 3b a3 12 a1 3b 69 f4 ae 3b
       0.003797705 0.0044193114 0.0049155517 0.0053391946
000100 03 8e bb 3b 64 8a c7 3b 37 50 d3 3b 28 df 80 3f
       0.005723716 0.0060894955 0.0064487713 1.0068102

linear1.weight f4 [128, 99]
000000 19 dd 9f bd 3e 63 62 3a a3 5f b3 3d 33 19 0c 3e
       -0.07805843 0.0008636004 0.08758476 0.13681488
000010 41 63 15 bd 30 af 82 3b 93 91 69 bc e9 6b 88 3d
       -0.03647161 0.003988169 -0.014255899 0.06661207
000020 17 a2 f1 bb 71 51 b0 bd 49 1b ad 3d 0f 81 db bb
       -0.007374059 -0.08609284 0.0845247 -0.0066987346
000030 27 70 d7 bc a4 af ee 3d 22 30 f5 3a 8a 34 fe bd
       -0.026298596 0.116545945 0.0018706361 -0.12412365
000040 1d f6 9c 3d 56 7c 83 3d d2 17 35 bd fc 28 1a 3e
       0.0766413 0.064201996 -0.04421217 0.15054697
000050 a6 46 cc 3c 3f 7b f9 3c 5e 00 2b bd 36 68 7c bd
       0.024936032 0.030454276 -0.041748397 -0.06162282
000060 a7 48 fe bc 1e 30 ca bc 33 e9 d3 bd 81 c2 22 be
       -0.031040503 -0.024681147 -0.103472136 -0.1589451
000070 64 69 9b bd c9 1a 91 3c e1 27 06 be 53 9e c5 3c
       -0.07588461 0.017712967 -0.1310115 0.024123346
000080 19 22 8c 3c 2a 93 2d 3c 1d 24 c8 3d fe 42 4a bc
       0.017106103 0.010594169 0.09772513 -0.012345074
000090 99 69 a2 bb d3 d0 84 3d d7 99 05 be a2 9e 36 3e
       -0.004956436 0.064851426 -0.13046966 0.17833951
0000a0 32 c5 0c 3e 87 1c 7a bd d5 c4 71 bd 5c 53 f5 3d
       0.13747099 -0.061062362 -0.059025604 0.1197879
0000b0 8f de 4e 3a 8e 90 79 bd a2 d8 32 3e f3 fd 9e 3c
       0.000789144 -0.060928874 0.17465451 0.019408202
0000c0 81 ab c1 3d 69 08 ff 3a 50 10 cb 3d d3 25 06 3d
       0.0945654 0.0019457462 0.09915221 0.032750916
0000d0 37 36 1b 3e 49 74 96 bd 03 67 f7 bb b7 d9 f5 3d
       0.151574 -0.073463984 -0.0075501218 0.120044164
0000e0 37 46 e6 3d e8 41 f1 3c dc 12 13 3e 77 5c 71 be
       0.11243861 0.029450372 0.14362663 -0.23570429
0000f0 e3 c4 8a bd 1f d3 19 3c 94 df 20 bd 0f 90 eb 3b
       -0.067758344 0.009388714 -0.03927572 0.007188804
000100 ba 7b bd 3b ed 50 fd 3c 5a 4e 1a 3e 92 b2 08 be
       0.0057825716 0.030922377 0.15068951 -0.13349369
000110 29 9e a8 3d 59 db 49 3d bb e4 7e 3b 69 7a 98 bd
       0.08233292 0.04928145 0.0038893658 -0.07445223
000120 d8 58 7f 3c 87 c8 31 bd 13 48 59 3c 09 7d 74 bd
       0.015585147 -0.04340413 0.013261813 -0.059689555
000130 2b 0b ad 3d 11 d1 1f be a4 f8 cb bd 78 9a bc 3c
       0.08449396 -0.15607096 -0.09959534 0.023022875
000140 e4 93 5d 3d 92 b5 09 3e f4 0f 92 3d cb e8 3f bd
       0.054096118 0.1344817 0.07131949 -0.046852868
000150 2e 7a 97 bd 88 96 26 3d 90 60 80 3d 37 61 8d 3d
       -0.07396351 0.0406709 0.06268418 0.06903308
000160 66 76 f0 3d db 89 a3 3d ec ae 6c 3d a5 87 50 bc
       0.11741333 0.07985278 0.057784006 -0.012727653
000170 ad a7 02 be 92 28 24 bd 2e 73 5c 3d 1e 2c 0f bd
       -0.12759276 -0.040077753 0.05382078 -0.034954183
000180 95 99 59 bd a9 95 80 bd 60 2f bd bd 91 64 50 bd
       -0.053124983 -0.062785454 -0.09237552 -0.050877158
000190 2a dc 80 bb 37 ed b7 3d be 8f da bd 3e f9 ad 3b
       -0.0039324956 0.08980792 -0.10671948 0.005309253
0001a0 01 b6 ef ba 0a e4 b2 bd be 8a aa 3d dd 3d 9b bd
       -0.0018288494 -0.08734901 0.08327244 -0.07580159
0001b0 f2 99 ca 3c 39 da ba bc 9d 6e 05 bd ea 15 b0 b8
       0.02473161 -0.022809135 -0.032576192 -8.396416e-05
0001c0 02 66 ad 3d 98 ff f5 3d 32 9c 85 bd c0 cd 00 3e
       0.08466722 0.12011641 -0.065239325 0.12578487
0001d0 8a 0b fc 3c 62 b2 0a bd f5 80 01 3e 3b 38 b7 3c
       0.030767221 -0.033861525 0.1264685 0.02236568
0001e0 ab 71 81 3d f8 ef 30 bd 89 20 b4 bd 77 c3 10 be
       0.063205086 -0.043197602 -0.08795268 -0.14137064
0001f0 6c 54 38 3e e8 0e 11 bd 98 c4 bb bc 20 4f 83 3d
       0.18000954 -0.035414606 -0.022920892 0.06411576
000200 d6 e1 5a bd 3b 7b ba 3c 75 59 e9 3d 44 65 99 bc
       -0.05343803 0.022763839 0.11394016 -0.018725045
000210 8f 8e f3 bd 28 a4 c5 3d 3f e9 c6 3e 05 11 31 be
       -0.11892425 0.09650451 0.38849828 -0.17291649
000220 a6 a7 2e 3d 95 06 b4 bd 7c ff b6 bc cf c4 79 3d
       0.04264035 -0.08790318 -0.022338621 0.060978707
000230 31 8f e2 bd de 67 5a bc 8f a8 00 3e 37 91 4b bd
       -0.11062468 -0.013330428 0.125643 -0.049699035
000240 40 cd cc 3c 56 58 f0 3c 6e 1c 68 3c 5c 5d 2b be
       0.025000215 0.029338997 0.014166934 -0.16734833
000250 fe de 0d 3e 69 d7 0d 3d b4 7a 0f be 4a da 36 3e
       0.13854596 0.03462926 -0.14011651 0.17856708
000260 e4 8f 0c bd 3e de 58 3d 59 c2 86 3c b9 86 f5 3d
       -0.034316912 0.05294632 0.016450094 0.11988587
000270 51 9d 7b bd d5 62 92 3e 9f 54 15 bd 9f 89 90 bd
       -0.061429325 0.28591028 -0.036457654 -0.07057499
000280 41 20 10 3e a9 a8 cd 3d 6f 76 d0 3d 8b 28 29 bb
       0.14074804 0.10041935 0.101788394 -0.002581152
000290 df c7 91 3d fe 67 13 3e 10 44 13 bd e8 10 86 3b
       0.071182005 0.14395139 -0.03595358 0.004091371
0002a0 6d b5 b4 3c d1 63 1b bd 05 b7 d6 bc 73 ab 4c 3d
       0.022059167 -0.03793699 -0.026210317 0.049968194
0002b0 64 48 08 3e c5 4c 6b bd eb 6b 41 3d e6 15 98 3c
       0.13308865 -0.05744626 0.04722206 0.01856513
0002c0 5c cb 46 bd f5 c3 cc 3d 90 7e 6d bd 12 96 11 bd
       -0.048533782 0.09998313 -0.057982028 -0.03554351
0002d0 d0 90 bb bc ce 7d bc 3c 14 80 d4 bd 80 3f 7a 3c
       -0.0228962 0.023009207 -0.103759915 0.015273929
0002e0 a7 30 1f 3d a0 1a 8e bd 9b ad e7 bc 5a a5 bf bc
       0.038864758 -0.06938672 -0.028281024 -0.023394275
0002f0 a8 a3 2c 3d 52 5c f4 bd d6 d5 0b bd 12 13 66 3d
       0.042148262 -0.11931671 -0.034139477 0.05617053
000300 9d 09 80 bd 45 4b 88 3d 7a 61 4d bd 8c c2 13 bd
       -0.062518336 0.066549815 -0.05014179 -0.036074206
000310 df cb 3a 3d 4c df b8 3c 64 e0 de 3c 4a b1 31 3c
       0.045604583 0.022567414 0.027206607 0.010845492
000320 4a 4e 4c 3d a2 d9 01 3e 38 21 ff bd f4 32 8e 3d
       0.04987935 0.12680677 -0.12457508 0.06943312
000330 38 a3 0f 3d 9a 69 f5 bc 30 d1 85 bd 40 03 74 3c
       0.035067767 -0.029957581 -0.0653404 0.014893353
000340 e9 47 0c bd 66 26 c8 bd 42 89 15 be 59 ea 44 bd
       -0.034248266 -0.09772949 -0.14603141 -0.048075054
000350 d0 a1 ae 3d e0 d5 2f 3d 7a 03 1e bd da f6 8c bd
       0.08526957 0.042928576 -0.038577534 -0.06883021
000360 ef e2 10 3e 48 bb c7 bd 8e 0e f2 bc 7e 4f 03 3d
       0.14149068 -0.09752518 -0.029547956 0.03205823
000370 54 4c 1d be cd 0f cc 3d 57 e5 c2 bd f7 71 dd bd
       -0.15361148 0.09963951 -0.09516399 -0.10812753
000380 94 85 9f bd 15 0a 1d b9 a4 45 d2 bc ec c7 04 be
       -0.0778915 -0.00014976443 -0.025667973 -0.12966889
000390 8a d0 d3 bd 8d dd b8 3c 57 73 21 3d bd da 5f bc
       -0.1034251 0.022566581 0.039416637 -0.013662991
0003a0 94 db 28 3c 83 c1 69 3d ab 17 9b bc c4 1b 32 be
       0.010306258 0.057069313 -0.018932184 -0.17393404
0003b0 43 20 4f be d3 9e 2b 3e 17 d9 0c 3e 7a 05 0b be
       -0.2022715 0.16759805 0.13754688 -0.13576308
0003c0 37 54 8f 3d 9f 17 90 3d 38 ac 08 bd 0b 27 ae bc
       0.069984846 0.07035755 -0.033367366 -0.021258852
0003d0 79 3f bb 3d 4b 30 cb bc 00 52 a0 3d f6 2b ce bd
       0.09142966 -0.024803301 0.0782814 -0.10066979
0003e0 51 32 35 3d ce 00 5c 3e bb 78 a3 3b f8 78 a4 bd
       0.04423744 0.21484682 0.0049887574 -0.080308855
0003f0 ab b9 26 3e 77 53 69 3d a0 2e 01 3c 53 09 0a 3e
       0.16281764 0.056964364 0.007884651 0.1348012

linear1.bias f4 [128]
000000 4e 6f 82 3c dc 1f 23 3d 65 c0 cd bd 53 e7 a1 3c
       0.015922215 0.039825305 -0.10046462 0.019763624
000010 5c d7 04 be 56 c2 ba 3c 5c cd a4 3d c6 ca ac 3b
       -0.12972778 0.022797745 0.08046982 0.005273196
000020 9e 94 2b 3d 3f 67 0b bc 30 79 b8 bd 44 e9 8f 3d
       0.04188978 -0.0085085025 -0.0900749 0.07026914
000030 ac 4a 48 3d bf 22 93 3d b5 b3 5b bb 02 f7 80 bd
       0.048899338 0.07184362 -0.0033523862 -0.06297113
000040 34 42 74 bd 67 b5 16 3d aa 2f 07 3d 3f e5 47 3d
       -0.05963345 0.036794093 0.03300444 0.04880261
000050 db ec 59 bd be 53 3e bc f0 cb bc 3c 25 d6 82 bc
       -0.0532044 -0.011616645 0.023046464 -0.015971253
000060 f4 9d e5 bd 34 0d a1 bd 1a 69 98 3d ee b6 3a 3d
       -0.11211768 -0.078638464 0.074419215 0.04558461
000070 5e 5d bf bd 02 97 8d bd 7a 9e c8 bd f3 a3 19 bc
       -0.0934398 -0.06913568 -0.09795852 -0.009377467
000080 6c a2 0c 3a a3 7f 82 3d 44 8d e3 3c 7c 5e 31 3a
       0.0005364779 0.06372001 0.027777322 0.00067660934
000090 fc a2 c4 bc 7b 72 bc 3d f3 38 2c bd 51 17 79 bd
       -0.024003498 0.09201523 -0.0420465 -0.060813252
0000a0 4b 4f c7 3b d9 ba 94 3c 44 a4 87 bc dc df 45 3c
       0.0060824505 0.018155502 -0.01655782 0.012077298
0000b0 af 7e 57 3c ce 03 cd bd 70 c4 9d bd 3c 43 a7 3d
       0.013152762 -0.10010491 -0.07703483 0.08167121
0000c0 c6 55 f4 3b e9 f1 d7 bc db 05 ed 3c 7e 3c 10 bd
       0.007456514 -0.026360469 0.028933456 -0.03521394
0000d0 78 95 81 bc 55 6e 83 3d 1f 06 92 bd bd 5f 52 bc
       -0.015818343 0.064175285 -0.07130074 -0.012840209
0000e0 57 c3 22 3d 0c 8b 26 bc 02 c6 ac 3d 0c 3c 04 bd
       0.03973707 -0.010164987 0.084362045 -0.032283828
0000f0 76 98 d6 3c 56 93 9c bd b3 e3 1b 3d 7d 07 0a bd
       0.026195746 -0.076452896 0.038058948 -0.033698548
000100 0c f6 ca 3c 55 a4 72 3d 86 a0 bf bb a3 52 86 bd
       0.024775527 0.05923875 -0.0058479933 -0.065587305
000110 44 eb 37 3b 0a cf 10 3b 25 65 8d 3b e8 97 b9 bc
       0.0028063813 0.002209606 0.004315036 -0.022655442
000120 7d db a1 bd f3 58 cd 3d 36 d7 ae 3c 24 d3 b4 bd
       -0.07903192 0.10026731 0.021342855 -0.088293344
000130 90 d9 88 bd 96 b9 78 3d 6f 27 1a 3d 91 b2 74 bb
       -0.06682122 0.060723864 0.037635263 -0.003733788
000140 28 52 4c 3d c6 70 52 3d c8 b3 0a 3c 2f 85 6f bd
       0.049883038 0.05137708 0.008465715 -0.058476623
000150 f5 11 6d bb 57 c1 24 bd cf 32 28 3d f7 55 f0 3d
       -0.0036174033 -0.040223446 0.04106408 0.117351465
000160 6d 97 88 bd ab 73 07 3d ec ba 29 3d 28 2e f1 bb
       -0.06669507 0.033069294 0.04143803 -0.0073602386
000170 99 ca 97 bd e6 00 85 3d 5f 76 80 bd 53 69 22 3d
       -0.07411689 0.06494312 -0.062725775 0.039651226
000180 b0 35 7f bb b6 18 1e bd 70 04 cb 3a ad 98 65 bd
       -0.0038941912 -0.038597785 0.0015488993 -0.056053806
000190 f4 7d 98 bd 4a 84 9c bd b5 71 02 bd a7 bb 15 bd
       -0.07445899 -0.0764242 -0.03184672 -0.036555912
0001a0 c7 62 58 3d 30 d2 da bd 7b 61 9a bc 8a 4e 8c bc
       0.052828576 -0.10684621 -0.01884531 -0.017127294
0001b0 89 fa 28 3d d5 28 16 3d 77 0a 66 3c 2f a6 0f bd
       0.041254554 0.036660034 0.014040581 -0.035070594
0001c0 6c 38 2b bc a2 fa 5d bc d7 be 6d 3d 88 d4 c2 bd
       -0.010450464 -0.013548525 0.058043327 -0.09513193
0001d0 62 7f e0 bd da fd 02 bd e9 37 b8 3d 03 2b 5a 3c
       -0.10961796 -0.031980373 0.08995039 0.013315919
0001e0 7d 72 2a bd ef d2 c3 3c 9e d1 bc bd a8 93 12 bc
       -0.04161309 0.023904292 -0.09219669 -0.008946337
0001f0 9a 91 aa bd ae b6 b6 bd f4 f4 87 bd f9 d7 72 bd
       -0.083285525 -0.08921562 -0.06638518 -0.059288

linear2.weight f4 [64, 128]
000000 98 08 56 3d 39 ec 5e bd a8 e0 92 3d 8a bb 24 bd
       0.05225429 -0.0544245 0.07171756 -0.040217914
000010 96 4c 9e bd d8 18 d3 3d d3 6b 55 3d 07 10 9b 3c
       -0.07729451 0.10307473 0.052104782 0.01892854
000020 36 78 96 3c 74 d2 63 3d f4 c6 87 3d 48 75 28 be
       0.018367868 0.055620626 0.06629744 -0.16450989
000030 9d 82 15 bd f4 c6 39 bd 65 11 99 3b d9 d0 59 3d
       -0.036501516 -0.045355752 0.004671263 0.05317769
000040 28 e3 8e 3c 24 1b 20 3d a2 76 08 be 06 d5 63 bc
       0.0174423 0.039088383 -0.13326505 -0.013905769
000050 a2 60 81 3d f0 0c 72 3d 2b a1 90 bd 65 61 0b 3d
       0.06317259 0.05909437 -0.0706199 0.03402843
000060 2d ae 3e 3d 40 88 aa 3c af 8e cb 3d 18 24 d9 bd
       0.046552826 0.020816922 0.09939324 -0.106025875
000070 0a 3a 35 be 66 5c e4 bd 80 3d 9c bc 8c 4e c6 3c
       -0.17697921 -0.11150436 -0.019072294 0.024207376
000080 23 5c 6b 3d bc b8 28 bb a8 8c 47 bd c0 d8 ed bd
       0.057460915 -0.0025744876 -0.048718125 -0.116136074
000090 0f 44 11 be 0a 05 fc bd c2 f3 fc bd 85 23 51 3d
       -0.14186119 -0.123056486 -0.123511806 0.051059265
0000a0 5d 67 58 3d f9 b3 81 bd ce be 3b bd ea b9 97 3c
       0.05283295 -0.06333155 -0.045836262 0.018521268
0000b0 17 96 b4 bc c2 e5 cf 3c ce ff fb 3b 43 54 61 3d
       -0.022044225 0.025378112 0.0076904064 0.055012
0000c0 2c fe 55 3d 77 bf 30 bd fb 25 a1 3d 78 7d ab bc
       0.05224435 -0.043151345 0.07868572 -0.020933852
0000d0 ab 13 88 3d 71 90 1c bd 05 c7 ae 3d f3 a2 a4 bd
       0.06644376 -0.038223688 0.08534054 -0.080388926
0000e0 e8 d6 b0 3d e6 58 43 3d 92 d4 ab 3d 69 b9 39 bd
       0.0863474 0.047692202 0.08390154 -0.045342837
0000f0 0d 75 bb bb ea 62 0a bd 4e 1e da bc 6a f1 d6 bd
       -0.0057207406 -0.033785738 -0.026625779 -0.10495265
000100 ce c4 49 be d3 f0 dc 3c 66 b8 f2 bd 72 66 4a 3d
       -0.19703981 0.026970303 -0.118515775 0.049414106
000110 90 02 dc bd 80 7f 32 3e 1a 99 d3 3c 06 7a 8c 3d
       -0.10742676 0.1743145 0.02582984 0.068592116
000120 a8 e0 16 bb b3 01 71 be 7e 09 89 bc 99 b7 5d 3d
       -0.002302209 -0.23535804 -0.016728159 0.05413017
000130 ff d5 c3 3c eb 70 db 3d 4a c2 21 be 91 12 87 3a
       0.023905752 0.10714897 -0.15796772 0.0010305216
000140 11 12 82 3c 71 b2 af 3c 87 d8 85 3c af 1d 4b bc
       0.015877755 0.021447392 0.0163386 -0.012397214
000150 c3 95 72 bd 0f e7 97 bc 6d 1b f4 bb 23 c8 32 be
       -0.059224855 -0.018542795 -0.0074495585 -0.17459159
000160 fb 1f b2 3d 6d fb 29 bd 90 4e e5 bd 6e 2a 47 bc
       0.08697506 -0.041499544 -0.11196625 -0.012156112
000170 6c 45 17 bc 1b e6 91 bd 85 24 0d 3d 6b ec 80 3d
       -0.00923286 -0.07123967 0.034458656 0.06295093
000180 5b 3b 13 3e 88 26 82 bd b1 52 5a 3b 8d 3f f8 3c
       0.14378111 -0.063550055 0.0033313448 0.03030374
000190 45 12 0d be 6d 39 91 bd 7d 8d 89 3a aa 53 8a 3d
       -0.137765 -0.07091031 0.0010494437 0.06754239
0001a0 76 fa 9e bd 2b ac bf bd 5d 81 4a be 89 2b c3 bd
       -0.077626154 -0.0935901 -0.1977591 -0.09529788
0001b0 62 6c 82 be a5 0b 31 bd ea cd fb 3d 51 ab 08 bd
       -0.25473315 -0.043223996 0.12295134 -0.033366505
0001c0 33 62 8f bd 65 85 62 3d 2d 24 79 be 24 07 3f bd
       -0.07001152 0.055302996 -0.24330206 -0.04663767
0001d0 07 e8 25 3d 62 dd 88 bd 12 db 42 be 2a fc eb 3b
       0.04050448 -0.066828504 -0.19028881 0.007201691
0001e0 00 0a d9 bc 26 9b 9f bd 92 b3 f7 3b ee ca 4d bd
       -0.026494026 -0.07793264 0.0075592482 -0.050242357
0001f0 34 47 21 bd 99 24 2e be eb 51 81 bd 75 6b 47 be
       -0.039374545 -0.17006148 -0.06314453 -0.19474585
000200 55 ba ab 3d 9e 42 2b 3d a1 1c 43 bd cc 71 9f bd
       0.083851494 0.041811578 -0.047634725 -0.07785377
000210 c5 bd a7 bd e5 8e 1b 3d 82 14 3f 3d 91 5b 68 3c
       -0.081904925 0.03797807 0.046650417 0.014181987
000220 46 d2 dd 3c c7 fa 74 bd 63 53 d7 3c 20 7e 04 be
       0.027077805 -0.059809472 0.02628488 -0.12938738
000230 28 9b 2e bc 72 f7 98 3c 5b 36 af bb 77 56 29 3d
       -0.010657109 0.018672679 -0.005347056 0.041342225
000240 b1 db 19 bd cf 39 0d 3d 69 bf b4 bd 04 48 2f bd
       -0.03756303 0.03447896 -0.08825571 -0.04279329
000250 99 61 bc bc a7 75 1e 3d c2 23 ca bd 37 06 5b bb
       -0.022995757 0.03868642 -0.098701015 -0.0033420452
000260 0a ba 39 3d 4c 8b c8 3c e2 16 ae bc 4e 1d d6 bd
       0.045343436 0.024480484 -0.021251146 -0.10454808
000270 0c 91 fe bd 3e d3 e4 bd 7b 4c 1a bd 14 bd d5 bd
       -0.12430009 -0.11173104 -0.037670594 -0.104364544
000280 96 68 b9 3d 3d 52 da bb 17 b7 60 bd fa ce fb bd
       0.09053151 -0.0066626356 -0.054862108 -0.12295337
000290 0f 66 bb bd 68 e4 85 bd 2a 87 00 be 72 c6 a6 3d
       -0.091503255 -0.06537706 -0.12551561 0.08143319
0002a0 f7 e0 da bc b8 a4 fd bc 60 e3 28 bc 31 38 35 3c
       -0.0267186 -0.030962333 -0.010308117 0.01106076
0002b0 f1 e3 ed 3c cc be 97 3c 92 8b 17 3d a8 f6 24 3e
       0.029039355 0.018523596 0.03699834 0.16109717
0002c0 e9 a6 51 bd aa b5 38 3c 82 a0 19 bd bc 0c 5f bd
       -0.05118457 0.011273781 -0.037506588 -0.054455504
0002d0 1f 73 39 bd 61 02 fa 3d 5a d0 f3 bc 58 b1 4d bd
       -0.045275804 0.12207485 -0.029762436 -0.050217956
0002e0 78 83 05 3d 21 1c fe bb 62 cf 21 bc 8e 6e c4 bd
       0.03259608 -0.007754818 -0.009876104 -0.09591399
0002f0 b3 b1 d2 3b 0d 57 bd 3c 66 1c 87 3d c2 dd ab bd
       0.006429875 0.023112798 0.065972134 -0.08391906
000300 30 1b d0 bd 27 74 bb bd 6d c8 b4 bd 3f 6e af 3c
       -0.101614356 -0.09153014 -0.08827291 0.021414874
000310 7b 54 88 bc 5a 06 c1 3d 44 97 3c 3b 0d 7c db bd
       -0.016641846 0.094250396 0.0028776685 -0.1071702
000320 52 5c 4e 3c 43 9a 36 be 0b e1 a5 bd 18 40 7b 3c
       0.012595253 -0.17832284 -0.08099564 0.015335105
000330 07 19 f0 3d 1e e4 0b bc 55 b9 da bd 63 8b 90 3c
       0.117235236 -0.008538274 -0.106798805 0.01764459
000340 e3 46 96 bb e7 7c e4 bb e2 b7 26 bd 90 eb 70 3c
       -0.004586087 -0.0069728973 -0.040702708 0.0147046
000350 32 1d 9f 3d 46 bd 44 3d 6b 74 b9 3c f7 50 45 bd
       0.077692404 0.048032068 0.02263852 -0.048172917
000360 e7 3e be 3a 8b e9 5c 3d b0 ab 3d bd 2b 46 9a 3d
       0.0014514596 0.05393366 -0.046306312 0.07532915
000370 2d c5 fe 3d cc 28 d3 bb 09 de 65 3d 57 f8 0b bd
       0.12439952 -0.0064440724 0.056119952 -0.034172382
000380 f4 34 9c 3d fd ce 5c 3d 13 0a f7 3d c3 22 57 bd
       0.076272875 0.053908337 0.120624684 -0.052523386
000390 21 60 91 bd 46 24 13 be 9f 8c 0c 3c 15 d3 2b bd
       -0.07098413 -0.14369306 0.008578449 -0.04194935
0003a0 cd 48 cc 3c 32 5c 12 3d e7 66 43 bd 14 eb fb bd
       0.024937058 0.035732456 -0.047705557 -0.12300697
0003b0 7a a7 5d be e7 48 51 3d 02 d3 13 3d 13 7a 23 3d
       -0.21645918 0.051094916 0.036089905 0.03991134
0003c0 21 c6 12 be 47 79 aa 3d 8f 1e 9a be 48 59 61 3d
       -0.14333393 0.08323913 -0.3010144 0.055016786
0003d0 43 ba f1 bc 65 38 13 3d 92 a3 26 be 79 1b a9 3b
       -0.029507762 0.035942454 -0.16273335 0.0051607457
0003e0 c6 84 5f bb c3 99 05 3d 82 10 2d 3a 29 52 15 bd
       -0.0034106239 0.03261734 0.0006601886 -0.036455307
0003f0 8a 92 65 bd 92 1d 31 be 26 00 e5 3c 3f 0f 2d be
       -0.056047954 -0.17296436 0.027954172 -0.16900347

linear2.bias f4 [64]
000000 bb a3 59 3d dc 38 c5 3d a2 f0 0d 3d 9e 33 ca 3d
       0.05313466 0.09629986 0.034653313 0.098731264
000010 8a 8c 8b bc be 61 ec bd b8 86 88 bc 6f a0 cf bd
       -0.017034788 -0.1154208 -0.016665801 -0.10138022
000020 a6 9b 53 be f8 ec 8a 3c 5c 99 ac 3d 57 04 65 be
       -0.20664844 0.016958699 0.084276885 -0.22364937
000030 cf ac 4b be d7 d9 86 3d 50 d6 a5 3d b1 aa fe 3c
       -0.1989014 0.065845184 0.080975175 0.031087251
000040 48 a4 e3 3d 40 d6 03 3e cd 3a a3 3d 5d 84 be 3c
       0.111153185 0.12874699 0.079702 0.023256475
000050 38 84 8c 3d 47 11 bc bd bb a6 ae bd 14 a1 34 3d
       0.06861156 -0.09182983 -0.08527895 0.04409893
000060 dd 1a 69 be 59 4f ce 3d 15 cb 69 3d d7 b0 3b be
       -0.22764154 0.10073728 0.05707844 -0.18329178
000070 d2 fb 74 3d 07 b9 cb bd 6e 01 99 3d 5e 59 57 3d
       0.059810467 -0.099474005 0.07470976 0.05257546
000080 f3 a4 48 be ad c3 4a 3d 08 c4 c0 3d 1b 57 4d be
       -0.19594173 0.049503017 0.0941239 -0.2005276
000090 ce dc 12 bd 24 ef b0 3d 9d 30 c3 bc 26 e1 ce 3c
       -0.035855107 0.086393625 -0.023826892 0.025253844
0000a0 d1 e1 a5 3d 63 97 6d be 61 e3 5d 3d 4b de 49 3d
       0.08099712 -0.2320228 0.054171924 0.04928426
0000b0 49 8f 32 3c 0b 49 20 3d 05 e5 61 3b 06 5b dd 3c
       0.01089842 0.03913216 0.0034468782 0.027020942
0000c0 ef 57 08 3c cb 74 28 3d eb 42 13 bc 3e f5 e7 bc
       0.008321746 0.041127007 -0.008988122 -0.028315183
0000d0 80 33 0f 3e a0 0f 46 3d bc 11 9a 3d df d1 9a 3c
       0.1398449 0.048354745 0.07522914 0.018898902
0000e0 46 25 eb 3b 13 73 42 be b0 95 ff 38 89 d0 8e bc
       0.007176074 -0.1898921 0.00012187229 -0.017433422
0000f0 5f 4c 85 3b 45 c1 22 3c f8 6c 68 bd 3f 59 11 3c
       0.004067942 0.009933774 -0.056744546 0.008871376

linear3.weight f4 [16, 64]
000000 7c 52 66 bd 44 b3 6f 3d 50 66 89 bd 0c 16 02 3d
       -0.056231007 0.05852057 -0.06708968 0.031759307
000010 31 5d cd 3d 3a 0f 63 3d 98 d7 a1 3d ec 56 4b 3e
       0.100275405 0.055434443 0.07902449 0.19857377
000020 26 95 77 3e 49 ce 09 3c 30 46 b0 bd 46 e3 5b 3e
       0.2417799 0.008410999 -0.08607137 0.21473417
000030 70 2c c9 bc db dd 93 bc 9f a1 a2 bc 23 e8 ad 3d
       -0.024557322 -0.018050125 -0.019852458 0.08491542
000040 29 9c 33 be 90 4a f4 bd 29 8a 25 3e cf 1a 95 3d
       -0.17540039 -0.11928284 0.16165985 0.07280504
000050 04 70 d4 3c 0a a7 a8 3d 4f 1b df 3d 52 3e 24 3e
       0.02593232 0.08234985 0.108938806 0.16039398
000060 8f 3a 45 3e 27 d5 2a 3e c0 88 74 3a 71 3c de 3a
       0.1926062 0.16682874 0.00093282387 0.0016955269
000070 01 dc 10 be 2c e5 97 3d cf 3d 55 3d 18 ec 86 3d
       -0.14146425 0.07416758 0.0520609 0.06588
000080 f7 ee 40 3e 2e e5 35 3d 1d 8c 3b bd 4a a1 84 bd
       0.18841158 0.044408016 -0.04578792 -0.06476076
000090 4f 36 fc bd 49 34 a7 bd 8d fb 23 be 1a 95 cb 3d
       -0.12315046 -0.081642695 -0.16013928 0.09940548
0000a0 03 51 d6 bb 0b dc 59 3c c6 3c f7 bd da 4a 6f 3e
       -0.006540419 0.013297091 -0.120721385 0.23368397
0000b0 66 f0 e8 bd bc 00 27 3d d5 51 bc bd 05 ee 06 bd
       -0.11373977 0.040772185 -0.09195296 -0.032941837
0000c0 2a 08 3e 3d c9 49 20 be ba 27 08 3e f0 c6 9e bc
       0.046394505 -0.15653147 0.13296404 -0.01938197
0000d0 95 91 b7 3c 78 c7 11 be 44 3a 3f bd 67 95 04 be
       0.022408286 -0.14236248 -0.046686426 -0.12947617
0000e0 88 b7 49 bd d3 6e 54 3e bf 5c 42 bd 0c d3 c1 bd
       -0.049247295 0.20745401 -0.04745173 -0.09464082
0000f0 cd 0e 52 bd ae 87 a3 bc c1 8d 52 3d 93 a0 91 bc
       -0.051283646 -0.019962158 0.05140472 -0.017776763
000100 4e c1 f7 3d e4 47 0e 3e df c7 a0 3d f0 a6 d6 3c
       0.12097417 0.13894612 0.078506224 0.026202649
000110 70 f0 08 be 29 df 4b be a7 95 35 3b 82 db 4d be
       -0.1337297 -0.19909348 0.0027707608 -0.20103267
000120 44 b9 90 bd 29 56 53 bc 4d 7f 1e 3e bd de 1e be
       -0.070665866 -0.01289896 0.15478249 -0.15514655
000130 99 a1 5f bd 38 ba fe 3d cc 95 47 3d 5e 14 1c be
       -0.05459747 0.12437862 0.04872684 -0.15242144
000140 a7 a0 9b 3d 97 72 a7 bd b7 11 fa bd fc ae 2d 3d
       0.075990014 -0.08176153 -0.1221041 0.042403206
000150 4d 4d 85 bd 32 92 e0 bd fe 0e 73 bc 11 0a 5e be
       -0.065088846 -0.109653845 -0.014835117 -0.21683528
000160 2d e3 8c bd 78 46 3f be 8a a9 f2 3d 30 4c af bd
       -0.06879268 -0.18679225 0.11848743 -0.085594535
000170 22 4c 2d 3e a3 e2 04 be 00 f2 1e bc a6 7d aa 3b
       0.16923574 -0.1297708 -0.009701252 0.0052029667
000180 9f ea 12 bd 3a ef 07 3e 47 f4 03 bd 94 ea 53 3d
       -0.035868283 0.13274851 -0.032215383 0.051737383
000190 10 50 7c bb 28 1f d8 3d c2 dd 13 3e b8 8f cd 3c
       -0.003849987 0.105528176 0.14440063 0.025092945
0001a0 f4 63 34 3d 11 c8 31 be 42 8a 6d 3d 40 74 44 be
       0.044040635 -0.17361476 0.05799318 -0.19184971
0001b0 ec b2 20 bc 58 a8 6d bc 79 11 19 3e 8a 6b b5 bd
       -0.009808283 -0.014505468 0.14948072 -0.08858402
0001c0 30 cd d5 3d 85 47 0a bc 8b 8a c0 bc ff 1e 88 3d
       0.10439527 -0.008439903 -0.023503562 0.06646537
0001d0 85 93 c2 3b 31 da 41 3d d8 32 23 bd 64 d6 1a bd
       0.005937996 0.047327224 -0.03984341 -0.037802115
0001e0 07 2e a2 3d dd 68 4f bd da 52 f9 3d 11 33 75 3d
       0.07918935 -0.050637115 0.12174006 0.059863154
0001f0 90 88 39 bd 59 7f 87 3d af 76 de 3c d0 b6 f6 3b
       -0.04529625 0.066160865 0.027156202 0.007529117
000200 94 82 84 bc 69 25 06 3d 24 9d 7a bd 8f cd 2f 3d
       -0.016175546 0.03275052 -0.061185017 0.042920645
000210 be 0d a1 bd 03 18 28 bd 2d 2b 97 3c 8c e7 09 3d
       -0.07863949 -0.041038524 0.018453205 0.033668086
000220 ee 1f 05 be 4d 1a 46 3d 94 0a 80 3d f3 bc ea bd
       -0.13000461 0.048364926 0.062520176 -0.114618205
000230 59 d9 ac 3c 1e ca 9c bd cf da 3f bc 77 c6 a8 bd
       0.021099733 -0.07655738 -0.011709883 -0.08240979
000240 c5 e0 b3 bc 53 5e 62 bd 35 e2 1d 3d af 97 8b 3d
       -0.021957764 -0.055265736 0.038545806 0.06816041
000250 b9 db 5c 3c 81 2c 30 bd b7 02 51 3d f2 3f 09 be
       0.01348012 -0.043011192 0.05102798 -0.134033
000260 4a 6d fa bd df aa 37 bd 85 62 3b bd c4 cd 0b be
       -0.122278765 -0.04484069 -0.045748252 -0.13652712
000270 ac 2c 89 3d 5c 97 a9 3d 78 50 38 3d 28 0b ae bd
       0.066979736 0.08280823 0.044998616 -0.08498222
000280 ec 70 80 bd 59 fc 92 3d 35 0e c8 bd c3 7b 23 be
       -0.06271538 0.07177038 -0.09768335 -0.1596518
000290 e2 dc 4f 3d e8 52 b3 bd ab c5 9c bc ac 75 02 be
       0.05074776 -0.087560475 -0.019137224 -0.12740201
0002a0 4d 25 9e bb 80 0d a4 3b da 58 0a bd 02 8c 6c bd
       -0.004826224 0.005006492 -0.03377614 -0.05775071
0002b0 91 19 e2 3d ba 1d 8c 3c b8 61 84 3d 57 2a 40 3d
       0.11040033 0.017104018 0.06463951 0.04691538
0002c0 a3 64 1d 3d 8a ea b5 3d ad a9 2b be 04 c8 26 bd
       0.038426053 0.088826254 -0.16763945 -0.040718094
0002d0 dd 37 3e 3d a6 c9 c9 3c 98 12 9a bd 5d c2 c5 3d
       0.046439994 0.024632286 -0.07523078 0.096562125
0002e0 eb 54 c5 3b b7 63 8a bd 7b b1 b0 bc b4 fb d1 bd
       0.006022086 -0.067573 -0.021569004 -0.10253087
0002f0 50 82 d7 3d 76 bb ae 3d 31 82 ba 3c 46 51 a4 bc
       0.10522902 0.08531849 0.022767158 -0.020058285
000300 07 99 50 bc 1e ab 0a be 9b 02 bb 3d be db 36 bd
       -0.012731797 -0.13541839 0.09131356 -0.044643156
000310 11 d5 16 3e 62 13 ce 3d 7f bd ac bd 75 bc 09 3e
       0.14729716 0.10062291 -0.08434581 0.13450797
000320 58 c0 a9 3d f8 68 1f bd 67 7f 79 3d a3 82 a1 3c
       0.0828864 -0.038918465 0.060912516 0.019715613
000330 52 26 46 3d fe 02 a7 bd a7 52 85 bd 31 77 5c 3d
       0.04837639 -0.081548676 -0.06509905 0.053824607
000340 a4 cb e3 bd 87 2d ab 3d 4b 79 3f bc d7 a7 f7 bc
       -0.11122826 0.08358293 -0.011686633 -0.0302314
000350 29 61 6c 3d 08 e1 3b 3e 28 b0 a2 3d ed 5b 04 3e
       0.057709847 0.18347561 0.079437554 0.12925692
000360 a6 2e 88 bc 57 d9 5d 3e 7f ea af bd cd 16 06 3d
       -0.016623806 0.2166494 -0.085896485 0.03273659
000370 63 46 f5 3c c3 40 9e 3c 32 cf 19 3d fc 97 01 bd
       0.02994079 0.01931799 0.037551112 -0.031639084
000380 80 46 0e 3e fc 2a ea bd f2 4a 14 be 06 4a 37 bd
       0.13894081 -0.1143398 -0.14481714 -0.04474833
000390 28 e0 b7 bd ec 44 c5 bd 3e fe 1a be bc 91 14 3d
       -0.08978301 -0.096322864 -0.15136048 0.036271796
0003a0 6d f2 be 3b 68 61 0e 3e c6 67 e9 bd 3b b5 2c 3e
       0.0058272392 0.13904345 -0.11396746 0.16866009
0003b0 a2 16 cb bd 89 09 d6 bd 19 30 00 bd 65 e6 00 be
       -0.09916426 -0.104510374 -0.03129587 -0.12587889
0003c0 49 ec 81 bc 46 0e 1c be 83 4a 34 3e c0 2b 58 3d
       -0.01585974 -0.1523982 0.17606549 0.0527761
0003d0 3f f3 8a bd 8d 3b 2e 3d ae 60 be bd 7a 08 80 bb
       -0.06784677 0.04253726 -0.09295784 -0.0039072605
0003e0 4f c3 8b bb 3a c1 03 3e c4 d8 f8 bc 27 d8 92 bd
       -0.004265226 0.12866679 -0.0303768 -0.07170134
0003f0 00 b6 40 bd 52 6d 0c be 57 38 23 3d 85 66 6b 3d
       -0.04704857 -0.13713577 0.03984865 0.057470817

linear3.bias f4 [16]
000000 ea 2d 97 be f4 67 e3 3d fa 29 f0 3d 9f 59 87 be
       -0.29527217 0.11103812 0.117267564 -0.26435563
000010 68 17 2a 3e 11 2a 8b be a4 90 1b 3e 20 e1 ef 3d
       0.16610491 -0.27180532 0.15191895 0.11712861
000020 c9 16 61 be 56 67 8c be b2 d0 0e 3e 8a 10 94 3e
       -0.21981348 -0.2742259 0.13946798 0.28918868
000030 6d 6f 47 be 63 e1 0b be fe 4e e4 3d 6a 7c 90 be
       -0.194761 -0.13660197 0.11147879 -0.2821992

embedding_layer.weight f4 [16, 16]
000000 14 f7 64 be e0 42 4b 3e 7a c0 0c be 83 d2 8c bd
       -0.22359878 0.1984973 -0.13745299 -0.068760894
000010 e5 e5 e7 3d 14 f6 db bd 2f 3e a0 bd ea 08 8b ba
       0.11323146 -0.10740295 -0.078243606 -0.0010607515
000020 34 f7 a3 3c c8 d0 13 be f7 d7 a1 bd 34 a7 3b 3e
       0.020015337 -0.14435112 -0.0790252 0.18325502
000030 86 cb 0e be 1b 8b a5 bc f5 c8 08 3e 1e ca 87 be
       -0.13944826 -0.020207932 0.13357909 -0.2652139
000040 df c5 79 be cd db 95 3d ef 5c 30 be 59 7d 4c 3d
       -0.24391888 0.07317314 -0.17222951 0.04992423
000050 47 79 0a be a0 92 9d bc e7 69 41 be 90 05 10 3d
       -0.13522826 -0.019234955 -0.18888055 0.035161555
000060 03 9e d6 3c b8 90 1f bd db 82 c5 3d a8 0a 5f 3e
       0.026198393 -0.038956374 0.09644099 0.21781409
000070 f1 70 8b 3d b4 3a 4b 3d c2 45 99 3e 1a 87 0d 3e
       0.06808651 0.04961653 0.29936033 0.13821068
000080 a7 ef af bc 49 89 6a 3b 9d 31 59 be c8 2c 71 3e
       -0.02147658 0.0035787395 -0.21210332 0.23552239
000090 6a 78 3f 3e 80 f6 f2 3d 94 7b 37 bd c7 8d 92 3c
       0.18698278 0.118634224 -0.044795588 0.01788987
0000a0 ab 18 9c 3e c8 88 fd 3d 4f 8f 23 be c2 d1 2d be
       0.3048757 0.123796046 -0.15972637 -0.16974548
0000b0 4c 1b cc bd f3 d7 6e 3e 09 81 2b 3e 0f 1e 84 3d
       -0.09966144 0.23324566 0.16748442 0.06451046
0000c0 a8 f5 0a 3e 1f 7c 62 3c a0 51 1c 3e 98 86 c6 bd
       0.13570273 0.013823538 0.15265512 -0.096936405
0000d0 95 b9 65 3e f2 b2 e2 3c a2 b5 26 be 3d 94 7a 3e
       0.22434075 0.027673218 -0.16280225 0.24470611
0000e0 7a 0f 6b be 4f ac 47 be 14 c9 1d 3e cd cf 73 3e
       -0.22955123 -0.19499324 0.15408736 0.23809738
0000f0 f7 ad 89 be 62 09 2b 3e b8 bb 9c 3e c0 85 78 be
       -0.26890537 0.16702798 0.30611968 -0.24269772
000100 e4 6f 10 3e dc b6 07 3e 2f ef 1b 3c ad e3 8c be
       0.14105183 0.13253349 0.009517475 -0.27517453
000110 40 60 a8 3d de fd 86 3d 41 cc 20 3d 85 b2 27 3e
       0.08221483 0.0659139 0.03925729 0.16376694
000120 60 eb 01 be f8 7e 4d be d6 be 1f 3e b3 24 a0 3d
       -0.12687445 -0.20067966 0.15600142 0.078195
000130 a4 9b 87 be 8d 3f bd 3d 49 2e 45 3e f9 8c 1d 3e
       -0.26485932 0.09240637 0.19255938 0.15385808
000140 55 be 86 be 7a 3b bf bc da b8 3e be 08 27 83 be
       -0.26317087 -0.02334379 -0.18625203 -0.25615716
000150 d2 c4 56 3e e9 53 69 be 37 1b 9d 3e 41 ec 8a 3c
       0.20973518 -0.22785915 0.30684826 0.016958358
000160 b7 e5 87 3c 65 a3 94 be 6d fc 4a 3e a3 61 73 3e
       0.016589029 -0.2903091 0.19822855 0.23767714
000170 37 b2 7d 3d ef ad e7 bc 09 a8 92 3e ff 5d 02 be
       0.061937537 -0.02828118 0.28643826 -0.12731169
000180 06 25 fa bd d0 a9 00 be db bb 22 3e f1 df 1c be
       -0.12214093 -0.12564778 0.15891974 -0.15319802
000190 6f 5d 0b bd 38 b1 9a bb 11 30 9c 3e 61 4f f2 3d
       -0.034024652 -0.004720833 0.30505422 0.118315466
0001a0 5f 69 5b be 88 53 d5 bd fa d5 dc 3c ef 63 41 3e
       -0.21426915 -0.10416323 0.0269575 0.18885778
0001b0 47 89 17 3e d8 d2 8f be 8a 81 82 3e e7 d2 d3 3d
       0.14798461 -0.2809055 0.25489455 0.10342961
0001c0 1a 47 9d be 96 2f 26 be 11 2a 32 3d f3 2e 8a bd
       -0.3071831 -0.1622909 0.04349715 -0.06747236
0001d0 da b2 64 3e a8 6f 88 bd 66 15 f7 3d 97 b4 42 3c
       0.22333851 -0.06661922 0.12064628 0.011883876
0001e0 57 83 ee bd 07 38 41 3d 57 bc 8f 3e 4d 11 7d 3c
       -0.11646145 0.047172572 0.2807338 0.015446019
0001f0 ba 77 e6 bd 56 fb 54 be 7b 80 96 3e 7e 94 74 be
       -0.11253305 -0.20799002 0.29394898 -0.2388477
000200 c9 f9 58 3d 8e fd 04 bd 68 2f 9e 3d 47 ea 1b be
       0.05297259 -0.03246837 0.07723886 -0.15226088
000210 6e 1f 4b 3d 37 dc 30 3e 04 f8 4d 3c 4b 1a 81 be
       0.04959052 0.17271505 0.012571339 -0.25215372
000220 ab ee 93 3e c3 73 9d 3e e8 56 f5 3d 39 e7 5a be
       0.28893027 0.30752382 0.11979467 -0.21377267
000230 45 93 bb bc 62 9b e6 3d 7c 56 19 3e 81 43 15 be
       -0.022897372 0.11260106 0.14974397 -0.14576532
000240 c5 12 0d be 72 a8 e8 3d 2b 8a 43 3e 5a 9d 0d 3d
       -0.13776691 0.113602534 0.19095676 0.03457389
000250 f5 e1 1e 3e 8c 32 30 be b1 67 25 3e da fa 6a 3e
       0.15515883 -0.17206782 0.16152836 0.22947255
000260 af e9 cc bd 1e 88 77 be 76 79 2d bd 4e 13 10 be
       -0.10005509 -0.24173018 -0.042352162 -0.14069864
000270 1a 43 97 be 0a d2 99 bd a5 5a 08 3e f4 3a 98 bd
       -0.29543382 -0.07510765 0.13315828 -0.074331194
000280 8e 77 33 be 59 2a 58 3e e5 76 a8 3d d3 9d 94 be
       -0.17526075 0.21109904 0.08225802 -0.2902666
000290 5e ea 98 3e a5 c8 2f bd 56 65 17 3e 63 af 90 3e
       0.29866308 -0.04291596 0.1478475 0.2825881
0002a0 03 85 7a be 57 12 ad 3d 4a 98 4e 3d 54 57 84 bd
       -0.24464802 0.08450764 0.050438203 -0.06461969
0002b0 c2 6f 4c be c5 e0 f5 bd dc 1e 28 3e 03 42 54 bd
       -0.19964507 -0.12005762 0.16418022 -0.051820766
0002c0 ed f9 2c be fd 67 72 3e 1d cd 5a 3e d8 9b b6 3d
       -0.16892214 0.23672481 0.21367307 0.089164436
0002d0 b4 eb e6 3d 5b d9 84 bc d5 2d 95 3e fb 32 39 bd
       0.112754256 -0.016216924 0.2913653 -0.045214634
0002e0 e4 6e a7 3d 6b 1f 9e be 6d b5 2a 3e 90 c3 49 3e
       0.081754476 -0.30883345 0.16670771 0.19703507
0002f0 ca c8 12 be d7 a9 a2 3c 44 6e 91 3e 20 87 6c bb
       -0.14334407 0.019856377 0.28404438 -0.0036091283
000300 23 9e 87 be bc 4a 7e bd 97 97 80 3e 70 d1 10 be
       -0.26487836 -0.06208299 0.25115654 -0.14142394
000310 02 f0 a3 bd 3b 45 81 be 74 35 32 3d c7 25 a6 3d
       -0.08004762 -0.2524813 0.043508008 0.08112674
000320 39 ee 03 be 4e e5 9a 3d 97 af 25 bd 7f 61 f1 bd
       -0.12883843 0.07563268 -0.04045066 -0.11786174
000330 58 a6 83 be 5a db 9d 3d 3e 93 9e ba 33 99 90 be
       -0.25712848 0.077078536 -0.0012098325 -0.28241882
000340 14 85 4f be 06 9a 9b 3e fe c9 46 bd f9 be 90 bc
       -0.20265609 0.30390948 -0.04853248 -0.017669188
000350 b1 98 97 bd 9e 3d 3e be f3 eb f9 3d 2c 34 62 3e
       -0.074021704 -0.18578193 0.12203207 0.22090214
000360 bc cb 23 be b8 7e a5 bd 7d 03 1c 3e 83 93 47 3e
       -0.15995687 -0.0808081 0.15235706 0.19489865
000370 10 22 17 3d 73 5d 57 be 85 8f 0f 3e c9 4b 87 bd
       0.03689772 -0.21031742 0.14019592 -0.06606252
000380 28 a1 69 bc 5f 5e 07 be de 1c 11 bd d0 d1 a1 3d
       -0.014259614 -0.13219593 -0.03542792 0.07901347
000390 17 a8 83 be e8 68 8c 3e b4 d2 5f bd 6b 4f c3 bd
       -0.2571418 0.27423787 -0.0546443 -0.09536632
0003a0 b9 60 19 3d c2 b6 ce 3d 30 83 31 3e c2 ca 9d bd
       0.037445758 0.10093452 0.173352 -0.077046886
0003b0 68 75 3c 3e 4b dc 4a 3d 2f 7d 8a be 84 d5 0f 3d
       0.18404162 0.049526494 -0.27048633 0.035115734
0003c0 f6 f3 bf bd 02 ce d5 bc 56 b5 21 bd 4a aa 8e 3e
       -0.09372704 -0.026099209 -0.039479576 0.27864295
0003d0 11 4d 54 3d 68 1a 4b 3e 62 3b 75 be 7f 19 31 be
       0.05183131 0.19834292 -0.23948434 -0.17294882
0003e0 68 22 08 be 86 b1 1b 3e d3 99 0c 3e fa 03 a5 bd
       -0.13294375 0.15204439 0.13730554 -0.08057399
0003f0 d5 af 03 be 0f 75 b9 3d 7a 83 32 be ef 33 e8 bd
       -0.12860043 0.0905553 -0.17432967 -0.113380305

embedding_layer.bias f4 [16]
000000 e6 3f ca 3e b6 45 8c 3d 57 f5 a4 bc f1 0b a1 3e
       0.39501876 0.06849234 -0.020136518 0.31454423
000010 ec 04 a9 3e 7d e9 a1 3e 0c fb bf 3d d2 c2 b7 3e
       0.33011568 0.3162345 0.09374055 0.35890824
000020 dc ca 4a be 33 d5 b7 3e 64 68 5a 3e f9 f6 8e 3c
       -0.19803947 0.35904846 0.21328884 0.01745175
000030 c9 56 70 bd 75 07 8b bd de 51 23 be 4f c9 81 be
       -0.058676515 -0.06788532 -0.15949199 -0.253489

classifier.weight f4 [1, 16]
000000 1b c0 83 3e da 56 01 3e a3 e2 a8 bd 15 58 99 3e
       0.25732502 0.12630787 -0.082463525 0.29950014
000010 7f b5 00 3e 3e 57 4b 3e 4c e8 2a 3e 31 ae 8f 3e
       0.12569235 0.19857499 0.16690177 0.28062585
000020 03 a0 53 be 87 5e 95 3e ff d9 5e 3e ec 58 d6 3d
       -0.20666508 0.2917368 0.21762846 0.10466179
000030 db 8c dc 3d 09 08 f8 3d 14 b5 cc bd 01 19 01 be
       0.107690535 0.121109076 -0.099954754 -0.12607194
