models/ScatterNet-trained.pth (torch, 114010 bytes, 10 tensors)

scatter.wavelet_constructor f4 [4, 17]
0	0xbbba9c20	-0.005694881
1	0xbf8375bd	-1.0270306
2	0x3f7f828b	0.9980857
3	0x3bdcda89	0.0067399186
4	0x3c2ae0d9	0.010429584
5	0x3c3cb6cb	0.011518191
6	0x3c35a63f	0.011086999
7	0x3c209d41	0.009803117
8	0x3c044f94	0.0080756135
9	0x3bc96f1e	0.0061472794
10	0x3b884f89	0.004159872
11	0x3b0fd4eb	0.0021946977
12	0x399bb0b6	0.00029695564
13	0xbac5d6f5	-0.0015093969
14	0xbb52982a	-0.0032134154
15	0xbb9dac7a	-0.0048118206
16	0xbbcea0e9	-0.006305803
17	0x3d5c194f	0.053735074
18	0xbcb50523	-0.022097176
19	0xbf80803c	-1.0039134
20	0x3b91782b	0.004439374
21	0x3f80c93d	1.0061413
22	0x3b9b39fa	0.004737136
23	0x3b088356	0.0020830235
24	0xba7e2122	-0.0009694268
25	0xbb84dd44	-0.004054697
26	0xbbe6560c	-0.0070293006
27	0xbc215834	-0.009847689
28	0xbc4ce6e8	-0.012506224
29	0xbc760383	-0.015015486
30	0xbc8e7569	-0.01738997
31	0xbca0edf3	-0.019644713
32	0xbcb28250	-0.021790653
33	0xbcc34a55	-0.023839155
34	0x3cd9d41e	0.026590403
35	0xbc6e9f82	-0.014564397
36	0xbca6aecf	-0.020347027
37	0xbc8d1d85	-0.01722599
38	0xbf81960c	-1.0123916
39	0xbbfe47b4	-0.0077600125
40	0xbb80b867	-0.0039282325
41	0xba83f1dc	-0.0010066587
42	0x3f8023c9	1.0010921
43	0x3b245a79	0.002507834
44	0x3b5e7040	0.0033941418
45	0x3b7e2012	0.003877644
46	0x3b851d7c	0.0040623527
47	0x3b840416	0.0040288074
48	0x3b7b8aaa	0.003838221
49	0x3b67be40	0.00353612
50	0x3b4ed9f1	0.0031563009
51	0x394141f5	0.00018430485
52	0x3b78861e	0.0037921737
53	0xbb9f346c	-0.004858544
54	0xbc0767ab	-0.008264462
55	0xbc14b79e	-0.009076981
56	0xbc0dbc83	-0.008650902
57	0xbbf6d945	-0.0075332248
58	0xbbc47542	-0.0059954235
59	0xbf8089a8	-1.0042009
60	0xbb14f6d4	-0.002273013
61	0xb9954a5d	-0.000284749
62	0x3adf1d5e	0.0017022302
63	0x3b6efdfd	0.0036467307
64	0x3bb4e73b	0.005520729
65	0x3bef6664	0.007305907
66	0x3c135037	0.008991293
67	0x3f815b1c	1.0105929

linear1.weight f4 [128, 99]
0	0xbcf0ff9f	-0.029418765
1	0x3ca4c7ee	0.020114865
2	0x3cba5311	0.022744687
3	0xbd794fc1	-0.060867075
4	0x3dcdbcb1	0.10045756
5	0x3cfb3b5d	0.030667955
6	0xbbddaa22	-0.006764666
7	0x3dae6e20	0.085170984
8	0xbb089c27	-0.0020845027
9	0xbd933ff0	-0.071899295
10	0x3e1aae3c	0.15105528
11	0x3cdb8bb5	0.026800016
12	0x3d0a479f	0.03375971
13	0x3d97e0ee	0.07415949
14	0xbdb11ab0	-0.08647668
15	0xbdc7ae00	-0.09749985
16	0x3ddd2e0f	0.107998006
17	0xbb4eca48	-0.0031553674
18	0xbd8841bb	-0.06653162
19	0x3e3d4d6c	0.18486565
20	0x3e6a3e04	0.2287522
21	0xbdd8296e	-0.10554777
22	0x3e11d810	0.14242578
23	0x3d50697c	0.050881848
24	0x3de86ae9	0.113485165
25	0x3e7dc714	0.24782974
26	0x3dfa0054	0.12207094
27	0x3d89310d	0.06698809
28	0xbbeb0bd4	-0.007173041
29	0x3d67c1c2	0.056581266
30	0xbe0aaf8e	-0.13543531
31	0x3b976201	0.0046198373
32	0x3c377392	0.011196988
33	0xbd8e8b06	-0.0696011
34	0x3de5187a	0.11186309
35	0x3e62ee8e	0.22161314
36	0xbde84e8f	-0.11343109
37	0x3e4d6872	0.20059374
38	0x3ddb6fae	0.107146606
39	0xbd5f8a10	-0.054575026
40	0x3d1a904a	0.03773526
41	0xbd1f0362	-0.038821585
42	0xbd456227	-0.04818931
43	0xbdb91c4e	-0.09038602
44	0xbcb72ed6	-0.0223612
45	0x3c29c722	0.010362418
46	0xbe0ce984	-0.13760954
47	0xbc143b86	-0.009047395
48	0x3d2460d3	0.0401314
49	0x3d464927	0.048409607
50	0x3d239120	0.039933324
51	0x3e12a6ea	0.14321485
52	0x3e085ced	0.13316698
53	0x3d9e5bd7	0.07732361
54	0x3dc75e66	0.09734802
55	0xbd48b34e	-0.048999123
56	0xbd6ac3ec	-0.057315752
57	0x3dc81331	0.097692855
58	0xbcb5f696	-0.022212308
59	0xbb1b2bfb	-0.0023677337
60	0x3d30b6c3	0.043143045
61	0xbdcb4ab7	-0.0992636
62	0xbd9d9829	-0.07695038
63	0xbd4d70e6	-0.050156496
64	0x3ccb3608	0.024806038
65	0xbd00d442	-0.031452425
66	0x3c8f4290	0.017487794
67	0x3de9afe9	0.11410505
68	0xbda2af4e	-0.07943593
69	0xbe044b88	-0.12919438
70	0xbe0492b6	-0.12946591
71	0xbc4d3142	-0.012523951
72	0x3e0f0cf0	0.13969779
73	0x3c3ee112	0.011650341
74	0xbe3aa50d	-0.18227024
75	0xbce40457	-0.0278341
76	0xbd40234f	-0.046908673
77	0xbb840d25	-0.0040298873
78	0x3ba572e7	0.005049098
79	0xbdc20f1c	-0.09475538
80	0x3c96e370	0.018418998
81	0xbc279806	-0.010229116
82	0xbcecd523	-0.028910225
83	0x3ce95ffe	0.028488155
84	0xbd9e5cb5	-0.07732526
85	0xbdfbdddc	-0.12298176
86	0xbdfa7672	-0.12229623
87	0xbda02fb6	-0.078216
88	0xbdba3fa1	-0.090941675
89	0xbdea70a8	-0.11447269
90	0xbce9d289	-0.028542774
91	0xbc8695d0	-0.016428858
92	0xbe319e28	-0.17345488
93	0xbd8eb9c6	-0.06969027
94	0xbd9e4465	-0.07727889
95	0xbd6f8a2f	-0.05848139
96	0xbd0464ad	-0.032322574
97	0xbd483a87	-0.04888394
98	0x3dfa50cf	0.12222444
99	0x3c6c6e12	0.01443054
100	0x3ca610ae	0.020271625
101	0xbd17def0	-0.037077844
102	0xbe1c8bc6	-0.15287694
103	0xbe0140e9	-0.12622418
104	0xbde08e26	-0.10964613
105	0xbdb82090	-0.08990586
106	0xbdc11b0b	-0.09428986
107	0x3d2fc81b	0.042915445
108	0x3d677ba9	0.056514416
109	0xbe05df0c	-0.13073367
110	0xbcd4b672	-0.025965903
111	0xbb3c9b21	-0.0028778987
112	0xbbc54940	-0.006020695
113	0xbdb12e86	-0.08651452
114	0x3d894ae5	0.06703738
115	0x3c428c51	0.011874274
116	0xbd9f28c5	-0.07771448
117	0x3d0263b9	0.031833384
118	0xbdbbe40d	-0.091743566
119	0x3c663098	0.014049672
120	0xbdd41ab9	-0.103566594
121	0xbdf80109	-0.121095724
122	0x3bdab4e1	0.0066743945
123	0xbd1547fd	-0.036445606
124	0xbd823b7c	-0.06359002
125	0xbddb24f9	-0.10700411
126	0xbdb760e2	-0.08954026
127	0xbca5cea6	-0.02024014
128	0xbc722158	-0.014778458
129	0xbd04edc2	-0.032453306
130	0xbb5fe678	-0.003416447
131	0xbd3256ac	-0.043539688
132	0xbc883b60	-0.016629875
133	0x3d4c6415	0.049900133
134	0x3e909b86	0.28243655
135	0x3d271d86	0.04079964
136	0xbdd66003	-0.104675315
137	0x3d30977f	0.043113228
138	0xbdb5ddc9	-0.08880193
139	0xbc864771	-0.016391488
140	0x3dac1afe	0.08403586
141	0x3d4e9919	0.050438974
142	0xbe0d0abd	-0.13773628
143	0x3dee1923	0.11625888
144	0xbdf69688	-0.1204043
145	0xbe09f056	-0.13470587
146	0xbccabbc4	-0.024747737
147	0xbcdb4280	-0.026765108
148	0xbb418eb9	-0.0029534532
149	0xbde2a9ab	-0.11067518
150	0xbdf364b0	-0.11884439
151	0xbe4dd4a4	-0.20100647
152	0x3d558bec	0.052135393
153	0xbaea194e	-0.0017860325
154	0xbe1ec266	-0.15503845
155	0xbd14f851	-0.036369625
156	0xbd9c797a	-0.07640357
157	0xbdefafcf	-0.11703455
158	0xbce173ca	-0.027521033
159	0xbc90042c	-0.017580114
160	0xbd769903	-0.060204517
161	0xbcfafad5	-0.030637184
162	0xbd6c0276	-0.057619534
163	0x3d4f4ab5	0.050608356
164	0x3dfcc6ee	0.1234263
165	0x3ba717a0	0.005099252
166	0xbda9431d	-0.08264754
167	0x3d97c5c9	0.074107714
168	0x3d1a66ef	0.03769582
169	0x3dc8cf38	0.09805149
170	0x3a7d63a6	0.0009666033
171	0x3d4cb7b5	0.049979884
172	0x3cf2711a	0.029594947
173	0x3cb214bf	0.021738408
174	0xbd136008	-0.035980254
175	0x3ce174dc	0.027521543
176	0x3d4e862f	0.050420936
177	0x3d5f72b6	0.054552756
178	0xbda91945	-0.08256773
179	0x3d01db80	0.031703472
180	0xbc94e5c9	-0.018175976
181	0xbd2c166e	-0.042013578
182	0xbd986c8c	-0.07442579
183	0xbd40b32f	-0.047045883
184	0x3d0ecc1c	0.034862623
185	0xbddde0c1	-0.10833884
186	0xbcb34f95	-0.021888534
187	0x3d1a36fa	0.037650086
188	0x3dd5f64b	0.10447367
189	0x3da748cb	0.08168181
190	0x3cc9e19b	0.02464371
191	0x3e0f6453	0.14003114
192	0xbd0fc33f	-0.03509831
193	0x3d72a881	0.05924273
194	0xbcc9fa2f	-0.02465543
195	0xbddcd971	-0.10783661
196	0x3e06ff2c	0.13183278
197	0xbc62a924	-0.013834272
198	0xbbbb9fb7	-0.0057258266
199	0x3d674d72	0.056470342
200	0x3d48ae63	0.048994433
201	0x3db18a6f	0.08668982
202	0xbe45cb12	-0.19315746
203	0xbdc675eb	-0.0969046
204	0x3d8e9e4f	0.06963789
205	0xbd9b247a	-0.07575317
206	0x3a797242	0.0009515622
207	0x3d72fed8	0.05932507
208	0xbe38aa04	-0.18033606
209	0xbd10b8e8	-0.03533259
210	0xbcd83030	-0.026390165
211	0xbd56c94b	-0.05243806
212	0x3d344de2	0.044019587
213	0x3dbc7d40	0.09203577
214	0xbdac23d1	-0.08405269
215	0xbdb169db	-0.086627685
216	0xbd1a3a58	-0.037653297
217	0xbdf7cfc8	-0.12100178
218	0xbd697047	-0.05699184
219	0xbd464f2b	-0.048415344
220	0xbdc8cdd1	-0.09804881
221	0xbb8b7178	-0.00425547
222	0xbc16c291	-0.009201662
223	0xbe774eff	-0.24151228
224	0xbd8552d7	-0.06509941
225	0xbc61fba2	-0.013792904
226	0xbe23dcf1	-0.16002251
227	0xbccf8adf	-0.025334774
228	0x3c4a5b77	0.0123509085
229	0xbdd41818	-0.10356158
230	0xbcf40218	-0.029786155
231	0xba8737d9	-0.0010316327
232	0x3b5ec947	0.0033994482
233	0xbe53ceab	-0.20684306
234	0x3da553d9	0.08072633
235	0xbe26dc97	-0.16295086
236	0xbd530222	-0.051515706
237	0xbc289cee	-0.010291321
238	0xbc82efc0	-0.015983462
239	0xbc48ff4d	-0.0122679
240	0xbd5bde66	-0.053678893
241	0xbd9b5620	-0.075847864
242	0x3e182197	0.14856564
243	0x3d52cb15	0.051463205
244	0x3d2e3e1c	0.0425397
245	0xbd858534	-0.06519547
246	0xbdfc3b52	-0.12316002
247	0xbe02b711	-0.12765147
248	0xbe432fad	-0.19061156
249	0xbc9717c5	-0.018443951
250	0xbe6e332f	-0.23261712
251	0xbc0528da	-0.008127416
252	0xbbcddf9e	-0.0062827608
253	0x3d989815	0.07450882
254	0xbd62c2fd	-0.055361737
255	0xbdc7687c	-0.09736726

linear1.bias f4 [128]
0	0xbd007628	-0.031362683
1	0x3cceac45	0.025228629
2	0xbdfe0d6b	-0.12404903
3	0xbd665df3	-0.05624194
4	0x3c1e14ab	0.009648482
5	0x3d238fb3	0.039931964
6	0xbce6dd39	-0.028181659
7	0x3bc2b667	0.005942154
8	0x3d9ee844	0.07759145
9	0xbd59544a	-0.0530589
10	0x3d9af8cc	0.075669855
11	0xbdc31baa	-0.09526761
12	0xbdb05849	-0.08610589
13	0xbd3894d1	-0.045063797
14	0x3d8d92f7	0.06912797
15	0xbc7ff966	-0.015623426
16	0xbd68d47b	-0.056843262
17	0x3d2b5edd	0.041838516
18	0xbcca80ea	-0.024719674
19	0xbdc54a9c	-0.09633371
20	0xbde16ffd	-0.11007688
21	0xbdff0424	-0.12451962
22	0x3bb35314	0.00547255
23	0xbc3cabae	-0.011515541
24	0xbd4c6e08	-0.04990962
25	0xbcfd9d83	-0.030958897
26	0x3d4b165a	0.049581863
27	0x3d182467	0.03714409
28	0xbc791473	-0.015202629
29	0x3d4d46ec	0.050116464
30	0xbc8e270a	-0.0173526
31	0xbbb6881a	-0.005570424
32	0xbd96a5c8	-0.07355839
33	0x3db31deb	0.08745941
34	0xbacb3e24	-0.001550619
35	0xbe00a2f3	-0.1256216
36	0xbcc0945d	-0.023508245
37	0x3dc5870c	0.09644899
38	0xbc683564	-0.014172886
39	0xbcc90e96	-0.024543088
40	0xbdd13e8e	-0.102170095
41	0x3d19bb5c	0.037532195
42	0xbdb5c1f9	-0.08874888
43	0xbbd9d7ac	-0.0066480245
44	0x3dc62509	0.09675033
45	0xbd4b6214	-0.04965408
46	0xbd88d54f	-0.066813104
47	0xbdaf19e3	-0.085498594
48	0x3a4a66ff	0.0007721036
49	0xbd9e4c92	-0.077294484
50	0xbb97ddd6	-0.004634599
51	0xbdbba05e	-0.09161447
52	0xbd94849c	-0.07251856
53	0xbd5166cb	-0.05112342
54	0x3b22f0d5	0.0024862785
55	0xbb3577b0	-0.0027689748
56	0x3d3e61ba	0.046479918
57	0x3db7f12a	0.08981545
58	0x3dbf1db9	0.09331841
59	0xbcdc7a02	-0.026913647
60	0xbd199490	-0.037495196
61	0x3dc29d16	0.09502618
62	0xbd2df3fb	-0.042469006
63	0xbd49ae19	-0.049238298
64	0xbe02b155	-0.1276296
65	0xbd2aef0f	-0.04173189
66	0xbb89cc76	-0.004205282
67	0x3d8de7a0	0.069289446
68	0x3d75dc4d	0.06002455
69	0x3c3934df	0.011304109
70	0xbd42f05f	-0.047592517
71	0xbda764ad	-0.08173499
72	0xbc1c09c4	-0.009523813
73	0x3d14067c	0.036138996
74	0x3cac7226	0.021050524
75	0xbd1fcb98	-0.03901252
76	0xbcb74c12	-0.02237514
77	0xbc6d71f2	-0.014492499
78	0x3cddc376	0.027070742
79	0xbdd9c9e3	-0.1063421
80	0x3d6e2bc5	0.05814721
81	0x3d9fefee	0.07809435
82	0xbdb48bd0	-0.088157296
83	0xbd00f2cf	-0.03148156
84	0x3d06ad44	0.032880083
85	0xbd0a10b9	-0.033707354
86	0xbd3ff5af	-0.04686516
87	0xbda3c300	-0.07996178
88	0xbdbc824e	-0.09204541
89	0x3bab56bd	0.005228846
90	0x3c741b68	0.014899112
91	0xbdaf9509	-0.08573348
92	0xbd0f3b5e	-0.034968726
93	0xbd2b3d84	-0.041806713
94	0xbd64bc07	-0.05584338
95	0x3d00adcf	0.031415757
96	0x3d9f42e6	0.07776432
97	0xbd99ac5a	-0.075035766
98	0xbd82a5ba	-0.06379266
99	0x3da8bb79	0.082388826
100	0x3d8c268b	0.06843289
101	0xbd04f47d	-0.032459725
102	0x3d79e443	0.061008703
103	0x3d0977ca	0.033561505
104	0x3c47a966	0.012186384
105	0x3d103f7f	0.035216805
106	0xbd6eaad7	-0.058268394
107	0x3d72b2d6	0.059252582
108	0xbd9d95ce	-0.076945886
109	0x3d69c267	0.057070162
110	0x3d3506e3	0.04419602
111	0x3cf57d19	0.029966878
112	0xbc5359ed	-0.012899858
113	0xbcf4f784	-0.02990318
114	0xbcfa25e8	-0.030535653
115	0x3dc14ecd	0.09438858
116	0xbdabcff2	-0.08389272
117	0x3d086963	0.03330363
118	0xbd9fcd9f	-0.07802891
119	0x3ce27c57	0.02764718
120	0xbdc1c943	-0.09462216
121	0x3d44c9dd	0.048044074
122	0x3d3c4f89	0.045974288
123	0x3d8e6b8c	0.06954107
124	0xbcbce3c8	-0.023057833
125	0xbd3c61fe	-0.04599189
126	0xbde991be	-0.11404751
127	0x3dc0666d	0.09394536

linear2.weight f4 [64, 128]
0	0x3dadbb51	0.084829934
1	0xbcc0e51f	-0.023546753
2	0xbe3a33b3	-0.18183784
3	0xbc3d6af1	-0.011561141
4	0x3c4a60a2	0.012352141
5	0x3d4b4e91	0.049635474
6	0x3dd446d1	0.1036507
7	0x3d14274d	0.036170293
8	0xbe6bfb76	-0.23045143
9	0x3d5a5ad6	0.053309284
10	0x3db4a2b1	0.088200934
11	0xbd8c06bb	-0.06837221
12	0xbd2f3d8a	-0.042783298
13	0x3c78ceb3	0.015186
14	0xbdbdc931	-0.0926689
15	0xbd66c844	-0.056343332
16	0x3db98097	0.0905773
17	0x3d495103	0.049149524
18	0xbdf82afa	-0.12117572
19	0xbcf185f8	-0.029482827
20	0xbd903a17	-0.0704233
21	0xbdbe4c41	-0.09291888
22	0xbe5658ec	-0.20932359
23	0x3d53e107	0.051728275
24	0x3d02af85	0.03190567
25	0x3e322e9d	0.17400594
26	0xbd87b68a	-0.066266134
27	0xbd587e51	-0.05285484
28	0x3c6adbee	0.014334662
29	0xbe71dc94	-0.236193
30	0xbd543e79	-0.05181739
31	0xbde2caaa	-0.11073811
32	0xbd491b1e	-0.049098127
33	0xbd34e7f2	-0.044166513
34	0x3c202ede	0.009776799
35	0xbd66c66e	-0.05634158
36	0xbd84301e	-0.0645449
37	0x3cf437fa	0.029811848
38	0x3d4d17b1	0.050071422
39	0xbcc5b666	-0.024134826
40	0xbcc8ab64	-0.024495788
41	0x3ce90096	0.028442662
42	0xbc65f9f7	-0.014036647
43	0xbe2ad364	-0.16682202
44	0xbda8caf1	-0.08241833
45	0xbe4855b9	-0.1956395
46	0x3dd03bc0	0.101676464
47	0xbd941f54	-0.07232538
48	0xbd6d6323	-0.057955872
49	0x3dbbd3d8	0.09171265
50	0xbc8a8f26	-0.016913962
51	0xbc54938b	-0.01297463
52	0x3c7a83be	0.015290199
53	0x3dde4693	0.10853305
54	0xbd211d1b	-0.039334398
55	0xbcedccdb	-0.029028347
56	0x3c6166da	0.013757432
57	0xbc7365b0	-0.014855787
58	0x3c199e44	0.009376112
59	0xbe6a447b	-0.22877686
60	0xbcacce9e	-0.021094617
61	0xbd68e38c	-0.05685763
62	0x3e30de8f	0.172724
63	0x3e02e075	0.12780936
64	0xbd9832c6	-0.07431559
65	0x3d79dd89	0.061002288
66	0xbbdd8f61	-0.006761477
67	0xbd9c36fe	-0.076276764
68	0xbc6c7dfd	-0.014434335
69	0xbcdf4e3c	-0.027258985
70	0xbda3da3f	-0.080006115
71	0x3ddfcd28	0.10927802
72	0xbaaa6327	-0.001299952
73	0xbdc46a47	-0.09590583
74	0xbd14f9b9	-0.036370967
75	0xbd17e429	-0.037082825
76	0xbca56d1c	-0.020193629
77	0xbe4e5218	-0.20148504
78	0xbda4febd	-0.080564
79	0xbe2b5583	-0.16731839
80	0x3c94afe3	0.018150276
81	0xbb8e3996	-0.004340361
82	0xbd9edc52	-0.077568665
83	0xbdd07629	-0.10178787
84	0xbd1fd1a5	-0.039018292
85	0x3c9f0bff	0.0194149
86	0x3d1e0c85	0.03858616
87	0xbd1d3efd	-0.03839015
88	0xbe589903	-0.2115212
89	0x3c49e064	0.012321565
90	0x3d89c48d	0.06726942
91	0x3d86943b	0.065712415
92	0x3d84e2de	0.06488584
93	0x3d2e2318	0.042513937
94	0x3d8ddd03	0.0692692
95	0x3cb9196b	0.022595128
96	0xbd2fcca8	-0.042919785
97	0xbd32b83f	-0.043632742
98	0x3d10c2ac	0.035341904
99	0x3d7d9c85	0.061916847
100	0x3c459c2d	0.012061161
101	0xbcd85142	-0.026405934
102	0xbd3a8d7a	-0.04554508
103	0xbddbb014	-0.107269436
104	0x3e12687e	0.14297673
105	0xbd1e1628	-0.03859535
106	0x3b856870	0.004071288
107	0xbd97ed71	-0.07418335
108	0x3d57ddb6	0.052701674
109	0xbcaed097	-0.021339698
110	0xbe287876	-0.16452202
111	0x3d045af8	0.032313317
112	0xbd64a375	-0.055819947
113	0xbda59561	-0.080851324
114	0x3d952b0a	0.072836
115	0xbd12439f	-0.03570902
116	0xbe0c0309	-0.13673033
117	0xbe0b3b5a	-0.1359686
118	0xbe1ae950	-0.15128064
119	0x3daa44d7	0.083139114
120	0x3c6343b4	0.013871122
121	0xbd7eafd5	-0.062179405
122	0x3d1e1d4c	0.03860216
123	0x3cd19dab	0.025587877
124	0x3d0b44dc	0.034001216
125	0xbdd55b25	-0.10417775
126	0x3dbe6131	0.092958815
127	0xbd854127	-0.065065674
128	0xbd9f272e	-0.07771145
129	0x3d8be62a	0.0683101
130	0x3c93ae89	0.01802756
131	0xbd6497e8	-0.05580893
132	0xbded9547	-0.11600738
133	0x3c662a0f	0.0140481135
134	0x3d2c6277	0.04208609
135	0xbdbf6994	-0.09346309
136	0xbeecc8fd	-0.46247092
137	0xbc07d813	-0.008291262
138	0xbe347d2c	-0.17625874
139	0xbdd0da9b	-0.10197946
140	0xbd265fba	-0.040618636
141	0x3d3b5c71	0.045742456
142	0x3d837b6b	0.064200245
143	0xbe6525b1	-0.2237766
144	0xbdd96619	-0.10615177
145	0x3cba8dea	0.022772748
146	0xbd62afc8	-0.05534342
147	0x3d2e9fa0	0.0426327
148	0x3e05bca4	0.13060242
149	0x3dd6178d	0.10453711
150	0xbc23a545	-0.009988134
151	0xbe05280e	-0.13003561
152	0xbd0c528c	-0.03425841
153	0x3e2b0509	0.1670114
154	0x3d80fab9	0.062978216
155	0xbd2e3ce6	-0.042538546
156	0x3d1adf12	0.037810393
157	0xbdb03a5d	-0.08604882
158	0x3d8d58a0	0.069016695
159	0x3d76767d	0.060171593
160	0x3d561bb4	0.052272514
161	0xbb92223b	-0.004459647
162	0xbdd976a5	-0.10618333
163	0x3de31443	0.11087849
164	0xbcf8b080	-0.0303576
165	0xbcb94387	-0.022615207
166	0xbd92ebba	-0.071738675
167	0x3dcc22e7	0.099675946
168	0xbd92f969	-0.071764775
169	0x3ce4834a	0.027894635
170	0xbe110497	-0.14161907
171	0xbdd6c773	-0.10487261
172	0xbd1a9d06	-0.037747405
173	0xbd6cae16	-0.05778321
174	0x3cc6ac2d	0.024252022
175	0xbd41ddf4	-0.04733081
176	0xbd0b48dd	-0.034005035
177	0xbd0c03d2	-0.03418333
178	0xbc8e8b42	-0.017400388
179	0x3d73ff09	0.059569392
180	0xbcb2fe80	-0.02184987
181	0x3d18908e	0.037247233
182	0x3daeccf5	0.08535186
183	0x3ce62e0a	0.028098125
184	0xbc2e6795	-0.010644813
185	0xbd898fb8	-0.06716865
186	0x3ca63410	0.020288497
187	0x3c9a9e98	0.018874452
188	0xbc2949a8	-0.010332502
189	0xbc3449e1	-0.011003942
190	0x3d9c3308	0.07626921
191	0x3d811519	0.06302852
192	0xbb87d01e	-0.0041446825
193	0xbabef828	-0.0014569806
194	0x3e1de377	0.15418802
195	0x3deeeb55	0.1166598
196	0xbc8d6d5f	-0.017264066
197	0x3c1de33a	0.009636695
198	0x3c752010	0.014961258
199	0xbb700506	-0.0036624088
200	0xbd8c11d6	-0.068393394
201	0xbd306827	-0.043068077
202	0xbd9ccaf6	-0.07655899
203	0xbc1da7fb	-0.009622569
204	0x3dad9b9c	0.08476946
205	0xbde7a9f8	-0.11311716
206	0xbdc392e0	-0.095494986
207	0x3db88e2b	0.090114914
208	0xbd8da5d8	-0.06916398
209	0xbe32a59e	-0.1744599
210	0xbcb70b31	-0.022344204
211	0xbdfbeb5a	-0.12300749
212	0xbd36d51f	-0.044636842
213	0x3b5fa5ab	0.0034125845
214	0x3d71b6a5	0.059012074
215	0xbb86c186	-0.0041124253
216	0xbd133da1	-0.035947446
217	0xbe0d8e91	-0.13823916
218	0xbcdb612e	-0.026779737
219	0x3d3e7836	0.04650136
220	0x3dbd46ea	0.092420414
221	0x3c610b25	0.013735567
222	0xbd492dfb	-0.049116116
223	0x3b27f332	0.0025627133
224	0x37ba4238	2.2203763e-05
225	0x3c55ba57	0.013044915
226	0x3c970b9e	0.018438157
227	0xbdc22de1	-0.09481407
228	0x3d9dc12b	0.077028595
229	0xbc22849f	-0.009919315
230	0xbcb3f798	-0.021968648
231	0xbe04f327	-0.1298338
232	0x3de23ca5	0.11046723
233	0x3c353e02	0.011062147
234	0x3dfb0470	0.12256706
235	0xbcfd0af6	-0.030889016
236	0xbc28e740	-0.010309041
237	0x3dcf47de	0.101211295
238	0x3c73ba6a	0.014875988
239	0x3d0564c7	0.032566812
240	0x3d0efee0	0.034911036
241	0x3c8ebca1	0.01742393
242	0xbd2b171e	-0.041770093
243	0xbe93d4b5	-0.2887322
244	0x3c186bc4	0.009303037
245	0x3d844fdb	0.06460544
246	0xbd6d5ad9	-0.057947967
247	0xbd32d249	-0.043657575
248	0xbd21715d	-0.039414752
249	0xbcdd6f24	-0.027030535
250	0x3d0297e5	0.03188314
251	0x3d43871b	0.04773627
252	0xbd36b235	-0.044603545
253	0xbe140e2c	-0.14458531
254	0xbce83299	-0.02834444
255	0xbe2b300c	-0.16717547

linear2.bias f4 [64]
0	0xbc6a5fa7	-0.014305032
1	0x3d5d4735	0.054022986
2	0xbe4ca64e	-0.19985315
3	0xbd81fcfb	-0.0634708
4	0x3d8a9a10	0.06767666
5	0x3d859ede	0.06524442
6	0x3d2e563b	0.042562705
7	0x3d2b7ce8	0.041867167
8	0x3d218cb5	0.03944083
9	0x394fbf99	0.00019812434
10	0x3d51837c	0.051150784
11	0xbc160022	-0.009155305
12	0x3c71e615	0.0147643285
13	0x3c8fb5b1	0.017542692
14	0xbe1b15a5	-0.15144975
15	0x3d400235	0.046877105
16	0xbd333a5c	-0.043756828
17	0x3d99991b	0.07499906
18	0xbe0bfc47	-0.13670455
19	0x3d40c3e6	0.047061823
20	0x3d3eb18d	0.046556044
21	0xbc3c6a5b	-0.0114999665
22	0x3cb09fcb	0.02156057
23	0xba62c5c5	-0.0008650686
24	0x3dbea314	0.093084484
25	0x3db54035	0.08850137
26	0x3c7845b3	0.015153336
27	0x3c07c6b2	0.008287119
28	0x3da0c6ab	0.07850393
29	0x3ddacb4b	0.10683306
30	0xbd325c6c	-0.04354517
31	0xbe59dcef	-0.21275686
32	0xbc4ee181	-0.0126270065
33	0xbc1f4f0f	-0.009723439
34	0xbdc1ef00	-0.09469414
35	0xbd86123f	-0.06546449
36	0x3db74f65	0.0895069
37	0x3d88d119	0.06680507
38	0x3d03653a	0.03207896
39	0xbe160a2c	-0.14652318
40	0x3cb2a8b6	0.021808963
41	0x3db57ded	0.08861909
42	0x3d920108	0.07129103
43	0x3d4dc0ef	0.050232824
44	0xbc90923f	-0.01764786
45	0x3d8a55f4	0.067546755
46	0x3d91478c	0.070937246
47	0x3cbd91bb	0.023140779
48	0x3ceea2ad	0.029130304
49	0x3d45e565	0.04831447
50	0x3d9052d3	0.070470475
51	0x3d67c1a9	0.056581173
52	0x3d81f0fb	0.063447915
53	0xbe46d7fe	-0.19418332
54	0x3cc4e03a	0.0240327
55	0x3da04ac1	0.07826758
56	0xbe295ada	-0.16538563
57	0x3c9137a3	0.017726725
58	0x3d9a2b1c	0.07527754
59	0x3d995601	0.07487107
60	0x3d366e0c	0.044538543
61	0x3c940eb9	0.018073427
62	0x3c71288a	0.014719138
63	0x3d9c3f85	0.07629303

linear3.weight f4 [64, 64]
0	0x3dd98ea7	0.10622912
1	0xbb8873ec	-0.0041642096
2	0xbe07f6e0	-0.13277769
3	0xbdbbb157	-0.09164684
4	0x3e027aad	0.1274211
5	0xbe14483f	-0.14480685
6	0xbdcf6895	-0.10127369
7	0x3d92efc6	0.071746394
8	0x3c0ae329	0.008477011
9	0x3e06c1f2	0.13159922
10	0x3dab406f	0.08361899
11	0xbca1e22c	-0.019761167
12	0xbd1dbe18	-0.038511366
13	0x3de03d42	0.10949184
14	0xbe64c39c	-0.22340244
15	0xbda1294b	-0.07869204
16	0x3d50c7b9	0.05097172
17	0xbb5242f7	-0.0032083371
18	0xbe51f1cb	-0.20502393
19	0x3e366aeb	0.17814223
20	0xbde12fb2	-0.10995425
21	0x3ce07134	0.02739773
22	0x3d37afbd	0.04484533
23	0xbe75c368	-0.24000323
24	0xbde437c4	-0.11143449
25	0x3e073545	0.13203914
26	0xbe0e7dbe	-0.13915154
27	0xbe530b53	-0.20609789
28	0x3e3167c9	0.17324747
29	0xbdcadc79	-0.09905333
30	0xbbcae662	-0.0061920146
31	0x3c96ba75	0.018399457
32	0x3e4ec4b7	0.20192228
33	0x3de39441	0.111122616
34	0xbdb4d78c	-0.08830175
35	0xbdea6229	-0.11444504
36	0xbe5b765a	-0.21431866
37	0x3d2abb27	0.04168239
38	0x3e580dbb	0.21098988
39	0xbe6fd43a	-0.23420802
40	0x3d4dd1b8	0.05024883
41	0x3cd7aa28	0.026326254
42	0xbd76725e	-0.060167663
43	0x3d2d445d	0.042301524
44	0xbd125884	-0.035728946
45	0x3d3c6c34	0.046001628
46	0x3c5178c1	0.012785138
47	0xbde034da	-0.10947581
48	0xbc3d36c7	-0.0115487045
49	0xbe5a4899	-0.21316756
50	0xbd5c7c86	-0.053829692
51	0xbd422e08	-0.04740718
52	0xbd347888	-0.04406026
53	0xbd9312db	-0.07181331
54	0x3deffdf8	0.117183626
55	0x3c94edfa	0.018179882
56	0xbe5b5a25	-0.21421106
57	0x3cf9f663	0.030512994
58	0x3cfa831c	0.030580096
59	0x3dcd75f1	0.10032261
60	0x3e2364e7	0.1595646
61	0xbddbd749	-0.10734422
62	0x3d73467f	0.059393402
63	0x3d0685cf	0.032842454
64	0x3d412323	0.04715265
65	0x3cf89133	0.030342674
66	0xbdd25e70	-0.10271919
67	0xbdd8839b	-0.10571977
68	0x3e1867e4	0.14883381
69	0x3c68b4e4	0.014203284
70	0xbd0c7b37	-0.034297194
71	0x3db35e0e	0.08758174
72	0xba64fb08	-0.00087349163
73	0x3dc98184	0.09839156
74	0xbd9527a1	-0.07282949
75	0x3cfbf6b6	0.03075729
76	0xbd048463	-0.032352816
77	0xbdb91cee	-0.09038721
78	0xbe483994	-0.19553214
79	0x3d88e6c5	0.06684641
80	0xbdc44a34	-0.095844656
81	0xbbd3c460	-0.0064626187
82	0xbe8c4d3c	-0.27402675
83	0xbd8748aa	-0.066056564
84	0xbd201b0d	-0.039088298
85	0xbd17cb0e	-0.037058882
86	0xb9831d13	-0.0002500793
87	0xbe0ecb0a	-0.13944641
88	0xbe4e69a3	-0.20157485
89	0x3d2c4239	0.042055342
90	0xbe0cf894	-0.137667
91	0xbdc4de8e	-0.096127614
92	0x3dedd212	0.11612333
93	0xbe1c5470	-0.15266585
94	0x3ce596f9	0.028026091
95	0x3d28b7a9	0.041190777
96	0x3e588e3c	0.21148008
97	0x3da21e91	0.07915986
98	0xbcff4675	-0.031161526
99	0xbe04c4a9	-0.12965645
100	0xbe82b40e	-0.25527996
101	0xbc5c13f7	-0.013432494
102	0x3ccb9422	0.024850909
103	0xbe561d5f	-0.20909642
104	0x3d3a3bc6	0.04546716
105	0x3d0e862e	0.034795932
106	0x3db73f82	0.0894766
107	0x3dc80bc6	0.097678706
108	0x3dcf875f	0.10133242
109	0xbd44e48b	-0.048069518
110	0x3d076f60	0.0330652
111	0xbe113f7a	-0.1418437
112	0xbd51ca13	-0.051218104
113	0xbe6fe976	-0.23428902
114	0xbd795fe8	-0.06088248
115	0x3deeb1db	0.11655017
116	0x3b2b86bf	0.0026172844
117	0x3b2023be	0.0024435367
118	0xbd3733c3	-0.0447271
119	0xbd7c97df	-0.061668273
120	0xbdfa381a	-0.12217732
121	0x3d973a54	0.07384172
122	0xbe225fd0	-0.15856862
123	0x3df4be6e	0.11950384
124	0x3e2abefc	0.16674417
125	0x3e09bc94	0.13450843
126	0x3de68f4e	0.11257802
127	0x3e1d4a1b	0.153603
128	0xbe5b68a0	-0.2142663
129	0x3d229713	0.039694857
130	0x3e032e82	0.1281071
131	0x3dede98d	0.11616812
132	0xbd45d4ba	-0.048298575
133	0x3e4612b8	0.19343078
134	0xbd509098	-0.050919145
135	0x3d17ff8a	0.037108935
136	0x3e3231a8	0.17401755
137	0x3c1db0b3	0.009624648
138	0xbd1a4f69	-0.037673388
139	0x3c8cf170	0.01720497
140	0xbd89f151	-0.067354806
141	0x3c5767c5	0.013147299
142	0x3daa84e4	0.08326128
143	0x3dc3eecb	0.095670305
144	0x3ce62ff9	0.028099047
145	0xbdde81fb	-0.108646356
146	0x3d6e0955	0.05811437
147	0xbda985fa	-0.08277507
148	0xbd6e46fa	-0.058173157
149	0xbe2d03b8	-0.1689595
150	0x3ddd0794	0.10792461
151	0x3e60cdbd	0.21953483
152	0x3e096b1f	0.1341977
153	0xbdff4767	-0.12464791
154	0x3cc4b4d4	0.024012007
155	0x3e716edf	0.2357745
156	0xbe140fa4	-0.14459091
157	0x3da6eacd	0.081502534
158	0xbd97ada7	-0.074061684
159	0x3d7096ed	0.058737684
160	0xbd35204a	-0.044220246
161	0xbd070d71	-0.032971803
162	0x3df4ae21	0.11947275
163	0x3e46e733	0.19424133
164	0x3e93fdec	0.28904665
165	0x3d56ea77	0.052469697
166	0xbe33ec17	-0.1757053
167	0x3e1b2044	0.15149027
168	0x3dd4cf1d	0.10391066
169	0xbd23fe40	-0.040037394
170	0xbde309c8	-0.1108585
171	0x3c3c333a	0.011486823
172	0xbe34e176	-0.17664132
173	0xbdce493d	-0.10072563
174	0xbd9fc5d8	-0.078014076
175	0x3e302892	0.17202976
176	0x3ba92e8b	0.005163019
177	0xbb0839c9	-0.0020786396
178	0xbd820caf	-0.063500755
179	0xbe27cf9e	-0.16387793
180	0x3d83ef53	0.06442132
181	0x3dd6c399	0.10486526
182	0xbcb54487	-0.022127403
183	0xbe0722b8	-0.13196838
184	0x3e0b182f	0.13583444
185	0x3d366805	0.044532795
186	0x3e29cb54	0.1658147
187	0xbe238060	-0.1596694
188	0x3c6f45eb	0.014604072
189	0xbde190c1	-0.11013938
190	0xbbb85fda	-0.005626661
191	0xbd5055fb	-0.050863247
192	0x3df97048	0.12179619
193	0xbd46ba1d	-0.048517335
194	0xbe5ce440	-0.21571445
195	0xbe37520d	-0.17902394
196	0x3cae14e6	0.0212502
197	0xbe08393b	-0.13303082
198	0xbd355695	-0.044272024
199	0x3e12475d	0.14285035
200	0xbb64d628	-0.0034917686
201	0xbd64e46f	-0.055881914
202	0x3c71b874	0.01475345
203	0x3ddf5331	0.109045394
204	0xbd32a5b6	-0.043615066
205	0x3bc78553	0.0060888915
206	0xbe625baf	-0.22105287
207	0x3de8cebb	0.11367556
208	0x3a8e5a78	0.0010860702
209	0x3dc7ac00	0.09749603
210	0xbd9ffeb2	-0.07812251
211	0x3d2ed767	0.042685892
212	0x3cb6eaec	0.022328816
213	0x3e16c3a7	0.14723073
214	0x3cd95773	0.026530957
215	0xbca0e617	-0.019640965
216	0xbe1ba9b0	-0.1520145
217	0x3e20ad22	0.15691045
218	0xbd48d1c4	-0.049028173
219	0xbe217782	-0.15768245
220	0x3db5089c	0.08839533
221	0xbe6da445	-0.23207195
222	0xbcb63d09	-0.0222459
223	0xbda06df8	-0.07833475
224	0x3e0a8e2d	0.13530798
225	0x3daacafc	0.083394974
226	0xbd56f702	-0.05248166
227	0xbda9dcb2	-0.082940474
228	0xbe5191a6	-0.20465717
229	0x3db3e76a	0.08784373
230	0x3ddbda93	0.10735049
231	0xbe347760	-0.17623663
232	0x3d5ac124	0.05340685
233	0x3d1db381	0.038501266
234	0x3d3ede81	0.046598915
235	0x3d04e200	0.032442093
236	0xbc6c8461	-0.0144358585
237	0x3e170867	0.14749299
238	0xbdc20258	-0.09473103
239	0xbde7218a	-0.11285694
240	0xbd6ecfda	-0.05830369
241	0xbd031da1	-0.03201068
242	0x3de3725f	0.11105799
243	0x3df9df81	0.12200833
244	0xbda31435	-0.079628386
245	0x3da0c669	0.07850344
246	0x3e405a73	0.18784504
247	0xbba8ab9c	-0.0051474106
248	0xbd031d3c	-0.032010302
249	0xbd4462c1	-0.04794574
250	0xbe2e90a0	-0.17047358
251	0xbd6c5854	-0.057701424
252	0x3d6905bb	0.05689023
253	0xbd817b6f	-0.06322371
254	0xbd5ed289	-0.0544
255	0xbd75f534	-0.060048297

linear3.bias f4 [64]
0	0x3e1dc618	0.15407598
1	0x3dfc1f20	0.12310624
2	0x3c296fe1	0.010341615
3	0xbba7ccf0	-0.005120866
4	0x3e0257dc	0.12728828
5	0x3e1ce090	0.15320039
6	0x3e2902e0	0.16505003
7	0x3e130b58	0.14359796
8	0xbe3f20dc	-0.18664879
9	0x3c018edc	0.0079075955
10	0xbd1272d4	-0.03575404
11	0x3e0d6364	0.13807446
12	0x3d8dc1b3	0.06921711
13	0xbd8ba39d	-0.06818316
14	0xbe5b9e89	-0.21447195
15	0xbd3bb847	-0.045830037
16	0xbdbee171	-0.09320343
17	0x3b8caad3	0.004292825
18	0xbdb8ba67	-0.090199284
19	0xbdae9c50	-0.08525908
20	0x3e2920ba	0.1651639
21	0xbe2620ef	-0.162235
22	0x3e0e113b	0.1387376
23	0xbd7ee042	-0.062225588
24	0xbe5a3d24	-0.21312386
25	0xbe15f0b6	-0.14642605
26	0xbc71895a	-0.01474222
27	0x3ccfaa4b	0.025349757
28	0x3e2a6d53	0.16643266
29	0xbe552ea8	-0.20818579
30	0x3e2c6626	0.16835842
31	0x3ca2dab3	0.019879675
32	0xbe09b004	-0.13446051
33	0x3e478da9	0.19487633
34	0x3e2d68a3	0.16934447
35	0xbcd92add	-0.026509697
36	0x3e2edec8	0.17077172
37	0x3e5c9e61	0.21544792
38	0xbe3c1f12	-0.18371227
39	0x3e424b48	0.1897403
40	0x3dad87b2	0.084731475
41	0xbb97ad32	-0.004628801
42	0x3d78d659	0.060751293
43	0xbd98f531	-0.074686415
44	0xbd0ba82c	-0.034095928
45	0x3e436a70	0.19083571
46	0xbe13ff7a	-0.14452925
47	0x3d500b75	0.050792176
48	0x3dc43c5b	0.095818244
49	0x3e1e1ba9	0.15440239
50	0x3e3a93cf	0.18220447
51	0xbbee6479	-0.007275161
52	0xbe2d1c88	-0.16905415
53	0xbc328eeb	-0.010898332
54	0x3df3e111	0.119081624
55	0x3e38df97	0.18054043
56	0x3cbd9eed	0.02314707
57	0x3e1d81a7	0.1538149
58	0xbd917e6e	-0.07104193
59	0x3e42b214	0.19013244
60	0xbe4e3648	-0.20137894
61	0xbd9ec292	-0.07751955
62	0xbe29a421	-0.16566516
63	0x3c9a9854	0.018871464

embedding_layer.weight f4 [32, 64]
0	0x3e2454a4	0.16047913
1	0x3db73847	0.08946281
2	0xbd897b6f	-0.06712996
3	0x3dfabc22	0.12242915
4	0x3daa0a50	0.08302748
5	0x3e0f4265	0.13990171
6	0x3e162432	0.14662245
7	0x3e16a153	0.14709978
8	0xbdeb1c31	-0.114799865
9	0xbd8572de	-0.0651605
10	0xbe1683c0	-0.14698696
11	0x3e0a211f	0.13489197
12	0xbcd78f28	-0.02631338
13	0xbdb0c84d	-0.08631954
14	0xbe2cac53	-0.16862611
15	0xbe21216e	-0.15735409
16	0x3d8ec7f6	0.06971733
17	0x3df094c5	0.117471255
18	0xbda66864	-0.0812538
19	0xbe073c10	-0.13206506
20	0x3c67aecc	0.014140796
21	0x3d887a97	0.06664007
22	0x3d90c02f	0.07067906
23	0x3bb87e76	0.0056303097
24	0xbd90d36e	-0.07071577
25	0xbdae2025	-0.08502225
26	0xbd7a8af0	-0.061167657
27	0xbdead1b2	-0.114657775
28	0x3dc2aaa0	0.095052004
29	0xbdf1f12f	-0.1181358
30	0xbd53fa2b	-0.05175225
31	0xbdf0ca79	-0.117573686
32	0xbd5d337d	-0.05400418
33	0x3d83d03c	0.06436202
34	0x3d26cb6c	0.040721342
35	0xbe191068	-0.14947665
36	0xbb5b09a4	-0.0033422494
37	0x3e19720c	0.14984912
38	0xbdace57e	-0.0844221
39	0xbce252d3	-0.027627384
40	0xba341801	-0.0006870032
41	0x3d5d1488	0.05397466
42	0x3d87082d	0.06593356
43	0xbe113baf	-0.14182924
44	0xbda44b16	-0.08022134
45	0x3bb2fa43	0.0054619624
46	0xbdf64911	-0.12025655
47	0x3e0eb561	0.13936378
48	0x3d698f7f	0.057021614
49	0x3da69d60	0.08135486
50	0xbd4c9eb3	-0.049956035
51	0x3db2db5f	0.08733248
52	0x3d3305ff	0.04370689
53	0x3dab456d	0.08362851
54	0x3e11d01a	0.1423954
55	0x3e0e49dc	0.13895363
56	0x3e1d8e5b	0.15386336
57	0xbc6ab81c	-0.014326122
58	0xbd246030	-0.040130794
59	0x3a231329	0.00062208116
60	0xbe3de286	-0.18543443
61	0xbd8f96e2	-0.070112005
62	0x3c81eaf8	0.015859112
63	0xbc9c9837	-0.01911555
64	0xbdc53fd6	-0.09631316
65	0xbe08ce6b	-0.13359992
66	0xbab6c212	-0.0013943336
67	0xbe0f9d95	-0.14024957
68	0xbc5aff32	-0.013366507
69	0xbc97d8bb	-0.018535962
70	0xbe1c295a	-0.1525015
71	0x3d1a1f1d	0.03762733
72	0x3d1f90ce	0.038956456
73	0x3c9a4156	0.018829983
74	0x3e0f3886	0.13986406
75	0xbe256df7	-0.1615523
76	0x3cf26235	0.029587844
77	0xbd3fa6a0	-0.046789765
78	0x3e1d3044	0.15350443
79	0x3dd9f6e9	0.106427975
80	0x3de64333	0.11243286
81	0xbd88d525	-0.06681279
82	0x3e1171a7	0.14203511
83	0x3e17ed0b	0.14836518
84	0x3c9533eb	0.018213233
85	0x3bc15ada	0.005900723
86	0x3d214f44	0.039382234
87	0x3e1ea83c	0.15493864
88	0xbc2bdce3	-0.010489675
89	0x3a199855	0.0005859186
90	0xbb966ac6	-0.004590365
91	0xbd4a7b61	-0.04943407
92	0xbdb460af	-0.088075034
93	0x3d304daf	0.043042835
94	0xbdbe1288	-0.09280878
95	0x3d0c095f	0.034188624
96	0xbbdc57f3	-0.0067243516
97	0x3c29e534	0.010369588
98	0xbe041deb	-0.12902038
99	0x3d9c665a	0.076367095
100	0xbd19a660	-0.037512183
101	0xbda8e2fe	-0.0824642
102	0xbd07ca59	-0.03315196
103	0xbe2b98e9	-0.1675755
104	0xbba5eb8a	-0.005063479
105	0xbe064a74	-0.13114339
106	0xbdd6323b	-0.104587995
107	0x3d443791	0.047904555
108	0x3d9fc919	0.07802028
109	0xbcc31d80	-0.023817778
110	0x3e30d5f8	0.17269123
111	0xbde08ade	-0.10963987
112	0xbe0513a8	-0.1299578
113	0xbd8f0893	-0.06984057
114	0xbdad98c7	-0.084764056
115	0x3d07a6a9	0.033117924
116	0xbd7c4776	-0.061591588
117	0x3c2caab8	0.010538749
118	0xbdd04393	-0.10169139
119	0xbe2279a7	-0.15866719
120	0xbdc879d6	-0.09788863
121	0xbd070aed	-0.032969404
122	0x3e10d9cc	0.14145583
123	0xbe2a8bcd	-0.16654892
124	0x3e40547b	0.18782227
125	0x3e03e03c	0.12878507
126	0x3d652738	0.055945605
127	0x3dc95e10	0.09832394
128	0x3e3fd407	0.18733226
129	0x3d910f1c	0.0708296
130	0x3cc185c4	0.023623355
131	0x3d9e0228	0.07715255
132	0x3dfa56c4	0.122235805
133	0x3da874eb	0.08225425
134	0x3e37072a	0.17873827
135	0x3c652102	0.01398492
136	0xbdf313b3	-0.11868992
137	0xbc84dc92	-0.016218457
138	0x3c1405b3	0.009034562
139	0x3d41beb4	0.04730101
140	0x3e1bae51	0.15203215
141	0xbbb440db	-0.0055008954
142	0xbd98a71d	-0.07453749
143	0xbd83f9bb	-0.06444117
144	0xbd84bc44	-0.06481221
145	0x3dc348fe	0.095354065
146	0x3c9f1603	0.019419676
147	0xbdf9b1f2	-0.121921435
148	0x3e0fd8d1	0.14047553
149	0xbe2e9652	-0.1704953
150	0xbd731fb3	-0.059356403
151	0xbd8dc03a	-0.0692143
152	0xbdf3c9ff	-0.11903762
153	0xbd1c11eb	-0.038103025
154	0xbc32abd8	-0.010905229
155	0xbd575158	-0.05256781
156	0x3deaee8e	0.11471282
157	0xbde03f1e	-0.10949539
158	0xbcededc1	-0.029044034
159	0x3dba6f52	0.09103264
160	0x3d5751be	0.05256819
161	0x3dc328a5	0.09529237
162	0xbc5c5c4d	-0.013449741
163	0xbe18d100	-0.14923477
164	0x3e192809	0.14956678
165	0x3e389798	0.18026578
166	0xbd070586	-0.032964252
167	0x3e0709d5	0.13187344
168	0xbcbb68a2	-0.022877041
169	0xbdc8370c	-0.09776124
170	0x3d626515	0.05527218
171	0x3d5c5e39	0.053800795
172	0xbd439da4	-0.04775776
173	0x3e2c1182	0.16803554
174	0x3ce18596	0.027529519
175	0x3d69dddb	0.057096343
176	0xbd8134fe	-0.063089356
177	0x3df278f9	0.1183948
178	0x3dd8cc53	0.10585847
179	0x3de2cfec	0.11074814
180	0xbdd725a9	-0.1050523
181	0xbd982898	-0.07429618
182	0x3dcb74e6	0.09934406
183	0x3da8edad	0.08248458
184	0x3d165f02	0.0367117
185	0x3d56164e	0.052267365
186	0x3c3c05b8	0.011475973
187	0x3e2cb748	0.16866791
188	0xbe169ff8	-0.1470946
189	0xbda55664	-0.08073118
190	0xbd3295aa	-0.043599762
191	0xbdbb4788	-0.09144503
192	0x3d5a93df	0.053363677
193	0xbe18152e	-0.1485183
194	0x3dc11cdd	0.09429333
195	0xbbf58acc	-0.0074933525
196	0xbc96e868	-0.018421367
197	0xbe358b03	-0.1772881
198	0xbe03dfc2	-0.12878326
199	0xbe0aa8da	-0.13540974
200	0x3e3f5003	0.18682866
201	0xbda9c40f	-0.08289348
202	0xbbb90ba8	-0.0056471415
203	0x3bcccbab	0.006249865
204	0xbddaefec	-0.10690293
205	0x3db18ad2	0.08669056
206	0x3d377d3c	0.044797167
207	0x3e2340bf	0.15942667
208	0x3d5c7984	0.053826824
209	0xbd97f272	-0.0741929
210	0x3df55a90	0.11980164
211	0x3e24086e	0.1601884
212	0xbe1b7d0f	-0.15184425
213	0x3c4d4901	0.0125296125
214	0xbe03d1b6	-0.12872967
215	0x3a2f5a6e	0.0006689195
216	0xbd896083	-0.06707861
217	0xbdb173c9	-0.086646624
218	0x3ccbebfb	0.024892798
219	0x3dbc06a1	0.09180952
220	0xbde0daa5	-0.10979203
221	0x3cf7dd5d	0.030256921
222	0xbcd54fc7	-0.026039017
223	0x3d0b98a6	0.034081124
224	0x3e1ce29f	0.15320824
225	0xbda2f420	-0.079567194
226	0xbe1c4d87	-0.1526395
227	0x3d7750cf	0.0603798
228	0xbe21a7a1	-0.15786602
229	0xbde0f4f1	-0.10984219
230	0x3e3774bb	0.17915623
231	0xbe0cff69	-0.13769306
232	0x3c888b1f	0.0166679
233	0xbd968ddd	-0.07351277
234	0x3d30a2c7	0.043123987
235	0x3e27ad0e	0.16374609
236	0x3e1125ed	0.14174624
237	0xbd8720d6	-0.0659806
238	0x3debfe93	0.115231656
239	0xbdf8c3e1	-0.12146736
240	0xbdea88ba	-0.1145186
241	0x3caebcc8	0.021330252
242	0xbe0764c0	-0.13222027
243	0xbd318c9b	-0.043346982
244	0x3df5600a	0.119812086
245	0x3cccc4ae	0.024996128
246	0x3d39ae98	0.04533252
247	0xbd518824	-0.051155224
248	0x3d55d411	0.052204195
249	0xbc486685	-0.012231474
250	0x3da08699	0.078381725
251	0xbdd6655b	-0.10468551
252	0x3db8e17a	0.09027381
253	0xbd750918	-0.059823126
254	0xbd3160ba	-0.043305136
255	0x3d2c3585	0.042043228

embedding_layer.bias f4 [32]
0	0x3d72a1ba	0.059236266
1	0xbb831ca9	-0.0040012193
2	0x3e1911ea	0.1494824
3	0xbc06d503	-0.008229497
4	0xbd974fca	-0.073882654
5	0x3c8beb2e	0.017079916
6	0x3d5eadce	0.05436497
7	0x3c9a93f8	0.018869385
8	0x3e3f1270	0.18659377
9	0xbde48ff5	-0.1116027
10	0x3c85dca6	0.016340565
11	0xbc21a274	-0.009865392
12	0x3d9c5bcd	0.07634697
13	0x3e3210e6	0.17389259
14	0xbe0c9bed	-0.13731356
15	0xbdbf2e53	-0.093350075
16	0xbb9e233c	-0.0048259776
17	0x3c61eb67	0.013789034
18	0xbe320ffc	-0.1738891
19	0x3e0d98a6	0.13827762
20	0x3d7bc82b	0.061470192
21	0x3dfba662	0.122875944
22	0x3e1a641c	0.15077251
23	0xbe503828	-0.20333922
24	0x3d9f586c	0.07780537
25	0xbdc49230	-0.095981956
26	0xbdbb6d75	-0.09151737
27	0x3c778c97	0.015109203
28	0xbe14300a	-0.1447145
29	0x3e219c5d	0.15782304
30	0xbbfc4156	-0.0076982183
31	0x3dfd8b0a	0.12380035

classifier.weight f4 [1, 32]
0	0x3e25a702	0.1617699
1	0xbe54a0e8	-0.20764506
2	0x3e17758c	0.14790934
3	0xbe4414cf	-0.19148563
4	0xbd775257	-0.06038126
5	0x3e2fe0a9	0.17175545
6	0x3d724649	0.05914906
7	0xbe30d953	-0.17270403
8	0x3d57c5fe	0.052679054
9	0xbdb0d0a9	-0.08633549
10	0xbdf2eb4b	-0.11861285
11	0xbda35c78	-0.079766214
12	0x3e55d131	0.20880581
13	0x3d67a2fd	0.056551922
14	0xbd89d33a	-0.067297414
15	0xbd593dc8	-0.053037435
16	0xbdef79bf	-0.11693143
17	0xbdf4e63b	-0.119579755
18	0xbd8b5047	-0.06802421
19	0x3e31be1f	0.17357682
20	0x3def78fb	0.11692997
21	0x3d9cf63c	0.07664153
22	0x3e40d7da	0.18832341
23	0xbe551f8c	-0.20812815
24	0x3e266c1d	0.1625218
25	0xbe4e2ff8	-0.20135486
26	0xbd8afb97	-0.06786268
27	0x3e4bb5c9	0.19893564
28	0xbd883a6a	-0.066517666
29	0x3e14edcd	0.14543839
30	0xbe32af09	-0.17449583
31	0x3e3f4e8d	0.18682308
